models/UTK_best_model.pth (torch_old, 459108 bytes, 24 tensors)

encoder.0.0.weight f4 [64, 3, 3, 3]
0.16026439 0.17693272 -0.03868904 0.18899392 -0.023220006 0.051873982 -0.09023897 0.11918336
0.18193974 -0.14028154 0.16807236 0.032412354 0.14370908 0.026937779 0.09142461 -0.030386444
0.14513679 0.02762822 -0.0864064 0.053017292 -0.08745811 -0.017441988 -0.073286675 0.13006735
-0.14833136 -0.08453785 -0.05036372 -0.11958436 0.01963271 -0.18277244 0.17888673 -0.15605432
0.15835692 0.04417487 -0.048919365 0.13553773 0.017558625 0.14280993 0.01778528 -0.06426264
0.050263863 -0.048833754 0.082783274 0.17783263 0.11994069 -0.09439881 0.105489746 0.03322025
0.09548729 -0.117897876 -0.18938881 -0.07269834 -0.14401624 0.16146676 0.04826317 0.07457497
0.053277142 -0.008568815 0.14176004 -0.1445541 0.00977166 -0.13817587 0.0537156 -0.063170314
0.05643984 -0.04585687 0.16061993 -0.1234883 -0.11525706 -0.1006356 0.18259789 0.07469268
0.1943981 -0.15666327 -0.18958591 -0.14318252 -0.13815127 0.08671876 0.08246295 0.16598353
-0.08160255 -0.1241406 0.10573894 -0.07465301 0.12150996 -0.043969132 0.113082804 -0.14030865
-0.08837562 0.07098768 0.04955464 -0.04312176 0.11965946 0.13426332 -0.13827404 -0.10163171
0.18938811 -0.051529244 -0.055262275 -0.17546603 -0.117839 0.043544833 -0.048548337 -0.1758735
-0.014799244 -0.13688998 -0.16337971 -0.09591849 -0.151957 -0.09085017 0.22363795 0.040068865
0.073791556 -0.1625785 -0.10975778 -0.038493242 0.06026805 -0.18742993 -0.07701678 -0.10345283
-0.040064007 -0.08145511 -0.011456343 -0.14719734 -0.1321847 -0.10944403 -0.0783942 -0.15067421
0.17230386 -0.06526607 0.15991044 0.064629935 -0.17064719 0.13316461 -0.044825908 -0.07317633
-0.1593439 -0.19129667 0.053724825 -0.045181304 0.07174648 -0.15837091 0.14085643 -0.14506897
-0.030169725 0.042784188 0.102185994 0.1577271 0.17493315 -0.15215024 0.049094796 -0.08373936
-0.021589452 -0.13607761 0.18181856 -0.1331761 0.10811352 0.06914664 0.065879114 -0.1004049
0.17571212 0.044822022 0.022911038 -0.17677154 0.07656221 -0.028947912 -0.08890884 0.16971742
0.052653268 -0.09174555 -0.06716469 -0.02070887 0.090236835 -0.06751928 -0.12037484 -0.08321647
-0.16011512 0.0673852 0.1452823 -0.19149776 0.034840636 0.085153274 0.016279671 -0.07651155
0.090229265 0.087973654 0.071291 -0.035012286 -0.055517383 0.012660436 -0.037044227 -0.06104113
0.12119252 0.1637183 -0.015170506 -0.05935749 -0.006246417 -0.017793747 0.044859365 0.06119539
-0.1732022 -0.061693363 0.17671286 0.08899085 -0.013812278 -0.11119756 -0.11159615 -0.16269384
-0.053113148 0.06751366 0.13555896 0.10104267 -0.15811925 -0.11190121 -0.023557765 0.19156893
0.016123714 -0.06108371 0.07102209 -0.07998899 -0.13041086 0.13067794 -0.09159025 -0.03648399
-0.19515644 0.1228231 0.14040294 0.06929339 -0.12940656 -0.18230318 -0.15566546 0.15106021
0.103115015 0.16535558 0.086847894 0.029637463 -0.014358352 -0.15328291 -0.17660244 -0.19472864
0.072645105 -0.10360193 -0.055926155 -0.09634795 -0.025543898 -0.13734889 -0.11172912 0.08393658
-0.044955548 0.119662195 -0.048801444 -0.1488763 -0.0197615 -0.08181829 -0.046552118 -0.16565372
00000000: 591c 243e da2d 353e 6678 1ebd 9f87 413e
00000010: e237 bebc d079 543d 36cf b8bd 6816 f43d
00000020: 694e 3a3e f7a5 0fbe 291b 2c3e d1c2 043d
00000030: 7928 133e 9eac dc3c d33c bb3d feec f8bc
00000040: bd9e 143e 9454 e23c d7f5 b0bd a928 593d
00000050: 3d1d b3bd 80e2 8ebc 5317 96bd 6030 053e
00000060: 2de4 17be 2e22 adbd 304a 4ebd a5e8 f4bd
00000070: c7d4 a03c b328 3bbe 152e 373e b4cc 1fbe
00000080: 5128 223e b5f0 343d ac5f 48bd 67ca 0a3e
00000090: 1bd7 8f3c c43c 123e 6fb2 913c 229c 83bd
000000a0: 7be1 4d3d e705 48bd 478a a93d c219 363e
000000b0: 77a3 f53d 2a54 c1bd 020b d83d f511 083d
000000c0: d78e c33d 7174 f1bd 24ef 41be dee2 94bd
000000d0: fe78 13be 8b57 253e 9aaf 453d c3ba 983d
000000e0: 2239 5a3d 3764 0cbc 8b29 113e fd05 14be
000000f0: 5019 203c fa7d 0dbe e404 5c3d 705f 81bd
00000100: 762d 673d 6ad4 3bbd 8d79 243e 6fe7 fcbd
00000110: e50b ecbd 0a1a cebd f1fa 3a3e 7af8 983d
00000120: 4c10 473e 566c 20be cf22 42be 709e 12be
00000130: 8777 0dbe 9b99 b13d 56e2 a83d 96f7 293e
00000140: 3d1f a7bd 6d3d febd a88d d83d ade3 98bd
00000150: 37da f83d fa18 34bd f597 e73d 12ad 0fbe
00000160: 47fe b4bd fd61 913d cef9 4a3d 71a0 30bd
00000170: 0510 f53d 537c 093e b697 0dbe 4924 d0bd
00000180: f5ee 413e 5410 53bd b25a 62bd 5ead 33be
00000190: 9355 f1bd 115c 323d 9fda 46bd 2f18 34be
000001a0: 8778 72bc e32c 0cbe 034d 27be ea70 c4bd
000001b0: 9e9a 1bbe a70f babd 5901 653e 401f 243d
000001c0: 0720 973d fa7a 26be b0c8 e0bd 17ab 1dbd
000001d0: a1db 763d a2ed 3fbe f9ba 9dbd 14df d3bd
000001e0: 281a 24bd f0d1 a6bd 63b3 3bbc e6ba 16be
000001f0: 6d5b 07be 3124 e0bd 238d a0bd 574a 1abe
00000200: 6c70 303e 38aa 85bd 90bf 233e b35c 843d
00000210: 23be 2ebe 4e5c 083e 5f9b 37bd 79dd 95bd
00000220: 0c2b 23be 46e3 43be 900e 5c3d 0810 39bd
00000230: d2ef 923d fc2b 22be ab3c 103e f68c 14be
00000240: 8026 f7bc 793e 2f3d e446 d13d 3783 213e
00000250: ad21 333e 46cd 1bbe a017 493d 8b7f abbd
00000260: 5ddc b0bc ee57 0bbe a52e 3a3e 515f 08be
00000270: 9f6a dd3d c19c 8d3d a1eb 863d 16a1 cdbd
00000280: e1ed 333e 4c97 373d eeaf bb3c 9903 35be
00000290: a6cc 9c3d 2c24 edbc d715 b6bd 67ca 2d3e
000002a0: f4aa 573d 17e5 bbbd a48d 89bd a6a5 a9bc
000002b0: 17ce b83d 8c47 8abd 1687 f6bd 666d aabd
000002c0: 38f5 23be 4001 8a3d e2c4 143e fd17 44be
000002d0: 0eb5 0e3d d764 ae3d f25c 853c 16b2 9cbd
000002e0: 1fca b83d 882b b43d 0401 923d 0b69 0fbd
000002f0: 3266 63bd b86d 4f3c b0bb 17bd 4406 7abd
00000300: c933 f83d c5a5 273e b78d 78bc d720 73bd
00000310: beae ccbb 31c4 91bc 74be 373d 04a8 7a3d
00000320: eb5b 31be 2eb2 7cbd 37f4 343e d640 b63d
00000330: e54c 62bc 8cbb e3bd 868c e4bd 3799 26be
00000340: 2c8d 59bd 9a44 8a3d f8cf 0a3e 76ef ce3d
00000350: 03ea 21be 762c e5bd 37fc c0bc a52a 443e
00000360: e115 843c ea32 7abd 0874 913d 45d1 a3bd
00000370: 6d8a 05be 70d0 053e ab93 bbbd 3c70 15bd
00000380: 17d7 47be ad8a fb3d cac5 0f3e b1e9 8d3d
00000390: 2783 04be afad 3abe c466 1fbe 87af 1a3e
000003a0: f72d d33d f952 293e 4fdd b13d 44ca f23c
000003b0: 4b3f 6bbc 32f6 1cbe 45d7 34be f266 47be
000003c0: f5c6 943d 402d d4bd d312 65bd 1352 c5bd
000003d0: 7041 d1bc 30a5 0cbe 3dd2 e4bd f1e6 ab3d
000003e0: 4f23 38bd 7411 f53d 06e4 47bd 0773 18be
000003f0: dfe2 a1bc 5990 a7bd 6fad 3ebd 21a1 29be

encoder.0.0.bias f4 [64]
0.04186819 -0.10078394 -0.09729957 0.1672084 0.07982264 -0.044362273 0.02615001 0.037323505
0.035081178 -0.06305697 -0.11411447 0.11977366 0.036665387 0.080451116 -0.07442482 0.09470866
0.14608145 0.10899374 0.04139546 0.18784155 -0.0031026576 0.045510337 0.18142238 0.18148148
-0.0858086 0.16685526 0.06973442 -0.02187329 0.1732143 -0.09974656 0.12913683 0.19760992
-0.12948602 -0.11275219 -0.18634169 -0.037130967 -0.16452423 -0.06502478 0.059229348 0.13930455
0.10119486 0.11692962 0.07592375 -0.12946363 -0.15881549 0.01588022 0.18424772 0.012112884
-0.014175524 -0.12894681 -0.092106216 -0.14974666 0.16269965 -0.031618405 -0.1590823 0.02664771
0.020395448 -0.025491515 0.073073596 0.107691824 -0.17385226 -0.1435815 -0.020690529 -0.17274284
00000000: fb7d 2b3d cf67 cebd ff44 c7bd ae38 2b3e
00000010: 0d7a a33d 37b5 35bd 8c38 d63c 88e0 183d
00000020: 48b1 0f3d 0324 81bd d9b4 e9bd e54b f53d
00000030: 722e 163d 8ec3 a43d 0a6c 98bd 9df6 c13d
00000040: 6096 153e 1c38 df3d 498e 293d 8959 403e
00000050: f555 4bbb 0c69 3a3d cac6 393e 48d6 393e
00000060: 6bbc afbd 1bdc 2a3e ebd0 8e3d 9d2f b3bc
00000070: 175f 313e ed47 ccbd 723c 043e 415a 4a3e
00000080: fc97 04be 9fea e6bd 5bd0 3ebe a416 18bd
00000090: 0a79 28be b62b 85bd 799a 723d daa5 0e3e
000000a0: 403f cf3d cc78 ef3d e97d 9b3d 1d92 04be
000000b0: 87a0 22be 3c17 823c 6fab 3c3e 1e75 463c
000000c0: 7540 68bc a20a 04be 2fa2 bcbd 3057 19be
000000d0: bd9a 263e 4d82 01bd 78e6 22be 4c4c da3c
000000e0: 5b14 a73c 95d3 d0bc 9ca7 953d 888d dc3d
000000f0: 5406 32be 0707 13be 2f7f a9bc 80e3 30be

encoder.0.1.weight f4 [64]
0.98707354 0.9896855 0.99748486 0.99261147 0.9825731 0.99921554 0.99378175 1.0061338
0.986368 0.9776092 0.9794304 1.0085813 0.9888377 0.99044025 1.0086161 0.9915803
1.0079671 0.9990509 0.9983916 1.0232219 1.0117568 0.9856263 0.98605686 0.98556566
1.0011542 0.9914199 0.999721 0.9970703 0.98425627 1.0224823 1.0007149 1.0075275
0.99159944 0.9922332 0.99510163 0.9776921 1.0027771 0.98680806 1.0052164 0.99947506
0.9987391 1.0231942 1.018485 1.0002384 1.0217164 0.9934819 1.0328662 0.9985221
0.9879344 1.0075759 1.0055547 0.9895659 0.99384856 1.0005178 1.0031781 1.0222601
0.98812467 0.99406844 1.0128825 0.9974707 1.0318873 0.9925143 1.0236689 0.98937106
00000000: dab0 7c3f 075c 7d3f 2b5b 7f3f c91b 7e3f
00000010: e989 7b3f 97cc 7f3f 7b68 7e3f fec8 803f
00000020: 9d82 7c3f 9944 7a3f f3bb 7a3f 3119 813f
00000030: 7824 7d3f 7e8d 7d3f 551a 813f 35d8 7d3f
00000040: 1105 813f cdc1 7f3f 9896 7f3f eff8 823f
00000050: 3f81 813f 0152 7c3f 396e 7c3f 084e 7c3f
00000060: d225 803f b2cd 7d3f b7ed 7f3f 0040 7f3f
00000070: 38f8 7b3f b3e0 823f 6d17 803f a9f6 803f
00000080: 76d9 7d3f ff02 7e3f fbbe 7e3f 084a 7a3f
00000090: 005b 803f 749f 7c3f eeaa 803f 99dd 7f3f
000000a0: 5ead 7f3f 07f8 823f b75d 823f d007 803f
000000b0: 9ac7 823f d454 7e3f f634 843f 259f 7f3f
000000c0: 45e9 7c3f 3ff8 803f 04b6 803f 3154 7d3f
000000d0: dc6c 7e3f f810 803f 2468 803f 6bd9 823f
000000e0: bdf5 7c3f 457b 7e3f 22a6 813f 3d5a 7f3f
000000f0: e214 843f 6b15 7e3f 9507 833f 6c47 7d3f

encoder.0.1.bias f4 [64]
-0.028942937 0.005908818 -0.011586567 -0.011161522 -0.022666011 -0.027409904 -0.048013225 0.01219602
-0.026806071 -0.011312961 -0.024253035 -0.011172203 -0.018942738 -0.008076709 -0.0066177766 -0.021047445
0.032314 -0.0040575867 -0.004471177 0.014569294 0.0086394595 -0.0313434 -0.048695825 -0.015743345
-0.019232925 -0.0063965353 -0.013093137 -0.01492085 -0.008750902 -0.007897995 -0.0045973486 0.0068712295
-0.015718985 -0.0135650495 -0.010608447 -0.027225802 -0.0025065648 -0.0067939777 0.019366767 -0.0019258704
0.009995337 0.0254502 -0.028946012 0.0009051135 -0.00951412 -0.023186434 0.005783621 -0.0104494365
-0.0007921485 -0.024150344 -0.008060535 -0.012411243 -0.021690054 -0.00447694 0.013333783 0.00594205
-0.0045276354 -0.02035325 -0.017590513 -0.0016565104 -0.023207799 -0.027369678 0.016120462 -0.0030898573
00000000: bd19 edbc c29e c13b 96d5 3dbc d1de 36bc
00000010: 12ae b9bc bc8a e0bc 84a9 44bd d1d1 473c
00000020: 6898 dbbc ff59 39bc 4dae c6bc 9e0b 37bc
00000030: cd2d 9bbc 2c54 04bc efd9 d8bb b16b acbc
00000040: af5b 043d 81f5 84bb f382 92bb 0cb4 6e3c
00000050: 858c 0d3c f061 00bd 4675 47bd 30f8 80bc
00000060: 5e8e 9dbc 079a d1bb 9984 56bc 9576 74bc
00000070: f15f 0fbc 9866 01bc 5ba5 96bb 0d28 e13b
00000080: 1ac5 80bc f13f 5ebc 0dcf 2dbc a508 dfbc
00000090: 2e45 24bb 04a0 debb 0ea7 9e3c 7d6d fcba
000000a0: 7bc3 233c f07c d03c 3020 edbc 2445 6d3a
000000b0: 1de1 1bbc 7af1 bdbc 8884 bd3b 1d34 2bbc
000000c0: 30a8 4fba f1d6 c5bc 5610 04bc 8758 4bbc
000000d0: 57af b1bc 4bb3 92bb f075 5a3c 87b5 c23b
000000e0: 8f5c 94bb dcbb a6bc fb19 90bc 441f d9ba
000000f0: 481e bebc 6036 e0bc 0f0f 843c 347f 4abb

encoder.0.1.running_mean f4 [64]
0.8850439 0.15441768 -0.18206494 -0.820541 -0.9285359 -0.036375295 -0.20098168 0.048434492
-0.7049033 -0.5988659 -0.7332656 0.22253415 -1.763848 -0.13907146 0.11249369 -0.7766606
0.02754025 -0.12172676 0.8682994 0.20808628 0.5993419 -0.59286404 -0.00743755 -0.87543815
0.5605671 1.0766726 0.06326856 0.22477345 -0.31203538 -0.03919761 0.32812652 0.36129573
0.8547184 0.5833744 -1.4297757 -0.4742834 0.3480695 -1.0566497 0.04882845 0.38756856
0.2947037 0.12918578 0.18171424 0.09579248 -0.193031 0.7417843 0.18243524 0.37941805
-0.14563842 -0.39531785 0.06802715 -0.44161174 -0.35279697 0.03382868 -0.27464426 0.14715992
1.034255 0.16402236 0.32332912 0.051428784 -0.03319489 -0.8710688 0.094529614 0.7070908
00000000: 3d92 623f ab1f 1e3e 3b6f 3abe fa0e 52bf
00000010: 87b4 6dbf 43fe 14bd 24ce 4dbe 3f63 463d
00000020: 8b74 34bf 474f 19bf 4bb7 3bbf fedf 633e
00000030: c5c5 e1bf c068 0ebe 1763 e63d 3bd3 46bf
00000040: 179c e13c e14b f9bd df48 5e3f 9214 553e
00000050: 796e 193f f0c5 17bf b1b6 f3bb b71c 60bf
00000060: 5381 0f3f 68d0 893f f292 813d 032b 663e
00000070: 1ac3 9fbe ac8d 20bd 3300 a83e c1fb b83e
00000080: d3ce 5a3f 0658 153f e402 b7bf 46d5 f2be
00000090: 2a36 b23e 4c40 87bf 5700 483d 636f c63e
000000a0: 67e3 963e 4749 043e 4c13 3a3e d92e c43d
000000b0: eba9 45be 93e5 3d3f 4ed0 3a3e 1543 c23e
000000c0: 3d22 15be 1a67 cabe d251 8b3d ef1a e2be
000000d0: cea1 b4be f18f 0a3d 2c9e 8cbe 17b1 163e
000000e0: 7862 843f 7af5 273e 658b a53e fda6 523d
000000f0: 5df7 07bd 5dfe 5ebf be98 c13d e703 353f

encoder.0.1.running_var f4 [64]
0.9897296 0.16813459 0.060979266 1.2282864 1.4709626 0.1925165 0.11555629 0.032647956
0.5992495 0.3342283 0.83487964 0.23170379 3.4271746 0.21505708 0.070434965 0.95672935
0.102032065 0.17089352 0.8067937 0.07195632 0.41135266 0.57613593 0.12375609 1.3668667
0.44702613 1.0607543 0.08755579 0.20705748 0.3081633 0.053682763 0.14018276 0.5221883
1.0331805 0.8237509 1.8396131 0.3121161 0.3304065 1.1208066 0.08971559 0.24885048
0.16456431 0.042856567 0.061174095 0.19844438 0.20797138 0.71146744 0.030866915 0.3127876
0.058306683 0.18374546 0.10995984 0.41365293 0.37893808 0.073222354 0.058174174 0.08733625
1.2440176 0.2054807 0.1374634 0.114673 0.05197989 0.5383496 0.11990722 1.0188371
00000000: eb5e 7d3f 792b 2c3e 65c5 793d 7d38 9d3f
00000010: 8148 bc3f 0c23 453e c7a8 ec3d ddb9 053d
00000020: 6a68 193f f91f ab3e acba 553f c243 6d3e
00000030: d456 5b40 ec37 5c3e 3540 903d 37ec 743f
00000040: 30f6 d03d b6fe 2e3e 088a 4e3f d65d 933d
00000050: d19c d23e a57d 133f d573 fd3d 7df5 ae3f
00000060: 9ce0 e43e ccc6 873f 7350 b33d e006 543e
00000070: 94c7 9d3e 75e2 5b3d 128c 0f3e 22ae 053f
00000080: 423f 843f 57e1 523f 7178 eb3f aecd 9f3e
00000090: 0a2b a93e 9776 8f3f cfbc b73d a9d2 7e3e
000000a0: 8c83 283e 5e8a 2f3d b091 7a3d 0135 4b3e
000000b0: 73f6 543e bb22 363f 9ddc fc3c b225 a03e
000000c0: fdd2 6e3d c527 3c3e a032 e13d 51ca d33e
000000d0: 2c04 c23e 9af5 953d 0b48 6e3d 59dd b23d
000000e0: f83b 9f3f 8869 523e 35c3 0c3e aed9 ea3d
000000f0: dde8 543d 48d1 093f eb91 f53d 4169 823f

encoder.1.0.weight f4 [64, 64, 3, 3]
-0.03775237 0.04166029 0.00046539563 -0.019075902 -0.01230112 -0.027466638 0.035313237 -0.0063794325
-0.018287325 -0.025439365 0.029569833 0.0018928405 0.001627408 -0.0059406473 -0.012375627 0.011732446
0.040745728 -0.010195759 -0.009134809 -0.06392911 -0.027630953 0.034565922 -0.0005762337 0.047444288
-0.01799488 -0.03393908 -0.024833795 0.032762967 -0.038894758 0.01542612 0.004664498 0.0060010212
0.018428268 -0.020156082 0.017393362 -0.039584603 -0.015282597 0.03046758 0.010637935 -0.005448905
-0.009826273 -0.02739629 0.02144879 -0.0041813366 -0.005353265 0.002239945 0.022789722 -0.027501347
-0.025635952 0.013295109 0.009019752 -0.022426039 -0.04699079 -0.004695264 0.019249909 0.0061865337
0.027039353 -0.0363032 0.018060332 -0.028860977 0.016614724 0.02247211 0.0048694466 0.045728896
-0.023788469 -0.01301832 -0.0354968 0.026349014 0.017589426 -0.021545537 0.02371563 0.04984005
-0.043144073 0.027484082 0.0027967338 0.0015188674 0.036880706 0.03591039 0.011404263 0.027275598
0.0129792085 0.0035390942 -0.03990174 0.005630421 -0.031848516 0.008431294 0.0027948637 -0.0007316075
-0.030728078 -0.02832875 0.026638316 0.015034009 0.01777327 -0.017185774 -0.012251266 -0.013190657
0.019092346 -0.026188832 0.021122193 0.024023192 -0.035741445 -0.010560356 -0.012830672 -0.021408591
0.010637827 -0.008234666 0.03922479 -0.037294287 0.01747409 -0.038230866 -0.023426883 0.0012450606
0.030131213 0.018561203 -0.038509738 0.0006633187 -0.028707216 0.009588008 -0.019202424 -0.004157172
0.029441707 -0.028478019 -0.03265895 0.008108599 0.005400168 -0.016397052 0.0376024 -0.016972385
-0.029609153 -0.029713964 0.0045168726 -0.007091166 0.029824989 -0.0063842633 0.012425216 -0.01866093
0.03219011 0.033638097 -0.038942523 -0.012502441 -0.03718381 0.013674023 -0.03936902 -0.022872008
0.053012356 -0.050268 0.0479595 0.017284658 0.031481795 -0.018206088 0.050668094 0.013316004
0.017280512 0.019511437 -0.0495784 -0.040412523 0.02739388 -0.033503555 -0.03501147 -0.008985214
-0.020159155 -0.011288879 -0.025877485 0.021499412 -0.02748858 0.007757957 0.02818544 0.015394669
0.013070602 0.011842184 -0.0006158095 -0.009316922 -0.012334108 -0.03454332 -0.01996317 0.05197235
-0.019705638 0.02338299 0.04530085 -0.005998902 -0.023479888 -0.019169636 -0.004975504 0.01506528
-0.029709378 0.0026932897 0.016312448 0.04419218 0.024520228 0.0040227035 0.024603924 0.016300667
0.010617593 -0.01717816 -0.038228028 -0.0111464355 -0.010704432 -0.0007002621 -0.009556016 0.013274319
0.024896646 -0.020392733 -0.042649243 -0.02472689 -0.022870783 0.02111772 -0.02965605 -0.0040672286
-0.010230467 -0.02629208 0.018789178 -0.019221826 -0.004260642 -0.03246591 -0.007685949 0.0015363686
0.0052141706 -0.003218605 0.02166152 -0.005160307 -0.01297073 -0.024802294 -0.0014936888 -0.030082965
0.042599496 -0.01834141 -0.015510273 0.0112223765 0.011486624 -0.0023174547 0.030444182 -0.021657992
0.019895315 0.004956717 -0.041126527 -0.02129857 0.005737169 0.0045380145 0.028386153 0.025186483
-0.022540862 -0.017375927 -0.009527836 -0.035308793 -0.010908819 -0.04375291 0.013459539 0.033193707
0.002102108 -0.025437936 -0.028562125 -0.013389326 0.009555667 -0.0032404575 0.0038634462 0.036835354
00000000: 3ba2 1abd fba3 2a3d 5800 f439 1145 9cbc
00000010: a38a 49bc b701 e1bc 9da4 103d 8f0a d1bb
00000020: 4dcf 95bc 3766 d0bc 6f3c f23c 3019 f83a
00000030: c04e d53a c3a9 c2bb 24c3 4abc 7239 403c
00000040: fee4 263d 1d0c 27bc 2aaa 15bc 44ed 82bd
00000050: 4f5a e2bc ff94 0d3d 640e 17ba f154 423d
00000060: 006a 93bc b403 0bbd 3e70 cbbc 7632 063d
00000070: 1c50 1fbd d6bd 7c3c a5d8 983b 37a4 c43b
00000080: e1f6 963c 5e1e a5bc 867c 8e3c 7723 22bd
00000090: dc63 7abc 2597 f93c bc4a 2e3c ba8c b2bb
000000a0: 60fe 20bc 2f6e e0bc 5fb5 af3c 9803 89bb
000000b0: 716a afbb 0bcc 123b 83b1 ba3c 814a e1bc
000000c0: 7d02 d2bc bbd3 593c 95c7 133c d0b6 b7bc
000000d0: 6a79 40bd bbda 99bb fcb1 9d3c 68b8 ca3b
000000e0: a281 dd3c aab2 14bd 43f3 933c db6d ecbc
000000f0: 9a1b 883c 6e17 b83c e18f 9f3b 394e 3b3d
00000100: 09e0 c2bc cb4a 55bc 1865 11bd e3d9 d73c
00000110: b317 903c 4480 b0bc 4847 c23c 1525 4c3d
00000120: d7b7 30bd 4c26 e13c 6849 373b bc14 c73a
00000130: 3910 173d c616 133d f2d8 3a3c 1371 df3c
00000140: bfa6 543c 26f0 673b 0270 23bd 657f b83b
00000150: 9773 02bd 6923 0a3c 082a 373b 59c9 3fba
00000160: 73b9 fbbc b211 e8bc 9938 da3c 3451 763c
00000170: 4099 913c 2ec9 8cbc 89b9 48bc a01d 58bc
00000180: 8d67 9c3c f689 d6bc 7308 ad3c 49cc c43c
00000190: 9f65 12bd 5805 2dbc bd37 52bc 1261 afbc
000001a0: 484a 2e3c b1ea 06bc 2caa 203d e5c1 18bd
000001b0: d325 8f3c f897 1cbd bce9 bfbc 4d31 a33a
000001c0: bcd5 f63c aa0d 983c 63bc 1dbd 90e2 2d3a
000001d0: 652b ebbc 0517 1d3c 674e 9dbc e338 88bb
000001e0: bc2f f13c bc4a e9bc 64c5 05bd eed9 043c
000001f0: e4f3 b03b 1c53 86bc f904 1a3d ac09 8bbc
00000200: e58e f2bc b36a f3bc 4602 943b 035d e8bb
00000210: 8953 f43c 1533 d1bb 2293 4b3c cfde 98bc
00000220: c7d9 033d 1ac8 093d 3282 1fbd 0ad7 4cbc
00000230: 0d4e 18bd 0209 603c 6941 21bd 145e bbbc
00000240: 7c23 593d d2e5 4dbd 2e71 443d 8e98 8d3c
00000250: 0ef3 003d ef24 95bc 5989 4f3d 5e2b 5a3c
00000260: dc8f 8d3c 73d6 9f3c b812 4bbd 9a87 25bd
00000270: 2169 e03c 063b 09bd 3068 0fbd b836 13bc
00000280: d024 a5bc fef4 38bc 05fd d3bc 891f b03c
00000290: bb2f e1bc 7636 fe3b 27e5 e63c ec39 7c3c
000002a0: 1426 563c b805 423c 476e 21ba 01a6 18bc
000002b0: 0015 4abc 4c7d 0dbd cd89 a3bc f5e0 543d
000002c0: b86d a1bc af8d bf3c 628d 393d 7092 c4bb
000002d0: e558 c0bc a409 9dbc 8d09 a3bb 5dd4 763c
000002e0: 1561 f3bc e781 303b afa1 853c dc02 353d
000002f0: a5de c83c e2d0 833b 2b8e c93c fa88 853c
00000300: 6af5 2d3c 36b9 8cbc fe94 1cbd 8a9f 36bc
00000310: a461 2fbc cb91 37ba d690 1cbc 877c 593c
00000320: 0df4 cb3c a90e a7bc f9b0 2ebd 0c90 cabc
00000330: 825b bbbc 12ff ac3c 3ff1 f2bc 6346 85bb
00000340: b09d 27bc 7d62 d7bc c3eb 993c 1777 9dbc
00000350: db9c 8bbb f9fa 04bd 6ada fbbb fa5f c93a
00000360: a2db aa3b 3bef 52bb 8073 b13c cb17 a9bb
00000370: 2f83 54bc 2e2e cbbc e1c7 c3ba 8d70 f6bc
00000380: cf7c 2e3d ba40 96bc cd1e 7ebc 0fde 373c
00000390: 6532 3c3c 70e0 17bb 1466 f93c 1a6c b1bc
000003a0: 80fb a23c f56b a23b 4a74 28bd 577a aebc
000003b0: ddfe bb3b a0b3 943b 148a e83c e253 ce3c
000003c0: 9da7 b8bc f657 8ebc a41a 1cbc f49f 10bd
000003d0: e7ba 32bc 4036 33bd 6685 5c3c 20f6 073d
000003e0: 85c3 093b 3863 d0bc 1efb e9bc e75e 5bbc
000003f0: 5f8f 1c3c db5d 54bb df31 7d3b abe0 163d

encoder.1.0.bias f4 [64]
-0.011902915 0.0068143634 -0.014964012 -0.01011727 0.002308603 0.0047930577 -0.029273134 -0.028703397
-0.011279241 -0.005132878 0.035428073 -0.024247296 -0.029078038 0.033229068 0.007626016 -0.023662549
-0.0021514073 -0.029150061 -0.0018487636 -0.009512119 -0.003263694 0.014823471 0.031661298 0.027700486
0.011536671 0.037710227 0.037783146 -0.0168744 -0.023820698 0.003505201 -0.010703101 0.028870294
0.042068694 0.014489232 -0.0012689764 0.014496712 -0.027973358 0.010330613 -0.0040142857 -0.024011727
-0.0064310045 0.047069225 -0.024394272 -0.03409208 0.030822154 -0.014277313 -0.014954665 0.0187751
0.02786751 0.018955277 0.029019412 -0.04373747 -0.014174231 0.025850069 -0.03424874 -0.010748257
0.013630982 0.0013447172 0.0040122136 -0.017665325 0.00039078025 -0.028114913 -0.00359038 -0.004934226
00000000: 7204 43bc 064b df3b 9e2b 75bc e8c2 25bc
00000010: ee4b 173b 150f 9d3b 36ce efbc 6323 ebbc
00000020: 91cc 38bc b431 a8bb 071d 113d 44a2 c6bc
00000030: 1135 eebc 341b 083d a9e3 f93b f6d7 c1bc
00000040: a0fe 0cbb 1ccc eebc 3652 f2ba b8d8 1bbc
00000050: b3e3 55bb 25de 723c 47af 013d 21ec e23c
00000060: 4e04 3d3c 0a76 1a3d 80c2 1a3d 2f3c 8abc
00000070: a023 c3bc 84b7 653b 0f5c 2fbc 6581 ec3c
00000080: 3950 2c3d 3e64 6d3c c853 a6ba 9e83 6d3c
00000090: 6228 e5bc bb41 293c 458a 83bb 3eb4 c4bc
000000a0: 2dbb d2bb a9cb 403d 7fd6 c7bc 23a4 0bbd
000000b0: be7e fc3c 64eb 69bc 6904 75bc 3dce 993c
000000c0: 684a e43c 1948 9b3c 1eba ed3c 1026 33bd
000000d0: 093b 68bc 86c3 d33c 6848 0cbd 7519 30bc
000000e0: 7b54 5f3c 3941 b03a e378 833b dfb6 90bc
000000f0: a3e1 cc39 3f51 e6bc 954c 6bbb 4aaf a1bb

encoder.1.1.weight f4 [64]
0.99831957 1.0026023 1.0101371 0.9984691 0.98774046 1.0134802 0.985592 1.0014476
1.0105166 0.99030864 1.0046773 0.9905707 1.0190908 0.9994883 0.9756491 0.9982854
0.9910461 0.99532044 0.99597955 0.995261 0.9996173 0.9952956 1.001555 1.0057783
0.99754655 1.000311 1.0038792 0.9947814 0.99612135 0.98617774 0.9957 0.9889896
1.01385 0.99367195 1.0114747 0.9853364 0.9892883 1.0055147 1.0163847 0.99703705
0.99574023 0.99994683 1.0271693 1.0030732 1.0041101 1.0109725 1.0130581 0.9838858
0.9997037 1.0004808 0.9915044 0.99817246 0.9978667 0.99799997 1.0004773 1.0016068
1.0262579 0.999382 0.99210745 1.0212061 0.99657077 1.0240339 0.9953105 1.010907
00000000: df91 7f3f 4655 803f 2c4c 813f ac9b 7f3f
00000010: 8fdc 7c3f b8b9 813f c24f 7c3f 6f2f 803f
00000020: 9c58 813f de84 7d3f 4499 803f 0b96 7d3f
00000030: 9171 823f 77de 7f3f 24c4 793f a28f 7f3f
00000040: 32b5 7d3f 52cd 7e3f 84f8 7e3f 6dc9 7e3f
00000050: ebe6 7f3f b1cb 7e3f f432 803f 58bd 803f
00000060: 365f 7f3f 310a 803f 1d7f 803f fea9 7e3f
00000070: cf01 7f3f 2576 7c3f 32e6 7e3f 6c2e 7d3f
00000080: d6c5 813f 4961 7e3f 0178 813f 023f 7c3f
00000090: ff41 7d3f b5b4 803f e518 823f d23d 7f3f
000000a0: d5e8 7e3f 84fc 7f3f 497a 833f b464 803f
000000b0: ae86 803f 8c67 813f e3ab 813f f1df 7b3f
000000c0: 95ec 7f3f c10f 803f 3bd3 7d3f 3b88 7f3f
000000d0: 3174 7f3f ed7c 7f3f a40f 803f a734 803f
000000e0: 6b5c 833f 80d7 7f3f c1fa 7d3f e2b6 823f
000000f0: 431f 7f3f 8b13 833f abcc 7e3f 6765 813f

encoder.1.1.bias f4 [64]
-0.019595163 -0.041484747 -0.0035914765 -0.02434811 -0.032204494 -0.04567708 -0.019051073 -0.028798997
-0.028759437 -0.0057697347 -0.017664067 -0.020550303 -0.025865516 -0.013974239 -0.026368558 -0.029161623
-0.020833826 -0.014104526 -0.022454513 -0.022559589 -0.006492556 -0.02017425 -0.0019062961 -0.021047655
-0.010979901 -0.021027375 -0.020445768 -0.01832161 -0.0016955922 -0.00066829316 -0.009349999 -0.026614888
-0.013827986 -0.023000572 -0.022005865 -0.027306085 -0.013470638 -0.04301315 -0.03239603 -0.01584729
-0.035541784 -0.0020870024 0.010174334 -0.022763798 -0.017081806 -0.003929202 0.009635826 -0.012576788
-0.029166529 -0.010413266 -0.008876137 -0.034856055 -0.010778597 -0.0022356599 -0.0030604135 -0.004617691
-0.019234555 -0.03938625 -0.020763217 -0.04071094 -0.029507324 -0.00081875356 -0.029880939 -0.012401632
00000000: 0986 a0bc e9eb 29bd fa5e 6bbb b075 c7bc
00000010: dce8 03bd e417 3bbd ff10 9cbc e0eb ebbc
00000020: e998 ebbc 0b10 bdbb 3cb4 90bc 1c59 a8bc
00000030: ebe3 d3bc 35f4 64bc e002 d8bc 5be4 eebc
00000040: b3ab aabc ab16 67bc 87f2 b7bc e3ce b8bc
00000050: 82bf d4bb 7844 a5bc afdc f9ba 226c acbc
00000060: 0be5 33bc 9a41 acbc e27d a7bc 3317 96bc
00000070: a23e deba 6530 2fba bd30 19bc 7707 dabc
00000080: c78e 62bc b26b bcbc a545 b4bc 03b1 dfbc
00000090: f3b3 5cbc 8f2e 30bd b3b1 04bd 2dd2 81bc
000000a0: 4394 11bd 17c6 08bb 40b2 263c 257b babc
000000b0: 25ef 8bbc 89c0 80bb 95df 1d3c df0e 4ebc
000000c0: a5ee eebc 679c 2abc 386d 11bc 39c5 0ebd
000000d0: b698 30bc 2684 12bb 3891 48bb 0050 97bb
000000e0: c991 9dbc 7a53 21bd 9f17 aabc 84c0 26bd
000000f0: 58b9 f1bc 9fa1 56ba dfc8 f4bc 3730 4bbc

encoder.1.1.running_mean f4 [64]
-0.24229433 0.46118757 -0.7485622 0.2106538 0.083804354 0.99839973 0.59550476 -0.20887734
1.9227748 -1.2900033 -0.5120392 0.37686938 0.6341237 0.80328596 -0.9460024 0.15190166
-0.104943566 0.051141474 0.4987295 -1.0894841 0.58007056 0.38884032 -0.2819321 -0.6953117
-1.1543723 -0.37961376 0.27497336 -1.2824154 -1.3016372 -1.380399 -1.3843483 -1.1522701
-0.43065667 -0.1488637 0.75173086 0.6439902 0.32396048 0.15250185 0.091258325 0.8218129
-0.17201623 0.2909396 -0.36177292 -0.29167095 -0.95123434 -0.67611027 -0.5366575 -0.1272537
0.11544219 -0.6223845 0.24286798 -0.9764032 -0.3919996 -1.2693928 -0.9994514 0.5768554
-1.1780717 -0.16044623 -0.15794961 -0.70578676 -0.17831942 0.47038755 0.96150064 0.60403717
00000000: 011c 78be c720 ec3e c6a1 3fbf a1b5 573e
00000010: 9ea1 ab3d 2097 7f3f 0073 183f f1e3 55be
00000020: 7c1d f63f d41e a5bf 0015 03bf 06f5 c03e
00000030: ee55 223f 26a4 4d3f 372d 72bf 1c8c 1b3e
00000040: a7ec d6bd b979 513d 7959 ff3e 3774 8bbf
00000050: 817f 143f 1416 c73e 6759 90be f3ff 31bf
00000060: 79c2 93bf bc5c c2be 4fc9 8c3e 3026 a4bf
00000070: 0c9c a6bf eab0 b0bf 5332 b1bf 967d 93bf
00000080: 087f dcbe ba6f 18be 6f71 403f 8bdc 243f
00000090: 26de a53e 7229 1c3e a5e5 ba3d 5562 523f
000000a0: 0625 30be 09f6 943e 4d3a b9be e555 95be
000000b0: 1884 73bf 9015 2dbf 6362 09bf cb4e 02be
000000c0: f46c ec3d 9754 1fbf 62b2 783e 8ff5 79bf
000000d0: 2cb4 c8be 777b a2bf 0cdc 7fbf ccac 133f
000000e0: 0ecb 96bf 044c 24be 8bbd 21be 71ae 34bf
000000f0: 5e99 36be a3d6 f03e e824 763f 2ea2 1a3f

encoder.1.1.running_var f4 [64]
0.48842895 0.44029814 0.39819708 0.20988935 0.32538337 0.6203224 0.48220685 0.68506163
0.7375758 1.4843526 0.35752293 0.3804068 0.39494288 0.3302401 1.2213149 0.28335097
0.46432397 0.5453513 0.7489749 0.8856442 0.20107602 0.25828812 0.45175225 0.6963838
0.775534 0.13418509 0.27364478 0.99149364 1.4377309 0.5942451 1.2298135 0.63074976
0.1977942 0.8249029 0.49525747 0.27483836 1.6676857 0.64989835 0.27320376 0.4473417
0.19879241 0.49304578 0.30804896 0.47745565 0.29074505 0.28039542 0.52283317 0.41076195
0.21680701 0.39203355 0.3124911 0.55110294 0.34769693 1.9008216 0.7500101 0.32089895
0.39167222 0.39099294 0.5989125 0.29830995 0.4577445 0.43531746 0.41582638 0.3300701
00000000: 5c13 fa3e c26e e13e 7de0 cb3e 3ced 563e
00000010: a698 a63e 73cd 1e3f d1e3 f63e 3360 2f3f
00000020: c5d1 3c3f 44ff bd3f 3f0d b73e aec4 c23e
00000030: f435 ca3e 3b15 a93e 0c54 9c3f 6113 913e
00000040: dfbb ed3e 259c 0b3f d2bc 3f3f 94b9 623f
00000050: dfe6 4d3e 573e 843e 124c e73e 3546 323f
00000060: 6589 463f d167 093e 2b1b 8c3e 87d2 7d3f
00000070: 9107 b83f 7220 183f 876a 9d3f d178 213f
00000080: 908a 4a3e d62c 533f 6392 fd3e 9db7 8c3e
00000090: ba76 d53f bd5f 263f 5de1 8b3e f909 e53e
000000a0: 3d90 4b3e 7f70 fc3e 98b8 9d3e 1175 f43e
000000b0: 89dc 943e fd8f 8f3e 65d8 053f 644f d23e
000000c0: a802 5e3e 9fb8 c83e d5fe 9f3e 1515 0d3f
000000d0: 5505 b23e 1f4e f33f a900 403f de4c a43e
000000e0: 4389 c83e 3a30 c83e 5452 193f 15bc 983e
000000f0: 7d5d ea3e eee1 de3e 32e7 d43e f3fe a83e

encoder.2.0.weight f4 [64, 64, 3, 3]
0.024894847 -0.04393072 -0.043183032 0.044364136 0.04791483 0.0020993378 0.048274025 0.008240009
0.05171772 -0.02788154 -0.026921794 0.0013779722 -0.0061316155 0.033884548 -0.009524255 0.030366147
-0.03666118 -0.02461684 -0.027821422 0.00378409 0.031149296 0.010358871 -0.03994969 -0.045309104
0.013238504 0.008006729 0.017528318 -0.039080407 -0.03252718 0.025973586 0.036734253 0.0010897744
-0.049744643 0.01878179 0.00671187 -0.038353797 -0.0042267796 -0.007422965 0.03665032 0.010900016
0.024825262 0.015217175 -0.01473842 -0.048122067 0.017683776 -0.015585369 0.016542248 0.03444206
-0.0030031838 -0.02032362 0.044663798 -0.00069449906 0.05021091 0.05201069 0.037061702 0.041984674
-0.004506687 0.027631857 -0.04419489 -0.012586759 -0.04528493 -0.04328761 0.0034299104 -0.016038377
0.006335867 -0.033748902 -0.012520068 0.026758937 0.038880657 0.01613052 0.0059157484 -0.028532267
-0.021726727 -0.018520659 0.038756542 -0.012994532 0.017443825 0.021941781 -0.028817462 -0.024663223
-0.012294887 -0.040237244 0.030653352 -0.030422188 -0.04123879 -0.034120806 -0.0051685795 0.032070544
-0.043022085 -0.0025375492 -0.019934978 0.0024921945 -0.0073337643 -0.021312077 0.012029275 -0.0004500618
0.019005548 0.017925404 -0.004425077 -0.026411908 0.002437631 -0.031047896 0.004084988 -0.00030079833
-0.0036096943 -0.039692517 -0.025934907 0.024452403 0.03649043 -0.02037041 -0.022273703 0.020505361
0.027841344 -0.010437225 0.01136333 0.052227616 -0.006532113 0.020755494 -0.00552676 0.041079
0.021234015 0.014028255 0.036119215 0.0055900686 -0.009832446 -0.036167197 0.04256426 0.0279359
-0.004324699 -0.029424777 0.039834075 0.03614775 -0.03725241 0.007460037 -0.008681732 0.02247732
-0.0016539961 -0.017386224 -0.007248165 0.0021468587 -0.025159875 0.014693108 0.040500574 0.038388595
0.021026965 -0.03637535 0.00093735196 -0.021146292 -0.0025864406 -0.029724166 -0.014672022 -0.034537658
-0.003526138 -0.007864952 0.030601745 -0.0010029827 0.032385904 -0.021713 -0.016914614 0.0023612569
0.020838832 -0.015712924 0.014817607 0.031348776 0.025354328 0.0142332455 0.0052597704 -0.015319296
-0.02059505 -0.01849788 -0.017592376 -0.051654425 -0.008429276 -0.01570816 -0.0027252787 0.0065618893
-0.03527139 -0.03443183 -0.046913374 -0.021253206 -0.023280926 0.008855711 0.007210916 -0.033029653
-0.011734096 -0.010004759 -0.015315721 0.0044186125 -0.014856085 0.014029052 0.03348533 0.03207529
-0.021981627 -0.020867918 -0.028183553 0.020664465 -0.02080315 -0.021982132 -0.0025434955 0.029420855
-0.026812172 -0.0292579 0.03240071 0.0055710557 0.00097595935 -0.037644025 -0.012388432 0.023337198
-0.026377462 -0.022837304 -0.027438048 -0.013400867 -0.0007484492 0.018484667 -0.025127988 -0.042334728
0.015963763 -0.027022364 0.029567953 -0.022030124 -0.024664707 -0.0033275343 0.014735824 -0.021949837
-0.0062861075 -0.022604102 -0.015119838 -0.03979458 0.031033322 -0.011342225 -0.03794478 -0.03772721
0.024161255 -0.021058837 -0.006127649 0.037289396 0.035213117 -0.013623813 0.026861731 0.002311507
0.029964333 -0.03222406 0.011162339 -0.03691304 -0.019973228 -0.012537198 -0.027141564 0.0010221475
-0.001907505 0.037515327 0.0038267325 0.02841198 0.020657556 0.020987496 0.017145552 0.013798817
00000000: 47f0 cb3c b3f0 33bd b1e0 30bd 2bb7 353d
00000010: 5742 443d 0b95 093b fcba 453d 1a01 073c
00000020: f6d5 533d d467 e4bc 188b dcbc 139d b43a
00000030: b8eb c8bb 86ca 0a3d 9f0b 1cbc 6dc2 f83c
00000040: 092a 16bd 41a9 c9bc c0e9 e3bc 7ffe 773b
00000050: cf2c ff3c 41b8 293c 49a2 23bd 0a96 39bd
00000060: 4fe6 583c a82e 033c 8c97 8f3c c712 20bd
00000070: 383b 05bd 8fc6 d43c a876 163d c3d6 8e3a
00000080: 0ac1 4bbd 45dc 993c 3fef db3b df18 1dbd
00000090: cc80 8abb 583c f3bb a51e 163d fb95 323c
000000a0: 595e cb3c 7551 793c 6a79 71bc a51b 45bd
000000b0: 91dd 903c c759 7fbc 9c83 873c 1e13 0d3d
000000c0: 10d1 44bb b87d a6bc 63f1 363d 0b0f 36ba
000000d0: f5a9 4d3d 2909 553d 03ce 173d 1ff8 2b3d
000000e0: d5ac 93bb 345c e23c b305 35bd b238 4ebc
000000f0: b17c 39bd 594e 31bd 59c8 603b ea62 83bc
00000100: 1b9d cf3b 4a3c 0abd f920 4dbc 8f35 db3c
00000110: 5341 1f3d 2724 843c e5d8 c13b 80bc e9bc
00000120: 40fc b1bc a3b8 97bc 2ebf 1e3d 04e7 54bc
00000130: 5ae6 8e3c 40bf b33c 9912 ecbc 870a cabc
00000140: 7e70 49bc cfcf 24bd bd1c fb3c f437 f9bc
00000150: 01ea 28bd 42c2 0bbd 305d a9bb 675c 033d
00000160: ed37 30bd 034d 26bb ae4e a3bc 1654 233b
00000170: 1350 f0bb aa96 aebc 7016 453c 46f6 ebb9
00000180: 86b1 9b3c 4cd8 923c 3c00 91bb c95d d8bc
00000190: a9c0 1f3b 2858 febc 5ddb 853b 78b4 9db9
000001a0: 9f90 6cbb 9f94 22bd 7175 d4bc 6850 c83c
000001b0: fd76 153d d9df a6bc 5777 b6bc dcfa a73c
000001c0: 8813 e43c e500 2bbc 432d 3a3c a0ec 553d
000001d0: 560b d6bb 6d07 aa3c d319 b5bb 7442 283d
000001e0: f5f2 ad3c c4d6 653c bef1 133d e52c b73b
000001f0: 4518 21bc 0e24 14bd dd57 2e3d d4d9 e43c
00000200: 34b6 8dbb 3b0c f1bc 0e29 233d aa0f 143d
00000210: fc95 18bd 5373 f43b d33d 0ebc 5b22 b83c
00000220: e6ca d8ba 8e6d 8ebc 0482 edbb 50b2 0c3b
00000230: 151c cebc 5dbb 703c eee3 253d 5c3d 1d3d
00000240: be40 ac3c 52fe 14bd a0b8 753a fd3a adbc
00000250: 4681 29bb 1880 f3bc ec62 70bc 5c77 0dbd
00000260: c716 67bb 00dc 00bc 83b0 fa3c 8476 83ba
00000270: 15a7 043d 76df b1bc 8490 8abc 51bf 1a3b
00000280: 33b6 aa3c 64b8 80bc 8cc5 723c 9367 003d
00000290: e1b3 cf3c 8f32 693c 275a ac3b c9fd 7abc
000002a0: f3b6 a8bc de88 97bc e31d 90bc 9793 53bd
000002b0: f21a 0abc 66ae 80bc 979a 32bb 1e05 d73b
000002c0: bc78 10bd 6408 0dbd 3d28 40bd 341b aebc
000002d0: a4b7 bebc 8b17 113c 8c49 ec3b 1a4a 07bd
000002e0: 5e40 40bc 00eb 23bc caee 7abc 02ca 903b
000002f0: f066 73bc 1cda 653c ea27 093d 6161 033d
00000300: d012 b4bc 32f3 aabc 32e1 e6bc 8648 a93c
00000310: 5e6b aabc df13 b4bc c6b0 26bb 0104 f13c
00000320: 33a5 dbbc 43ae efbc 9bb6 043d 678d b63b
00000330: 86d7 7f3a 9f30 1abd daf8 4abc a72d bf3c
00000340: 8c15 d8bc 4c15 bbbc c2c5 e0bc 4f8f 5bbc
00000350: 9333 44ba 286d 973c 36d9 cdbc 2e67 2dbd
00000360: 70c6 823c 015e ddbc 7e38 f23c 8578 b4bc
00000370: a40d cabc c312 5abb 876e 713c 25d0 b3bc
00000380: b1fb cdbb 3d2c b9bc 32b9 77bc a4ff 22bd
00000390: 9839 fe3c bdd4 39bc fc6b 1bbd d987 1abd
000003a0: d3ed c53c 9583 acbc 72ca c8bb c4bc 183d
000003b0: a13b 103d 6a36 5fbc 220d dc3c a77c 173b
000003c0: c377 f53c 60fd 03bd 3ee2 363c 2132 17bd
000003d0: e59e a3bc d268 4dbc fc57 debc 94f9 853a
000003e0: 3f05 faba aca9 193d ebc9 7a3b 3ec0 e83c
000003f0: 093a a93c f8ed ab3c d474 8c3c 6f14 623c

encoder.2.0.bias f4 [64]
0.010986821 -0.004589393 0.009634025 0.0031278802 0.013439077 0.023390697 -0.009713454 0.039366826
-0.019824581 0.03311375 -0.023767691 -0.0030400506 0.016502265 0.040850684 0.012833862 0.009521789
0.01955994 -0.018498939 0.017642284 -0.017426742 0.023960985 -0.012807028 0.01881423 0.019597884
-0.01727269 -0.007104008 0.014235253 -0.027734995 -0.03270281 0.027411908 0.026203116 -0.017610086
-0.019171275 0.004590846 0.044105157 0.026244946 -0.04123028 -0.04104633 0.032066666 0.04158064
-0.004963558 -0.03998702 -0.0048320135 -0.01921547 0.054601796 -0.03609323 0.016913364 0.003379063
0.0038783643 -0.011274737 0.008211877 -0.03953073 -0.01889943 -0.0041955463 0.0308545 0.02670126
-0.032253698 0.010847671 -0.017276743 -0.03733676 0.027974987 0.023345625 -0.024148514 0.034296304
00000000: 1102 343c 9e62 96bb 08d8 1d3c 1ffd 4c3b
00000010: 932f 5c3c d99d bf3c 2e25 1fbc 1c3f 213d
00000020: 2967 a2bc 49a2 073d 76b4 c2bc 963b 47bb
00000030: c22f 873c 0c53 273d 1e45 523c 4701 1c3c
00000040: 2b3c a03c 168b 97bc 8d86 903c 87c2 8ebc
00000050: d449 c43c 92d4 51bc 4d20 9a3c be8b a03c
00000060: 757f 8dbc bdc8 e8bb fb3a 693c 8034 e3bc
00000070: 62f3 05bd f08e e03c eba7 d63c 0743 90bc
00000080: 140d 9dbc cf6e 963b 9ca7 343d a4ff d63c
00000090: 15e1 28bd 3220 28bd 5658 033d 7650 2a3d
000000a0: 58a5 a2bb 6ec9 23bd de55 9ebb c369 9dbc
000000b0: 22a6 5f3d 7fd6 13bd e58d 8a3c 4573 5d3b
000000c0: 282c 7e3b adb9 38bc 1c8b 063c faea 21bd
000000d0: fad2 9abc cb7a 89bb 94c2 fc3c 9abc da3c
000000e0: 741c 04bd 6eba 313c f587 8dbc 6eee 18bd
000000f0: cd2b e53c 533f bf3c 1bd3 c5bc 487a 0c3d

encoder.2.1.weight f4 [64]
0.99548084 0.9958297 0.9970138 0.9939244 0.999958 1.0188538 1.0270847 1.024968
1.0126866 0.9859203 0.97900075 1.01531 1.0026058 0.9958345 0.9967327 0.98618525
1.0033512 0.9925478 1.000356 1.0123086 0.99075216 0.99802154 0.98770326 1.0052024
0.985786 1.0039508 1.0016402 1.0184538 1.0026858 1.0075992 1.0172619 0.99367493
0.99523836 0.99092966 0.9855723 1.0002451 0.9996889 1.0083321 0.99585843 1.0006523
1.0038503 0.99173075 1.0020505 0.99665344 0.9962799 0.9886404 1.0079266 0.9874089
1.0598549 0.9944666 1.024201 0.98992217 0.99601614 1.0013603 0.99605423 1.004333
1.0196457 1.0128868 1.0009078 0.99887973 0.9992959 0.9937187 1.0192997 1.0024942
00000000: d5d7 7e3f b2ee 7e3f 4c3c 7f3f d471 7e3f
00000010: 3ffd 7f3f cd69 823f 8377 833f 2732 833f
00000020: b79f 813f 4665 7c3f cb9f 7a3f aef5 813f
00000030: 6355 803f 03ef 7e3f e029 7f3f a376 7c3f
00000040: d06d 803f 9d17 7e3f aa0b 803f 5493 813f
00000050: efa1 7d3f 577e 7f3f 1fda 7c3f 79aa 803f
00000060: 795c 7c3f 7681 803f bf35 803f b25c 823f
00000070: 0258 803f 03f9 803f a335 823f 7b61 7e3f
00000080: f1c7 7e3f 91ad 7d3f 774e 7c3f 0808 803f
00000090: 9deb 7f3f 0711 813f 94f0 7e3f 6015 803f
000000a0: 2b7e 803f 11e2 7d3f 3143 803f ae24 7f3f
000000b0: 330c 7f3f 8a17 7d3f bd03 813f d4c6 7c3f
000000c0: 53a9 873f 5d95 7e3f 0519 833f 8a6b 7d3f
000000d0: eafa 7e3f 932c 803f 69fd 7e3f fc8d 803f
000000e0: c083 823f 46a6 813f bf1d 803f 95b6 7f3f
000000f0: dbd1 7f3f 5964 7e3f 6a78 823f bb51 803f

encoder.2.1.bias f4 [64]
-0.0284577 -0.020060208 -0.021259954 -0.019735985 -0.04292625 -0.0018991806 0.026997767 0.05767076
0.026818521 -0.025241569 -0.027669672 -0.0058484753 -0.008951045 -0.015825728 -0.027749734 -0.0070288144
0.028818466 -0.018041002 -0.031522986 -0.022692109 -0.013014768 -0.029693693 -0.041027054 -0.00441772
-0.024554072 -0.0017743242 0.029666487 -0.01742775 -0.015872097 0.013947789 0.057322875 -0.015601963
-0.025044965 -0.0059554614 -0.010223228 0.0024772263 0.010564349 0.011595965 -0.03556546 -0.0067834696
0.027521767 -0.021258846 -0.018802568 -0.0019957817 -0.03581905 0.035641287 0.00831061 0.026633719
-0.03658652 0.014537392 0.020708311 -0.0133835655 -0.0321963 -0.047722183 -0.025446929 -0.022827726
-0.014139833 -0.0167332 -0.0072969184 -0.0042304425 0.0014126671 -0.028327364 0.012506458 -0.022183476
00000000: 1f20 e9bc 4e55 a4bc 5b29 aebc 5cad a1bc
00000010: 6fd3 2fbd eded f8ba 6c2a dd3c 2d38 6c3d
00000020: 84b2 db3c 68c7 cebc 82ab e2bc 91a4 bfbb
00000030: 67a7 12bc f5a4 81bc 6953 e3bc f851 e6bb
00000040: b414 ec3c b9ca 93bc 3f1e 01bd cde4 b9bc
00000050: e53b 55bc 3040 f3bc fc0b 28bd 85c2 90bb
00000060: 9f25 c9bc 7190 e8ba 2207 f33c a4c4 8ebc
00000070: 3306 82bc 4485 643c 64cb 6a3d 609f 7fbc
00000080: 192b cdbc 0826 c3bb 537f 27bc f658 223b
00000090: 1716 2d3c 01fd 3d3c 16ad 11bd de47 debb
000000a0: 5475 e13c 0827 aebc d807 9abc a9cb 02bb
000000b0: ffb6 12bd 99fc 113d 3a29 083c f52e da3c
000000c0: bfdb 15bd 3e2e 6e3c 7aa4 a93c be46 5bbc
000000d0: 44e0 03bd 5678 43bd 1476 d0bc 3601 bbbc
000000e0: c2aa 67bc 1014 89bc fd1a efbb 869f 8abb
000000f0: 3e29 b93a ca0e e8bc e3e7 4c3c 1fba b5bc

encoder.2.1.running_mean f4 [64]
-0.1532255 0.92795485 0.831083 0.5726471 0.47214797 -0.33194053 -0.7349006 -1.173802
-1.4133815 0.87084115 -0.3696197 0.5809747 -0.597117 0.55850214 0.2558482 -0.15530592
-0.99173224 0.14554909 -0.00038251467 0.65807664 -0.1983789 0.67943615 0.46925485 -0.8170368
0.25399914 -0.99647045 -0.9942209 0.37765455 -0.39784816 -1.124192 -1.5102519 -0.26080513
0.7913721 -1.0681492 -0.87935567 -1.1916751 -1.1449012 -0.9823978 0.5671846 -0.24410436
-1.0707095 0.5899488 0.32979563 0.10302778 0.047487315 -1.0633458 0.29787514 -0.7339099
-0.29370427 -0.51907414 -0.5913229 -0.29128268 0.17841388 0.7813825 0.7345394 0.110349536
0.54083884 -0.9038162 -0.10858017 0.949764 -1.204737 -0.7049919 -0.45357633 0.29520333
00000000: 25e7 1cbe 738e 6d3f dbc1 543f 0099 123f
00000010: 61bd f13e 1cf4 a9be 7222 3cbf 253f 96bf
00000020: afe9 b4bf 72ef 5e3f cb3e bdbe c2ba 143f
00000030: a9dc 18bf fff9 0e3f 89fe 823e 8408 1fbe
00000040: 2ae2 7dbf d20a 153e 408c c8b9 b677 283f
00000050: d723 4bbe 87ef 2d3f 2c42 f03e 5329 51bf
00000060: 2d0c 823e b018 7fbf 4385 7ebf f05b c13e
00000070: c1b2 cbbe 86e5 8fbf ef4f c1bf 4088 85be
00000080: 5d97 4a3f 1db9 88bf 741d 61bf cf88 98bf
00000090: 1f8c 92bf 6c7e 7bbf 0333 113f 7ef6 79be
000000a0: 020d 89bf e206 173f f9da a83e 3b00 d33d
000000b0: 0f82 423d b71b 88bf 1783 983e 85e1 3bbf
000000c0: 6860 96be 0be2 04bf f060 17bf 0123 95be
000000d0: 21b2 363e af08 483f c60a 3c3f f0fe e13d
000000e0: 6a74 0a3f 8060 67bf 485f debd bc23 733f
000000f0: d234 9abf 597a 34bf 283b e8be e424 973e

encoder.2.1.running_var f4 [64]
0.19489752 1.2766353 0.6649837 0.79483056 0.26591235 0.69707525 1.0158346 1.289654
0.6455141 1.5742869 0.23562232 0.27625072 0.27686375 0.43581662 0.19612134 0.19080801
1.0945332 0.6283624 0.30431458 0.3930413 0.5486125 0.39001152 0.49904227 0.67518115
0.23631977 0.5542264 1.0924066 0.14942375 0.44928545 0.5680116 1.5862113 0.26145184
0.57433754 1.0031115 0.8203352 0.517713 1.3153583 0.5622163 0.43124613 0.5579781
0.48597825 0.64623994 0.29026443 0.82207537 0.36618292 0.5960431 0.36136281 0.8442539
0.31919357 0.6191217 0.28641742 0.31392622 0.25331473 0.84326684 0.35499826 0.33822873
0.24814399 0.44715038 0.38806677 1.2097315 0.87407976 0.31314135 0.23633969 1.1758931
00000000: 3793 473e c968 a33f 5f3c 2a3f 047a 4b3f
00000010: aa25 883e 8673 323f de06 823f 6213 a53f
00000020: 6940 253f 3c82 c93f fa46 713e bc70 8d3e
00000030: 16c1 8d3e 5b23 df3e 08d4 483e 2d63 433e
00000040: aa19 8c3f 5cdc 203f 1fcf 9b3e b63c c93e
00000050: de71 0c3f 97af c73e 7882 ff3e acd8 2c3f
00000060: cffd 713e c8e1 0d3f fbd3 8b3f 8a02 193e
00000070: be08 e63e 3569 113f f908 cb3f 04dd 853e
00000080: c907 133f f565 803f 7d01 523f d788 043f
00000090: a95d a83f 68ed 0f3f 4bcc dc3e a7d7 0e3f
000000a0: 24d2 f83e fb6f 253f 8a9d 943e 8873 523f
000000b0: 547c bb3e 4896 183f 8c04 b93e 0621 583f
000000c0: 576d a33e c27e 1e3f 4ea5 923e f0ba a03e
000000d0: 78b2 813e 56e0 573f 55c2 b53e 512c ad3e
000000e0: 7519 7e3e e5f0 e43e b0b0 c63e 7bd8 9a3f
000000f0: b1c3 5f3f 1054 a03e 0803 723e aa83 963f

encoder.3.0.weight f4 [64, 64, 3, 3]
0.015924588 -0.0312607 -0.019851187 0.016636318 -0.022231268 -0.008467008 0.0010907839 -0.010603331
0.020419292 0.044094045 -0.012782744 0.04010276 0.04982529 -0.033306926 0.021860328 0.013923893
0.0052136285 0.012094966 0.003014705 -0.0025120485 0.027319234 0.03201113 -0.0017195478 0.012020881
-0.009803771 -0.025399264 -0.053205196 -0.043052264 0.008357748 0.018941376 -0.04012527 -0.043957304
-0.009612476 -0.03851679 -0.045623083 0.029971678 -0.03349666 0.046235166 -0.0038788565 0.025013953
0.0133066885 0.028883455 -0.0508104 -0.014691124 -0.0016995263 0.010641754 0.044669986 0.031018555
0.0133932615 0.007435518 -0.042732652 0.059227563 0.008147539 0.013745878 -0.041445002 0.023515655
0.036566723 0.033405848 -0.05419261 -0.030828524 0.013760008 -0.052465048 0.0011760286 -0.021808892
0.002398602 -0.04499119 0.017537631 -0.026516054 -0.022518309 -0.022753108 0.017663449 -0.061051495
0.021372823 0.039639123 -0.010371559 -0.051621586 -0.02321204 -0.034755517 -0.020553615 -0.05964057
-0.03269744 -0.010936149 0.009143097 0.045163978 -0.013405037 -0.0052328836 -0.021907961 0.0098395
0.007327905 -0.018171396 0.02331578 0.016511813 -0.02283843 -0.026268937 -0.040488698 -0.015961343
0.0009033689 -0.043444563 -0.0074579525 0.0016987175 -0.021088986 -0.0018362962 -0.028011061 0.00024993223
-0.010126934 0.008199051 0.0054980605 -0.039822698 -0.036026973 -0.022393944 -0.004516781 -0.044104893
-0.03208408 -0.0011301637 0.038921677 -0.0015774627 -0.015701063 0.027591107 0.037513126 -0.006369882
-0.013588981 -0.040018447 0.037445534 0.011929173 -4.445539e-05 -0.05106249 -0.024954593 0.02170304
-0.030422471 -0.028386867 0.013365697 -0.03585385 -0.027935984 0.0014876534 -0.023663128 0.027238006
0.03124245 0.012505516 -0.015406175 0.021832896 0.0013670191 0.015012154 0.029199837 0.022257501
0.010496932 -0.022533972 -0.024525858 0.015915826 -0.011661973 -0.024053577 -0.021068403 0.022676507
0.017305464 -0.016486913 -0.009515623 0.020298729 0.015840832 -0.031004613 -0.04242803 0.02063128
-0.0328925 0.013605618 -0.03811229 0.02071461 -0.035409253 -0.05585467 -0.014920517 -0.057726808
-0.0022110299 -0.0504764 -0.029949734 -0.004874277 0.008525241 0.020861156 -0.023204023 0.0066614905
0.009194133 -0.05917006 0.010257688 0.0010394102 0.017165555 0.011357595 0.03347206 0.02965737
0.043195345 -0.0076641357 0.020050207 -0.04355611 -0.018724103 0.0027357708 0.010447213 0.022626385
-0.027352266 0.040955078 0.010487756 -0.03501202 -0.00096909876 -0.008382431 -0.007409054 -0.025747145
0.003917993 0.032367595 -0.007551614 -0.018096598 -0.030955315 -0.004461857 -0.005239961 -0.023051802
-0.011500776 -0.036328036 0.008586388 0.02663151 0.026399517 -0.015389923 0.0101086255 0.033124536
-0.03231915 0.03651095 0.017657014 0.027583705 -0.014228938 0.006770176 0.037131436 0.012388069
-0.017807947 -0.00117983 0.034498703 0.028090565 0.027152613 0.03738392 -0.04531108 0.049276996
-0.017831953 -0.03722255 -0.019948956 0.017616278 -0.022930853 0.017950604 0.003806114 -0.015462924
-0.033606034 -0.01948139 -0.017805634 -0.0038446987 -0.010614194 0.016916974 0.050944906 -0.015608162
0.025465306 0.021538526 0.023431007 -0.044781096 0.032851234 0.032057863 0.013983173 -0.026727866
00000000: 4874 823c 380b 00bd f59e a2bc e348 883c
00000010: 591e b6bc 35b9 0abc a2f8 8e3a 98b9 2dbc
00000020: 5c46 a73c f59b 343d b76e 51bc cb42 243d
00000030: 9a15 4c3d d86c 08bd 6e14 b33c 0a21 643c
00000040: 16d7 aa3b f729 463c 5b92 453b 2ea1 24bb
00000050: 96cc df3c 1a1e 033d 7362 e1ba 3bf3 443c
00000060: ff9f 20bc 1e12 d0bc b1ed 59bd 9257 30bd
00000070: f0ee 083c f22a 9b3c 655a 24bd 930c 34bd
00000080: a67d 1dbc c8c3 1dbd 45df 3abd 2a87 f53c
00000090: cb33 09bd 1661 3d3d 6a34 7ebb 10ea cc3c
000000a0: 4c04 5a3c ff9c ec3c 911e 50bd 0ab3 70bc
000000b0: a4c2 deba c05a 2e3c e0f7 363d a01a fe3c
000000c0: 696f 5b3c a5a5 f33b 6f08 2fbd 9a98 723d
000000d0: 417d 053c 6436 613c 3cc2 29bd e7a3 c03c
000000e0: fdc6 153d 92d4 083d 12f9 5dbd 1a8c fcbc
000000f0: a871 613c 97e5 56bd f924 9a3a 90a8 b2bc
00000100: dd31 1d3b af48 38bd 14ab 8f3c 3238 d9bc
00000110: 5178 b8bc ba64 babc f0b2 903c 2211 7abd
00000120: 0f16 af3c a25c 223d 79ed 29bc 2871 53bd
00000130: 2d27 bebc cd5b 0ebd 0e60 a8bc ac49 74bd
00000140: c0ed 05bd 892d 33bc eecc 153c ddfd 383d
00000150: cda0 5bbc 9c78 abbb 5378 b3bc db35 213c
00000160: ec1e f03b 2edc 94bc bc00 bf3c c843 873c
00000170: a917 bbbc f431 d7bc 7ad7 25bd 5dc1 82bc
00000180: 10d0 6c3a edf2 31bd d761 f4bb 80a7 de3a
00000190: cfc2 acbc e0af f0ba 7477 e5bc 5609 8339
000001a0: 71eb 25bc 5055 063c 1329 b43b 201d 23bd
000001b0: 0591 13bd 8173 b7bc 8101 94bb 55a7 34bd
000001c0: 996a 03bd 0022 94ba 566c 1f3d ddc2 ceba
000001d0: 849f 80bc bf06 e23c 5da7 193d 71ba d0bb
000001e0: 51a4 5ebc 62ea 23bd 7d60 193d 9472 433c
000001f0: 9d75 3ab8 e726 51bd 936d ccbc 93ca b13c
00000200: 8c38 f9bc 938b e8bc ccfb 5a3c 7ddb 12bd
00000210: 01da e4bc 5dfd c23a 2dd9 c1bc 3d22 df3c
00000220: 2bf0 ff3c f0e3 4c3c 2e6a 7cbc e7da b23c
00000230: 8d2d b33a 8af5 753c 7f34 ef3c 5d55 b63c
00000240: 53fb 2b3c 2a99 b8bc 74ea c8bc e861 823c
00000250: dc11 3fbc 020c c5bc a597 acbc 15c4 b93c
00000260: 30c4 8d3c 900f 87bc 6ae7 1bbc 8549 a63c
00000270: a2c4 813c 63fd fdbc 04c9 2dbd ee02 a93c
00000280: 49ba 06bd 19ea 5e3c a21b 1cbd b0b1 a93c
00000290: 4b09 11bd dec7 64bd 2f75 74bc f272 6cbd
000002a0: ede6 10bb 57c0 4ebd 2559 f5bc 66b8 9fbb
000002b0: 74ad 0b3c 04e5 aa3c 5d16 bebc a248 da3b
000002c0: fda2 163c 4e5c 72bd dd0f 283c d23c 883a
000002d0: c79e 8c3c 3515 3a3c 001a 093d 03f4 f23c
000002e0: 9aed 303d 6e23 fbbb 5540 a43c e467 32bd
000002f0: 4a63 99bc 9e4a 333b ca2a 2b3c f85a b93c
00000300: dc11 e0bc 83c0 273d d6d4 2b3c c468 0fbd
00000310: 1e0b 7eba 7756 09bc a6c7 f2bb adeb d2bc
00000320: 8262 803b e293 043d 8873 f7bb 513f 94bc
00000330: 0096 fdbc c534 92bb fbb3 abbb 22d7 bcbc
00000340: c06d 3cbc b5cc 14bd ecad 0c3c 532a da3c
00000350: cd43 d83c 0426 7cbc a69e 253c 98ad 073d
00000360: 1661 04bd 828c 153d 71a5 903c 39f7 e13c
00000370: 7e20 69bc 5ad8 dd3b 2217 183d 54f7 4a3c
00000380: f9e1 91bc 87a4 9aba 834e 0d3d 2f1e e63c
00000390: 286f de3c e21f 193d 1c98 39bd add6 493d
000003a0: 5114 92bc ac76 18bd fe6b a3bc 0350 903c
000003b0: 7cd9 bbbc 250d 933c ff6f 793b 3458 7dbc
000003c0: 7ba6 09bd 7097 9fbc 1fdd 91bc 57f7 7bbb
000003d0: 28e7 2dbc 7795 8a3c 9bab 503d 60b9 7fbc
000003e0: 9e9c d03c 9071 b03c 62f2 bf3c 626c 37bd
000003f0: 048f 063d 1b4f 033d ae19 653c 66f4 dabc

encoder.3.0.bias f4 [64]
-0.014610855 0.00046171393 0.02867695 0.028837737 0.0061743604 0.0063604973 -0.03433634 -0.04028376
-0.0034451159 0.044592727 -0.0006580173 -0.025905337 0.03213365 0.039651968 -0.027725816 -0.015848003
0.018084109 -0.04033494 -0.0011356926 0.039522532 0.020303136 0.04166569 0.04662792 0.013252348
-0.0138715785 -0.0069289636 0.0024901312 0.025581077 -0.016217235 -0.013634206 0.01738179 0.0031960364
0.03250595 -0.043528285 0.011020292 0.04712138 -0.011383796 -0.0049895905 -0.00073067157 0.024166167
0.038010377 0.0011218669 -0.016791794 -0.018248502 -0.014244518 0.047453888 0.028466735 -0.02759487
-0.003847416 0.018175984 0.023891293 0.024068106 -0.014006144 0.02499643 -0.0195479 -0.019336337
0.043852042 -0.031753615 0.006587545 -0.01245694 0.025658283 -0.01287914 -0.009698629 -0.034358397
00000000: 5e62 6fbc 3212 f239 eceb ea3c 1e3d ec3c
00000010: 4a52 ca3b b86b d03b 43a4 0cbd 9500 25bd
00000020: 74c7 61bb dda6 363d cb7e 2cba 6e37 d4bc
00000030: 939e 033d 1a6a 223d 4021 e3bc acd3 81bc
00000040: 2025 943c 4036 25bd 85db 94ba 61e2 213d
00000050: c352 a63c a4a9 2a3d ebfc 3e3d 6020 593c
00000060: 9e45 63bc 5c0c e3bb 7831 233b 688f d13c
00000070: 02da 84bc 0162 5fbc 4164 8e3c 9874 513b
00000080: f624 053d b74a 32bd 748e 343c 5902 413d
00000090: 1a83 3abc b87f a3bb 8a8a 3fba 20f8 c53c
000000a0: c5b0 1b3d 9b0b 933a f28e 89bc e27d 95bc
000000b0: d761 69bc 025f 423d 1233 e93c a30e e2bc
000000c0: ee24 7cbb cde5 943c acb7 c33c 7a2a c53c
000000d0: 077a 65bc 50c5 cc3c eb22 a0bc 3d67 9ebc
000000e0: 339e 333d 1410 02bd 55dc d73b 3118 4cbc
000000f0: 5231 d23c 0703 53bc 00e7 1ebc 64bb 0cbd
