models/UTK_best_model.pth (torch_old, 459108 bytes, 24 tensors)

encoder.0.0.weight f4 [64, 3, 3, 3]
000000 7d b2 17 3e 21 18 2d 3e d7 39 15 bd 06 66 2f 3e
       0.14814182 0.16903736 -0.036432113 0.17128763
000010 6c c1 1f bd c1 69 29 3d 3c 34 be bd 39 e9 f7 3d
       -0.03900282 0.04136062 -0.09287307 0.121050306
000020 65 47 38 3e 3e 4b 17 be 19 84 2e 3e 60 4e 1c 3d
       0.17995985 -0.14774796 0.17042579 0.03816068
000030 94 fe 04 3e 7d 0f c1 3c cd 0f b8 3d 3d e9 18 bd
       0.12987739 0.023566956 0.08987389 -0.03733181
000040 19 2b 16 3e 07 06 e3 3c a4 e6 ba bd 34 38 53 3d
       0.14664878 0.027712835 -0.091260225 0.05156727
000050 d1 a9 b0 bd 53 1f d6 bc ab b0 9d bd 9e ef 04 3e
       -0.0862614 -0.026137983 -0.07699712 0.12982032
000060 9c 37 1d be 83 64 b0 bd 84 98 51 bd ed 9a 03 be
       -0.15353245 -0.08612921 -0.05117084 -0.12852068
000070 f0 07 39 3c 17 01 45 be ee b1 32 3e 26 12 22 be
       0.011293396 -0.19238697 0.17450687 -0.15827236
000080 22 71 20 3e 0b 56 01 3d 09 c7 81 bd e4 91 f7 3d
       0.15668157 0.031576198 -0.06336791 0.12088373
000090 a8 78 8d 3c 63 c9 13 3e 1a 00 75 3c 59 7a 83 bd
       0.017269447 0.14432292 0.0149536375 -0.0641982
0000a0 69 3a 49 3d e5 18 53 bd 0c 8c 9e 3d 5e 73 2d 3e
       0.04912797 -0.051537413 0.077415556 0.1693854
0000b0 19 61 e3 3d 23 a2 bc bd b5 ac d2 3d cb d5 fc 3c
       0.11102504 -0.092106126 0.102868475 0.030863663
0000c0 49 ff ba 3d d4 5b fb bd 56 b3 46 be 4b 88 9f bd
       0.09130723 -0.12273374 -0.19404349 -0.07789668
0000d0 f2 0c 1b be 9c 47 1e 3e e2 e5 30 3d 09 15 9d 3d
       -0.15141657 0.15457004 0.043187983 0.07670028
0000e0 ee 5e 76 3d 45 82 34 bc ee a4 18 3e c2 27 06 be
       0.060149126 -0.011017387 0.14906666 -0.13101104
0000f0 f8 de 33 3c 59 58 08 be d3 02 69 3d c7 b1 95 bd
       0.010978453 -0.13314952 0.05688746 -0.07309299
000100 87 01 5e 3d ec 0f 41 bd 73 55 20 3e 89 22 ed bd
       0.054200675 -0.047134325 0.15657596 -0.11578853
000110 0a 24 ed bd 17 19 e3 bd a9 28 34 3e 93 75 86 3d
       -0.115791395 -0.1108877 0.17593636 0.06565394
000120 a2 e1 45 3e 0d c1 1e be d3 a5 40 be fa ab 0e be
       0.19324353 -0.1550333 -0.18813257 -0.13932791
000130 66 d0 fb bd c8 9b b0 3d 9e e8 aa 3d 8b 0f 2d 3e
       -0.12295608 0.08623463 0.083451495 0.1690046
000140 f8 94 bc bd ee c3 00 be b5 ef ce 3d 06 6c 9f bd
       -0.09208101 -0.12574741 0.10104314 -0.07784276
000150 c2 4c fe 3d d9 a8 37 bd fc 7d e9 3d 80 8b 15 be
       0.12416984 -0.04483876 0.11400983 -0.14603996
000160 2f a9 c8 bd f2 4f 7d 3d 96 d2 2f 3d db c8 60 bd
       -0.09797894 0.06184382 0.04292544 -0.05487905
000170 33 01 e0 3d 2c ea 07 3e 14 97 10 be b1 fb d9 bd
       0.10937729 0.13272923 -0.14120132 -0.106437095
000180 5e fc 30 3e 78 4c 8f bd 4a 87 97 bd ac f2 31 be
       0.1728377 -0.06997007 -0.07398851 -0.17377728
000190 a8 82 f4 bd 63 19 27 3d 6c e8 71 bc 0d 0e 12 be
       -0.11938983 0.040795695 -0.014764886 -0.14263172
0001a0 37 73 29 bb 12 63 04 be 5d 07 38 be 7b 94 df bd
       -0.0025856027 -0.12928417 -0.17971559 -0.10916992
0001b0 9d 08 2d be 59 88 01 be 2c 79 41 3e d6 e3 11 3d
       -0.16897817 -0.12649669 0.1889388 0.035617672
0001c0 c0 98 84 3d cd 33 31 be 79 2b 00 be b3 9f 56 bd
       0.06474447 -0.17304917 -0.12516584 -0.052398395
0001d0 82 56 2f 3d e9 1c 33 be 23 58 a3 bd 34 4e d6 bd
       0.04280711 -0.17491497 -0.07975795 -0.10464135
0001e0 34 3a b0 bc 48 67 73 bd 9b a9 8e 3b e6 19 0c be
       -0.021512128 -0.05942467 0.0043537146 -0.13681754
0001f0 45 b3 e6 bd fa 47 bb bd 7e e7 8f bd 6b f2 17 be
       -0.11264662 -0.09144588 -0.070265755 -0.14838569
000200 4f 5d 2e 3e 72 a0 48 bd f7 45 32 3e 91 a8 91 3d
       0.17027782 -0.048981138 0.17409502 0.071122296
000210 a0 c2 30 be 02 0f 13 3e af 5d 22 bd 43 15 a7 bd
       -0.17261744 0.14361194 -0.039640125 -0.08158352
000220 b3 2c 2a be c5 bb 4b be 3b 7c 49 3d f9 ad 46 bd
       -0.16618614 -0.19895847 0.04919074 -0.048505757
000230 3a 02 8c 3d 36 51 26 be 3e f0 0b 3e cd 0e 16 be
       0.06836362 -0.16241917 0.13665864 -0.14654084
000240 c9 e3 1c bd fc f7 1f 3d 95 56 cd 3d 7b 83 1a 3e
       -0.03830317 0.039054856 0.1002628 0.15089218
000250 98 cd 2f 3e 60 62 1d be ce 6a 34 3d e4 c9 b5 bd
       0.17168272 -0.15369558 0.04404717 -0.08876398
000260 eb 62 c5 bc 15 81 18 be 26 52 30 3e 2b 30 14 be
       -0.02409502 -0.14892991 0.17218837 -0.144715
000270 e8 ff c8 3d 73 e2 7f 3d 04 ee 6d 3d 2c 7d dc bd
       0.09814435 0.06247182 0.058088318 -0.10766062
000280 57 05 2d 3e ed f7 1a 3d d6 03 f8 3b 3b de 3c be
       0.16896568 0.037834097 0.0075688167 -0.18444149
000290 2b 04 92 3d 1b 2d 30 bd f9 7a c0 bd 12 e4 26 3e
       0.07129701 -0.043011766 -0.09398455 0.1629794
0002a0 fc 04 18 3d d2 47 df bd 50 66 c1 bd 0d 11 96 bc
       0.03711413 -0.109023705 -0.09443343 -0.018318677
0002b0 74 20 d5 3d 16 2d 61 bd e1 58 e1 bd a2 75 80 bd
       0.104065806 -0.054974638 -0.110032804 -0.06272437
0002c0 58 13 13 be 2f dc 88 3d 52 18 1c 3e 9a 44 38 be
       -0.14362848 0.06682622 0.15243652 -0.1799492
0002d0 ce cf 18 3d eb 20 c7 3d 56 a7 f5 3c d3 37 85 bd
       0.037307553 0.097230755 0.029987019 -0.06504788
0002e0 e1 cd d8 3d a9 03 d2 3d ed 27 9b 3d 8b e3 c6 bc
       0.10586143 0.10254604 0.075759746 -0.024278423
0002f0 e2 ac 45 bd 12 25 c3 3c 57 e7 f0 bc f6 49 4c bd
       -0.048260577 0.023821387 -0.029407186 -0.049875222
000300 57 89 01 3e 89 48 2a 3e b1 30 48 bc 90 3f 44 bd
       0.12650047 0.16629232 -0.01221864 -0.04791218
000310 74 ed 9b ba 5c 72 80 bc 7e 23 51 3d 17 c3 79 3d
       -0.0011896328 -0.01567953 0.05105924 0.060977068
000320 09 b1 2a be 00 3c 80 bd bf df 2f 3e ba 37 ae 3d
       -0.16669096 -0.06261444 0.17175196 0.08506723
000330 65 3c 12 bc ea d3 eb bd c3 db f2 bd c4 ca 27 be
       -0.008925532 -0.11515029 -0.118583225 -0.16385943
000340 08 5e 55 bd 48 da a1 3d 43 c2 07 3e 01 b4 c6 3d
       -0.05209163 0.07902962 0.13257699 0.09702302
000350 be 73 20 be f5 c1 ec bd a1 ce 02 bd 3f ae 3e 3e
       -0.15669152 -0.11560432 -0.031935338 0.18621157
000360 48 0b ca 3c 30 99 65 bd b6 58 9a 3d 3a 0d 97 bd
       0.024663582 -0.056054294 0.075364515 -0.0737557
000370 ed 5e 02 be 80 e9 0b 3e 1d f0 bc bd 6d ab 3a bd
       -0.12731524 0.13663292 -0.092254855 -0.04557364
000380 65 44 4a be 9c f7 04 3e 60 4e 14 3e 0c fb 8f 3d
       -0.19752653 0.1298508 0.14483023 0.07030305
000390 a2 70 03 be d6 bc 3e be b8 4b 1e be 78 c9 10 3e
       -0.12835935 -0.18626723 -0.15458572 0.14139354
0003a0 f9 a3 b3 3d 98 ca 23 3e 14 87 d9 3d 41 09 50 3d
       0.0877151 0.15995252 0.10621467 0.050790075
0003b0 a2 f6 d0 ba 03 ca 0d be be 57 27 be 2f a6 37 be
       -0.0015942643 -0.13846593 -0.16342065 -0.17934488
0003c0 ef d9 a0 3d d7 c1 ce bd bc ed 38 bd e4 07 cd bd
       0.078540675 -0.10095566 -0.045148596 -0.10011271
0003d0 65 e9 bc bc ad d4 0c be b3 ee f8 bd 89 25 87 3d
       -0.02306051 -0.13753004 -0.12154903 0.06598956
0003e0 72 e6 83 bd 94 37 f9 3d 2c d0 71 bd ad fd 14 be
       -0.06440438 0.12168804 -0.05903642 -0.14549895
0003f0 ae a0 8a bc bc 02 a2 bd cc 61 7a bd e0 d1 35 be
       -0.016922321 -0.07910678 -0.061128423 -0.17755842

encoder.0.0.bias f4 [64]
000000 1a ee 0f 3d 5d 93 c1 bd 7a 74 b5 bd 2c 41 2e 3e
       0.03513918 -0.094519354 -0.08860107 0.17017049
000010 1b 1d ac 3d da 70 43 bd 21 20 0c 3d 4f a6 e8 3c
       0.08403989 -0.047715046 0.034210328 0.028399615
000020 84 83 1c 3d 61 1e 86 bd 8d 70 f7 bd 4a 3f 00 3e
       0.03821136 -0.06548763 -0.12082014 0.12524143
000030 81 90 92 3c 51 be b9 3d b8 47 86 bd 2f b1 bf 3d
       0.01789117 0.09069503 -0.06556648 0.09359967
000040 dc 0a 01 3e 41 de f3 3d 6f ef 39 3d ef 5a 47 3e
       0.12601799 0.11907626 0.045394357 0.19468282
000050 ff 7b 0f 3b 2b 30 37 3d fb 07 3b 3e a3 7c 41 3e
       0.0021893976 0.04472367 0.18264763 0.18895201
000060 64 06 a7 bd 64 7b 34 3e 01 b7 89 3d 65 38 51 bc
       -0.08155516 0.17625195 0.06724358 -0.012769793
000070 b7 7b 2d 3e da c6 d8 bd d4 d3 fa 3d 94 93 3c 3e
       0.16941725 -0.10584803 0.12247434 0.18415672
000080 44 84 0b be 3f 21 da bd 03 2f 3e be ec 7a f4 bc
       -0.13624674 -0.106508724 -0.18572621 -0.02984377
000090 99 6a 2e be 40 1d 92 bd 1d ca 5c 3d 6f 6c 0e 3e
       -0.17032851 -0.07134485 0.053903688 0.13908552
0000a0 11 cc df 3d 2f e1 ee 3d d0 e2 b9 3d 6f af f9 bd
       0.109275945 0.11664044 0.09076464 -0.121916644
0000b0 f2 88 10 be 82 58 1c 3b ea 84 33 3e b5 c9 46 3c
       -0.1411474 0.0023856466 0.17531171 0.012133052
0000c0 49 56 45 bc 03 11 09 be e2 60 b0 bd 88 14 22 be
       -0.012044498 -0.13385396 -0.08612229 -0.15828145
0000d0 69 56 26 3e 8c 3a c5 bc 27 57 25 be 19 73 68 3c
       0.162439 -0.024075769 -0.16146527 0.014187598
0000e0 94 09 8b 3c 72 f6 79 bc 10 80 95 3d cf 03 de 3d
       0.01697234 -0.015256511 0.072998166 0.1084057
0000f0 97 22 35 be 2e 38 0f be a2 16 5d bc 2c 76 36 be
       -0.17688976 -0.13986275 -0.013494166 -0.17818516

encoder.0.1.weight f4 [64]
000000 59 d1 7c 3f 1a 19 81 3f ef f0 7d 3f 03 e0 7b 3f
       0.9875694 1.0085785 0.9919576 0.9838869
000010 d4 e6 7b 3f 23 d1 7b 3f ff 07 80 3f c6 41 81 3f
       0.9839909 0.9836599 1.000244 1.0098197
000020 ed 2c 7f 3f 96 aa 7e 3f e4 45 7e 3f 75 a1 7e 3f
       0.99677926 0.99479043 0.99325395 0.99465114
000030 fb 1f 7e 3f bb 6e 7f 3f 70 fc 82 3f 71 55 7d 3f
       0.9926755 0.99778336 1.0233288 0.989585
000040 7d 34 83 3f e0 42 80 3f a8 30 7e 3f fd ce 7e 3f
       1.0250393 1.0020409 0.99292994 0.9953459
000050 b5 b1 81 3f 5a e5 7c 3f fb b5 7d 3f 82 6d 7e 3f
       1.0132357 0.9878746 0.99105805 0.99385846
000060 ba 15 81 3f de 83 7d 3f eb c1 80 3f 91 86 7f 3f
       1.0084755 0.9902934 1.0059179 0.9981471
000070 10 9b 7d 3f 81 55 7e 3f 12 2c 7f 3f 63 2f 7f 3f
       0.9906473 0.9934922 0.9967662 0.9968168
000080 25 20 7c 3f c0 cf 7d 3f ac 37 7f 3f 77 31 7c 3f
       0.9848655 0.99145126 0.99694324 0.9851298
000090 ef a9 80 3f e8 d1 7d 3f bb 7c 80 3f c3 04 80 3f
       1.005186 0.99148417 1.0038065 1.0001453
0000a0 14 f8 80 3f 62 0c 83 3f c3 c1 80 3f 13 27 80 3f
       1.0075707 1.0238154 1.0059131 1.0011925
0000b0 38 7b 81 3f 7d 36 84 3f c4 63 82 3f d1 fc 7c 3f
       1.0115728 1.0329129 1.0186696 0.9882327
0000c0 52 19 80 3f 22 cb 81 3f 59 90 7d 3f db 46 80 3f
       1.0007727 1.0140116 0.9904838 1.0021623
0000d0 d3 2b 7c 3f 22 6b 81 3f 93 cf 7f 3f 50 d9 83 3f
       0.9850437 1.0110819 0.9992611 1.0300694
0000e0 f8 56 7e 3f d3 be 7d 3f b8 54 80 3f af 26 7d 3f
       0.99351454 0.991193 1.0025854 0.9888715
0000f0 7b 6f 83 3f c2 c4 7d 3f a4 da 82 3f 9a c7 7f 3f
       1.0268396 0.99128354 1.0222974 0.9991394

encoder.0.1.bias f4 [64]
000000 83 c0 12 bc 73 0c 3d 3c ae 2a b9 38 60 db 59 bc
       -0.008957031 0.011538613 8.829437e-05 -0.013296932
000010 0a ed 7e bb a2 e3 82 3b 7f 09 fe bb f4 94 a7 ba
       -0.003889861 0.003994421 -0.007752597 -0.001278548
000020 0e 67 da bb 17 75 2c 3b be 09 5d b9 b6 dc 89 3c
       -0.006665117 0.0026314908 -0.00021079832 0.016828876
000030 5f 29 25 ba 17 6c 90 bc 78 b5 96 3c 9e 58 73 bc
       -0.0006300415 -0.017629666 0.018397078 -0.014852671
000040 b6 d6 b9 3c 34 90 c8 bb 63 d9 a6 bc 05 ff b1 bb
       0.02268539 -0.006120706 -0.02036733 -0.005432012
000050 77 8b 27 bc de fb 4c bc 45 45 be bb 4b 25 53 bc
       -0.010226122 -0.012511222 -0.0058065974 -0.012887309
000060 13 73 44 bc be ce c0 bc 48 ab 86 3b 73 3e 1d bc
       -0.011990326 -0.023536082 0.004109774 -0.009597409
000070 0d 5c 2b bc fc ca 04 bc 26 ca a0 3a 8d 17 02 bc
       -0.010458958 -0.008105036 0.0012267276 -0.007940185
000080 09 70 69 bc 59 77 60 bc 0f 3f 07 3c d0 2b 55 bc
       -0.014247903 -0.01370033 0.00825478 -0.013010934
000090 36 d7 c4 bb 88 71 38 bc 76 a1 a4 3b 23 e7 4e bb
       -0.0060071005 -0.011257537 0.0050241305 -0.0031570874
0000a0 77 8c b8 3b ee 77 db 3c b8 0a 69 3c 71 e5 93 3c
       0.005631979 0.026790585 0.014223747 0.018053742
0000b0 06 75 0c bd 2b 65 71 bb 53 a2 85 3c 99 de 19 bc
       -0.03429129 -0.0036833982 0.016312754 -0.00939145
0000c0 9d 52 44 bc 5b 65 ab 3b e1 c8 cb bb a0 03 e7 3b
       -0.011982587 0.0052305884 -0.006219015 0.0070499927
0000d0 2c b3 55 bc e4 6a 60 bc e3 65 0a 3d 27 a1 7b 3c
       -0.013043206 -0.01369736 0.033788573 0.015358246
0000e0 56 6d 9f bc 97 db 8a bb 52 d1 87 3b 87 48 fc 38
       -0.019461315 -0.004237603 0.004144826 0.00012029806
0000f0 12 66 24 ba a0 e3 b9 3b 4a 41 85 bb 81 c3 e3 bb
       -0.0006271313 0.005672887 -0.004066621 -0.006950796

encoder.0.1.running_mean f4 [64]
000000 0d 1b 30 3f 4c 11 9e bc 71 2c 13 be d8 44 48 bf
       0.68791276 -0.019295357 -0.14372422 -0.7823005
000010 47 21 52 bf d0 61 5a be 9c 2e f0 bd ac 95 c1 3d
       -0.8208203 -0.21326375 -0.1172764 0.09452376
000020 38 6d 06 bf b8 a0 21 bf 32 2e 7a bf 78 52 7c 3e
       -0.52510405 -0.6313586 -0.9772674 0.24640834
000030 4e d7 be bf 37 ea 9a 3c d7 e9 66 3d 75 8e 0a bf
       -1.4909456 0.01891051 0.05637535 -0.5412362
000040 9d 27 0c 3e 4b af 5f be 0c 99 11 3f 8e c4 7d 3e
       0.13686986 -0.21844213 0.56874156 0.24782011
000050 15 01 88 3e 8b db ab be 7c 94 ba be 6e 42 6f bf
       0.26563326 -0.33565935 -0.3644141 -0.9346074
000060 5d 78 ae 3e 2e bb 0a 3f ed c9 2e bd 94 3d 33 3e
       0.34076205 0.54191864 -0.04267304 0.17503959
000070 e2 7e aa be 72 ac 21 be e2 02 e5 3e db b1 af 3e
       -0.3329993 -0.15788439 0.44728762 0.3431538
000080 fc 1e 56 3f 2f ef 97 3e 2a 84 9a bf a5 1c cf be
       0.8364103 0.2967467 -1.2071583 -0.40451542
000090 17 fb 59 3e 27 33 76 bf bd 48 99 bd 47 73 ca 3e
       0.2128719 -0.961718 -0.07484577 0.39541075
0000a0 f7 09 8e 3e 68 c1 a7 3d 17 6a 4c 3e f8 1e 91 bd
       0.27741978 0.08191186 0.19962345 -0.07085985
0000b0 66 cc 2b be 3b 6c 59 3e 2c fa 55 3e 2c 4c 4d 3f
       -0.1677719 0.21232693 0.20896214 0.80194354
0000c0 cb 2f 4c bc 4e 07 80 be 53 2c 05 3e 83 6f 84 be
       -0.012462567 -0.25005573 0.1300519 -0.25866327
0000d0 14 4c 0f bf 33 19 ee 3d bc d8 1e be ef 98 ff 3c
       -0.5597546 0.116259 -0.15512365 0.031200854
0000e0 0a 7f 7a 3f fc e1 bc 3e 7c 60 27 3e 98 38 4f be
       0.97850096 0.36891162 0.163454 -0.20236433
0000f0 56 2a ee bc e7 5e 3b bf 56 d7 1a 3e c8 62 ea 3e
       -0.029072922 -0.73191684 0.15121207 0.4577849

encoder.0.1.running_var f4 [64]
000000 36 eb 5e 3f d1 c8 ca 3d e2 eb 6e 3d 56 e9 b4 3f
       0.87077653 0.09901584 0.058330424 1.4133708
000010 cb 21 c0 3f 6d bf 46 3e 32 39 00 3e 0d f9 26 3d
       1.5010313 0.1940896 0.12521818 0.040764857
000020 38 b2 e7 3e d5 df f5 3e bd 65 c8 3f a6 55 6d 3e
       0.45253158 0.48022333 1.5656048 0.23177204
000030 b1 05 47 40 b0 34 20 3e 23 4f 68 3d 5c 77 3a 3f
       3.1097224 0.15645099 0.056716096 0.7283838
000040 a3 39 f4 3d 90 44 7c 3e d6 91 fd 3e 22 7a d7 3d
       0.11925056 0.2463553 0.49525326 0.10521342
000050 97 1b 23 3e 28 65 b7 3e 33 91 f1 3e 9a 8c 00 40
       0.15928493 0.35819364 0.4718109 2.0085816
000060 8a 0f 7a 3e d0 74 ce 3e aa c4 bb 3d 69 ac 71 3e
       0.2441999 0.40323496 0.0916837 0.23600926
000070 0f 65 cd 3e 31 77 96 3d dd e9 89 3e 3f 40 0f 3f
       0.40116164 0.07346953 0.26936236 0.55957407
000080 07 2e aa 3f 3b d4 e8 3e 45 1e d2 3f a2 b2 a2 3e
       1.3295296 0.4547442 1.6415488 0.3177691
000090 5d b4 85 3e 88 56 97 3f e9 43 cf 3d eb ec 90 3e
       0.2611417 1.1823282 0.10120375 0.28305754
0000a0 e5 d3 20 3e 39 a5 40 3d a3 d1 a4 3d 41 5d 19 3e
       0.15705831 0.04703257 0.080477975 0.1497698
0000b0 7a 02 7d 3e 8d 4d 45 3e 68 0a 67 3d fd 19 7b 3f
       0.24707976 0.19267865 0.05640641 0.9808653
0000c0 a1 98 a2 3d 18 8c 37 3e 56 47 13 3e 6e 75 94 3e
       0.07939268 0.17924535 0.14382681 0.28995842
0000d0 36 51 4a 3f ec e3 d1 3d 20 e7 93 3d 35 ef 8a 3d
       0.7903017 0.10248551 0.07221818 0.06783906
0000e0 e4 dc bc 3f a2 4b bf 3e 0e 1c ac 3d ac 0c 56 3e
       1.475491 0.3736239 0.084037885 0.20903271
0000f0 f9 db 81 3d 8b e9 f6 3e 87 d4 0d 3e 25 5e 48 3f
       0.063407846 0.48225054 0.13850604 0.78268653

encoder.1.0.weight f4 [64, 64, 3, 3]
000000 37 71 0d bd 1a 97 27 3d ac ed bc 3a 74 da b3 bc
       -0.0345318 0.040915586 0.0014414093 -0.021954753
000010 8d a4 3a bc 74 94 e4 bc e1 bb 13 3d 1b 87 b3 bb
       -0.011391771 -0.02790282 0.036067847 -0.0054787523
000020 41 94 82 bc 0f 32 e2 bc 59 ee 07 3d d0 bc ab 3b
       -0.015939834 -0.02761176 0.03318629 0.005241014
000030 f2 1a 8e 3b f3 c8 38 3a e2 ac 9d bb 48 10 31 3c
       0.004336708 0.0007048987 -0.004811869 0.010807104
000040 a0 5f 1e 3d 79 23 65 bc c1 ee b3 3b 5c 35 04 bd
       0.038665414 -0.013985508 0.005491108 -0.03227745
000050 fb 3b a7 bc 7f 37 34 3d e2 75 26 3b aa 31 2a 3d
       -0.020414343 0.043998238 0.0025399853 0.04155127
000060 ee 06 43 bc 4e f0 e2 bc 0a 36 c8 bc 9e 72 21 3d
       -0.011903508 -0.027702477 -0.02443983 0.039415948
000070 83 46 12 bd ff dd 86 3c 75 dc 90 3b 37 b8 d8 3b
       -0.035711776 0.016463278 0.004420812 0.006613757
000080 78 ce 90 3c 09 be 72 bc e2 92 a2 3c df 56 1b bd
       0.017676577 -0.014815816 0.01984543 -0.037924644
000090 93 9e 3f bc 88 f0 db 3c 7a 0f e7 3b f4 15 83 bb
       -0.011695522 0.026848093 0.0070514055 -0.0040004198
0000a0 75 9a 7d bc 52 8b 01 bd ee f4 9e 3c 5a 18 0f bc
       -0.01547872 -0.031627007 0.019403901 -0.008733833
0000b0 01 f4 02 bc e6 e2 1a 3c 57 ca d7 3c 7e ae bc bc
       -0.007992745 0.009453511 0.0263416 -0.023032423
0000c0 a2 26 1b bc a4 61 c9 3c 8d e8 ba 3c 28 6f 44 bc
       -0.00946966 0.024582691 0.022815967 -0.011989392
0000d0 a8 41 35 bd a2 35 37 3c 65 3d 85 3c 6e 5e 3f 3b
       -0.044252068 0.011182221 0.016264627 0.0029200572
0000e0 aa c5 ad 3c f5 88 26 bd a6 7c 42 3c 32 b1 12 bd
       0.021212418 -0.040657956 0.011870539 -0.035813518
0000f0 b2 ad 51 3c d4 90 ac 3c 29 da 24 3b 7b 8b 24 3d
       0.01279776 0.021065153 0.0025154448 0.04017208
000100 b7 f1 b3 bc 8f 17 07 bd 83 9d 1c bd 2c 12 d3 3c
       -0.021965845 -0.03298145 -0.038236152 0.025765501
000110 b5 e6 78 3c 7a 2f b3 bc 94 13 cc 3c f9 6b 42 3d
       0.015191724 -0.021873225 0.02491168 0.047466252
000120 24 e2 37 bd 84 d0 c5 3c 5a 9d 18 3a 99 a8 34 bb
       -0.0448934 0.02414728 0.0005821787 -0.0027566312
000130 8a dd 02 3d bb 01 03 3d 71 22 31 3c ab 14 e2 3c
       0.031949557 0.031984072 0.010811434 0.027597746
000140 7a 51 71 3c c0 09 38 3b de 7c 2e bd 56 13 26 3b
       0.014728898 0.0028081983 -0.04259955 0.0025341115
000150 f6 ac 06 bd cc 3b d8 3b c1 04 01 3b be 43 3e bb
       -0.032879792 0.006598925 0.0019686671 -0.0029032077
000160 d0 4d 0f bd 6d ba f6 bc 52 f1 1a 3d 8d 79 b8 3c
       -0.034986317 -0.030118192 0.037827797 0.022518897
000170 81 76 95 3c b9 80 55 bc e2 17 21 bc 0b 59 69 bc
       0.018244984 -0.013031178 -0.009832354 -0.014242421
000180 a1 1f d2 3c 6b 61 b6 bc 03 9b aa 3c f3 ee 18 3d
       0.025649847 -0.02226325 0.020825868 0.037337255
000190 ad 9e 02 bd 3b 04 0b 3a 1c 6c ed ba b2 b2 a8 bc
       -0.031889606 0.00053030596 -0.0018113884 -0.020593021
0001a0 c2 43 b4 3c bb 01 84 3b 20 e1 1f 3d 1d 95 b8 bc
       0.022004966 0.0040285266 0.039033055 -0.02253204
0001b0 53 26 85 3c f1 d4 28 bd 05 41 d7 bc 8b 04 18 ba
       0.016253626 -0.0412187 -0.02627612 -0.0005799017
0001c0 a0 05 da 3c cb a9 83 3c 19 e1 20 bd 66 a8 f9 ba
       0.02661401 0.016072175 -0.03927717 -0.0019047379
0001d0 1c 36 f6 bc 31 06 36 3c b8 35 02 bd 3a c6 51 bc
       -0.030055098 0.011109875 -0.03178951 -0.012803609
0001e0 5e 97 04 3d 47 99 14 bd c3 18 1b bd 79 e8 27 3c
       0.032370917 -0.03627899 -0.03786541 0.010248297
0001f0 dc d6 dc 3b 97 ab c4 bb 84 25 2d 3d 68 3c 59 bc
       0.0067394804 -0.0060019004 0.042272106 -0.013259031
000200 05 ad a9 bc 9d cb 9c bc 82 de 9e 39 65 4e 2d ba
       -0.020712385 -0.01914006 0.0003030189 -0.0006611108
000210 db 6f 12 3d d0 27 89 3b 7f e9 a7 3c 73 07 ac bc
       0.035751205 0.004185654 0.020497082 -0.020999646
000220 a8 37 e1 3c f4 3e ed 3c 79 f7 2c bd 30 2f 8f bc
       0.02749236 0.028960682 -0.042228196 -0.017478555
000230 8c 74 2b bd 4a 87 3c 3c 34 b0 2d bd 5d 68 d2 bc
       -0.041859195 0.011506865 -0.04240437 -0.02568453
000240 d1 d4 32 3d ce ac 29 bd a2 26 07 3d d8 16 8a 3c
       0.04365999 -0.041424565 0.032995827 0.016856596
000250 60 44 15 3d 8d f3 35 bc 5f 74 24 3d 6d 57 06 3a
       0.03644216 -0.01110543 0.040150043 0.0005124722
000260 5c f4 44 3c a5 0f bd 3c 90 99 3e bd 93 d9 1e bd
       0.01202115 0.023078749 -0.046533167 -0.038781714
000270 5b 76 f9 3c a6 5a 06 bd 5f 27 11 bd 34 62 a7 bb
       0.030451944 -0.032801293 -0.035437938 -0.0051081423
000280 8e 70 8b bc 01 3e f5 bb 42 fa c1 bc 7d ce 9a 3c
       -0.017021444 -0.007484198 -0.023678903 0.01889729
000290 bb 46 ed bc 90 24 8c bb f8 6c b9 3c d3 b7 35 3c
       -0.028964391 -0.0042768195 0.022634968 0.01109119
0002a0 69 bf e5 3b f7 ad 5a 3c cd 85 0e bb d3 5e 66 bc
       0.0070113433 0.0133471405 -0.0021747232 -0.014060694
0002b0 bc fa 8c bc 05 f8 c4 bc 92 e0 6c bc 1c f0 3e 3d
       -0.017209403 -0.024044046 -0.014457839 0.046615705
0002c0 69 93 96 b9 67 b1 4c 3c b3 57 fc 3c 43 4d d3 3b
       -0.0002872006 0.012493468 0.030803537 0.0064484193
0002d0 96 c2 9a bc 63 53 c7 bc d9 59 21 bc 72 8a 22 3c
       -0.018891614 -0.024331754 -0.0098480815 0.009920703
0002e0 d9 33 06 bd 9c fe e6 ba 3c 38 a9 3c 1e 72 24 3d
       -0.03276429 -0.0017623487 0.020656697 0.040147893
0002f0 e3 c1 ab 3c bf 95 4f 3b 96 95 b1 3c 89 81 55 3c
       0.020966476 0.003167495 0.021677773 0.013031372
000300 38 32 1e 3c 49 8b a1 bc f7 9c 23 bd 04 f8 86 bc
       0.009655528 -0.019719737 -0.039944615 -0.016475685
000310 ee 14 7b bc e4 e5 7f bb 97 b9 ec bb 38 a0 3a 3c
       -0.015324814 -0.0039046938 -0.0072242725 0.011390738
000320 31 69 ba 3c f9 d1 48 bc 4b c2 39 bd f1 64 d5 bc
       0.022755237 -0.012257093 -0.045351308 -0.02604911
000330 0e d6 b2 bc 65 41 8b 3c 23 02 00 bd 76 ec b4 bb
       -0.021830585 0.016998956 -0.031252038 -0.0055213524
000340 9c 8a 67 bc e3 23 fc bc a4 6c 6f 3c 8b a3 bf bc
       -0.014132168 -0.03077883 0.014613304 -0.023393413
000350 df ea 01 bc c3 24 0c bd 32 33 29 bc 1b d1 8b 38
       -0.007929533 -0.034214746 -0.010327147 6.6669854e-05
000360 e9 ae e7 38 23 fb 80 bc af ba 50 3c a2 a8 14 bb
       0.00011047518 -0.015744751 0.012739821 -0.002268352
000370 79 ca 7e bc dc d7 b6 bc 1e a4 aa ba e9 03 02 bd
       -0.015551203 -0.022319727 -0.0013018881 -0.03174201
000380 5e 56 23 3d 9d aa 9a bc 0b ff ac bc ca 3d b6 3b
       0.039877288 -0.018880183 -0.021117708 0.005561565
000390 30 c9 85 3c b9 e9 65 bb d2 a4 f7 3c 0b 2c 86 bc
       0.016331285 -0.0035081937 0.03022996 -0.016378423
0003a0 f3 e0 91 3c dc 5a 10 3b 81 2d 17 bd 85 45 b7 bc
       0.01780746 0.0022026813 -0.03690863 -0.022372017
0003b0 59 b4 7d 3b 53 1d c9 ba 65 fe b3 3c 9a cb ae 3c
       0.0038712232 -0.0015343822 0.02197189 0.02133732
0003c0 63 ec ab bc b2 c9 80 bc 5f 50 23 bc 3a cd ba bc
       -0.020986741 -0.015721176 -0.009967892 -0.022802938
0003d0 67 05 4b bb 91 4e c7 bc 04 d1 b9 3c 01 45 1f 3d
       -0.0030978562 -0.024329456 0.022682674 0.038884167
0003e0 f6 02 c6 3b 08 d6 a5 bc 40 7e a1 bc 4d 5c df bb
       0.0060428334 -0.02024366 -0.019713521 -0.006816423
0003f0 c3 d6 fe 3b 71 bf a5 bb 29 c6 03 3b c9 25 0c 3d
       0.0077770664 -0.005058222 0.0020107126 0.034215722

encoder.1.0.bias f4 [64]
000000 ae 81 1e bc 23 2d e0 3b ae c4 18 bc 96 fa 98 bc
       -0.009674473 0.006841318 -0.009324236 -0.018674176
000010 7d a9 9d 3b 28 7a b8 3a 81 b9 29 bd a3 fc dc bc
       0.0048114643 0.0014074491 -0.041436676 -0.026975935
000020 93 4a a1 bc 8f 41 da 3a 83 a6 b4 3c 7c 3d 78 bc
       -0.01968888 0.0016651618 0.022052055 -0.015151378
000030 96 71 79 bc 54 22 de 3c 40 a4 a7 bb fc 2b b3 bc
       -0.015224835 0.027115978 -0.0051160157 -0.02187156
000040 0c e8 ea 3a a0 f2 65 bc 47 88 a9 37 41 11 04 bd
       0.0017921939 -0.014034897 2.0209829e-05 -0.032243017
000050 f6 ad ed bb b9 d5 47 3b ca 40 2a 3d b2 df 80 3c
       -0.007253404 0.003049238 0.041565694 0.015731666
000060 c3 d0 d5 3b 6c 0f 0b 3d 1f bd 3f 3d 8f d4 e9 bc
       0.0065251305 0.033950254 0.04681122 -0.028543739
000070 d1 ff 1c bd bd 02 0f 39 c6 48 1b bc e2 73 86 3c
       -0.038329903 0.00013638563 -0.0094778 0.01641268
000080 93 7d c3 3c 2d 6d 3a 3c 98 c5 16 3c ce 1c 2d 3c
       0.02386359 0.011378569 0.009202383 0.01056595
000090 bd 66 f0 bc 38 f6 b4 3c 3b 48 3f bc f0 a2 cd bc
       -0.029345864 0.022090062 -0.011674936 -0.025102109
0000a0 e3 87 8c bc fd 22 0b 3d df 58 66 bc f9 e6 8d bc
       -0.01715464 0.033968914 -0.014059274 -0.01732205
0000b0 98 5e b0 3c 47 ca 22 bc 9a 70 b1 bc be 3e 8b 3c
       0.02152948 -0.009935922 -0.021660138 0.016997691
0000c0 c1 52 b8 3b 00 d5 03 3d 57 1e 09 3d 7f e4 1c bd
       0.0056250994 0.032185555 0.0334762 -0.03830385
0000d0 52 d4 86 bc df d4 c2 3c 94 9a 01 bd 05 d9 33 bc
       -0.016458664 0.023783145 -0.031641558 -0.010977034
0000e0 e7 b4 23 3c 4f a0 1b 3c d0 98 0f 3c a8 a6 a8 bc
       0.009991861 0.00949867 0.008764461 -0.02058728
0000f0 53 d3 d6 3a f0 c0 ed bc 29 94 cd 3b 44 5e d3 bb
       0.0016389884 -0.029022664 0.0062737656 -0.0064504463

encoder.1.1.weight f4 [64]
000000 7d 2e 80 3f f2 41 7c 3f bf 34 81 3f 1d 7c 7b 3f
       1.0014187 0.98538125 1.0094222 0.98236257
000010 ff 87 80 3f f8 92 80 3f ac 1e 7f 3f 1e 4e 7f 3f
       1.0041503 1.0044851 0.99656177 0.9972857
000020 ae d2 80 3f e6 2b 7d 3f dc 06 81 3f ed 1f 81 3f
       1.0064294 0.9889511 1.0080218 1.0087868
000030 38 01 81 3f 12 b7 82 3f 8b d6 7f 3f c7 32 7f 3f
       1.0078497 1.0212119 0.9993674 0.99686855
000040 32 1a 7f 3f 1d ed 7e 3f d1 b4 7e 3f f9 09 81 3f
       0.99649346 0.99580556 0.99494654 1.0081168
000050 c0 6a 7e 3f f7 17 7e 3f 1d 3f 7f 3f 1c 20 7d 3f
       0.9938164 0.9925532 0.9970568 0.9887712
000060 5c 1a 80 3f ca 3f 7d 3f 4e e8 7e 3f c7 5d 80 3f
       1.0008044 0.9892546 0.9957322 1.0028619
000070 49 57 7f 3f 7a b9 80 3f 37 55 7d 3f 27 b6 80 3f
       0.9974256 1.0056603 0.9895815 1.0055588
000080 b1 87 81 3f f8 97 7e 3f 89 7c 80 3f 06 db 7d 3f
       1.0119535 0.99450636 1.0038005 0.9916233
000090 92 89 81 3f e6 57 81 3f 84 c5 81 3f 0f a7 80 3f
       1.0120108 1.010495 1.0138402 1.0050982
0000a0 24 38 79 3f 07 77 7f 3f de 34 7f 3f 85 04 80 3f
       0.9735129 0.99790996 0.99690044 1.0001379
0000b0 03 77 84 3f f3 40 7f 3f 0c af 81 3f 1b f5 7b 3f
       1.034882 0.9970848 1.0131545 0.98420876
0000c0 d0 55 7d 3f 1c 43 7e 3f bf 4e 7e 3f 1a 33 83 3f
       0.98959064 0.9932115 0.99338907 1.024997
0000d0 eb 47 7f 3f 23 f5 7e 3f 57 de 80 3f e9 71 7f 3f
       0.99719113 0.995928 1.0067853 0.9978319
0000e0 8a 70 80 3f c1 1b 7f 3f fd 02 7e 3f c6 45 82 3f
       1.0034344 0.99651724 0.9922331 1.0177543
0000f0 77 cd 7d 3f 84 9d 80 3f 94 18 7d 3f e8 16 7f 3f
       0.9914164 1.004807 0.9886563 0.9964433

encoder.1.1.bias f4 [64]
000000 1c 6c b1 bb a6 82 15 b9 2e 2e 2e bb 50 0a 60 bc
       -0.005414499 -0.00014258418 -0.0026577818 -0.013674334
000010 29 20 27 3b 89 0a 12 bc e3 b2 0c bc 7b f6 82 bc
       0.0025501347 -0.008913645 -0.008587572 -0.015986672
000020 50 a9 1b bd 72 f3 8b bc 94 da f1 bb f6 38 1e b8
       -0.038003266 -0.017083857 -0.007380793 -3.7723185e-05
000030 a3 44 85 bc 70 92 4e bc ea b2 43 bc 75 1a 7b bc
       -0.01626808 -0.012608156 -0.011944512 -0.015326132
000040 7a 79 5c bc de ba e6 bb f9 ca 7c bc 13 f8 38 3c
       -0.013456697 -0.0070413193 -0.015429252 0.011289614
000050 3a b6 b5 bc 93 bd 07 bc 2d 21 d0 bc 8e 2c db bc
       -0.022181619 -0.008284944 -0.025406444 -0.026754644
000060 a9 de 22 bc 17 41 e0 bb 01 d4 4b bc e1 06 ab bc
       -0.009940782 -0.006843697 -0.012440682 -0.020877304
000070 e7 3e 77 3b 39 a3 76 bb 2c b2 19 bc 97 15 57 bc
       0.0037726702 -0.003763391 -0.009380858 -0.013127706
000080 23 2c 0a bc 49 c1 73 bb 6c 10 cc bc 57 c6 1e bc
       -0.008433375 -0.0037194064 -0.024910174 -0.009690843
000090 8b 29 87 bb 3d c1 cc bc 16 3b 30 bb fe fc 86 bc
       -0.0041248254 -0.024994487 -0.0026890687 -0.016478058
0000a0 e6 e7 7c bc 2d 05 61 bc 49 69 f4 3a ae 0f 85 38
       -0.015436148 -0.013734144 0.00186471 6.344855e-05
0000b0 8a 2e 4b 3c 4d 09 4f ba a4 66 43 3c 9f a3 36 bc
       0.0124012325 -0.0007897809 0.011926327 -0.011147409
0000c0 53 d8 88 bc 96 bb 1e bc 0e 71 77 bc 36 21 63 3c
       -0.016704714 -0.009688279 -0.015102638 0.013862899
0000d0 25 7b 81 3b d8 37 87 bb 0d 83 43 bc 29 18 c8 bc
       0.0039514476 -0.00412653 -0.0119331 -0.024425583
0000e0 80 15 c2 bc 20 e1 27 bb 6f 08 8e bc 5c fc b7 bc
       -0.023691893 -0.0025616363 -0.017338006 -0.022459202
0000f0 6e 2a 64 3b 99 b9 f8 3b 48 d0 d3 bc 4b 72 8d 3b
       0.003481533 0.0075904843 -0.025856152 0.0043166033

encoder.1.1.running_mean f4 [64]
000000 d3 3a 40 be ae 5e 9e be b8 2e 45 bf cc 2d 15 bc
       -0.1877244 -0.3093161 -0.7702441 -0.009105157
000010 43 32 27 bf aa 60 32 3e 9a 53 a3 3e cf 5d d5 be
       -0.6531107 0.17419687 0.3189972 -0.41673133
000020 3f 66 d3 3e 1e da ee be 97 b1 4f bf 28 86 a6 be
       0.41288945 -0.46650785 -0.81130356 -0.32524228
000030 cb b7 b7 bd a9 02 6c 3c b0 f1 7d bf 78 a5 87 3d
       -0.089706026 0.014404931 -0.9919691 0.066233575
000040 65 e3 f4 be b1 dc 93 be 48 43 17 bf ea 6d 65 bf
       -0.47829738 -0.28879312 -0.5908704 -0.8962084
000050 a7 65 37 bc 45 e1 96 3f 3c f7 12 bf d6 2e bf 3e
       -0.011193669 1.1787497 -0.574085 0.3734042
000060 04 04 c6 3c 09 3a 5d bf 5b 84 03 bf 8e 76 92 3f
       0.024171837 -0.8641668 -0.51373833 1.144243
000070 3a 0c 95 bf b8 89 ec be 6e d5 6e bf dd 75 5e 3f
       -1.1644356 -0.4619882 -0.9329442 0.86898595
000080 f0 b0 2d bf 16 9b 00 bd 6f 72 d7 bd 45 64 81 3e
       -0.6784811 -0.0313979 -0.10519873 0.25271812
000090 3a ed 92 bd 5e 6f 01 be 35 13 0e be a4 1d 24 3f
       -0.071741536 -0.1264014 -0.13874514 0.6410773
0000a0 ee 79 76 3e bc 70 24 3f 45 2b 41 bd 65 3f 66 3e
       0.2406995 0.6423452 -0.047160406 0.2248512
0000b0 65 5f c9 be 2e 61 e4 bf 37 36 1d bf b8 89 5e 3e
       -0.39330593 -1.7842157 -0.6141085 0.21732223
0000c0 7d 2c e8 be 36 5e a4 be 96 d3 c6 3c f3 ad 1a be
       -0.45346442 -0.32103127 0.024270814 -0.15105419
0000d0 7a 24 e5 3c 99 ff 06 be f8 31 1e bf db ba f2 3e
       0.027971495 -0.1318344 -0.61794996 0.47408184
0000e0 81 9b 1a bf 1b c2 32 b8 52 df 71 3f 67 78 99 be
       -0.6039353 -4.2619282e-05 0.94481385 -0.29974672
0000f0 f1 7b 8b be 36 a9 69 3e ba 70 b6 3f e2 9d 0f bf
       -0.27242997 0.22818455 1.4253151 -0.56100285

encoder.1.1.running_var f4 [64]
000000 af c4 22 3f 0f 7e 1a 3e c4 06 9d 3e 38 ca a8 3e
       0.63581365 0.1508715 0.30669224 0.3296678
000010 18 56 8d 3e fa ec 08 3f 19 56 b8 3e ab c2 af 3e
       0.27604747 0.534866 0.36003187 0.34328207
000020 ac ed c4 3e 95 7d 0d 3f 6e 98 d2 3e ca 1e 8a 3f
       0.3846258 0.5526975 0.4113192 1.0790646
000030 25 35 de 3e 21 02 2e 3e 4c d5 35 3f f9 67 c5 3e
       0.4339992 0.16993 0.7102859 0.38555887
000040 61 5b 2b 3e e7 d6 96 3f 52 3d 03 3f 8a d8 12 3f
       0.16734077 1.1784333 0.5126544 0.5736166
000050 dd 4e 77 3e f3 29 3e 3f 9e 1f 5b 3e bd 0d d3 3e
       0.24151178 0.7428276 0.2139878 0.4122142
000060 93 c7 82 3f d4 89 34 3f fa 50 7b 3e 32 5e 1e 3f
       1.0217155 0.7052281 0.24542609 0.6186248
000070 f2 df ad 3f e8 08 84 3e 8c 6f 16 3f 3b 3e dc 3e
       1.3583968 0.25788045 0.5876396 0.43016228
000080 40 bd c5 3e 07 a3 b0 3e cf 35 8e 3e 6a a4 5a 3f
       0.3862095 0.3449938 0.27775428 0.85407126
000090 67 ee 88 3e 5a 8d 83 3e 06 b7 41 3e 60 84 91 3e
       0.26744387 0.2569378 0.18917474 0.28421307
0000a0 cf 10 72 3f da 5a 0e 3f 24 3b 46 3f 47 bc 4d 3e
       0.945569 0.5560738 0.7743399 0.20091353
0000b0 e4 34 4a 3e 74 56 1f 3f 04 a8 a8 3e 92 d9 eb 3e
       0.19746739 0.6224129 0.32940686 0.4606443
0000c0 d4 81 ca 3e d1 83 82 3f 67 c8 98 3e 62 30 40 3e
       0.39552176 1.0196477 0.29840395 0.18768457
0000d0 cf 0f e2 3e c9 47 02 40 2a d8 86 3e ad 17 82 3e
       0.44152686 2.0356314 0.26336795 0.25408688
0000e0 3c 0a 76 3e c5 b5 d0 3e 44 63 bb 3e 34 4a 8d 3e
       0.24027342 0.4076368 0.3659917 0.27595675
0000f0 88 0e e1 3e 0c 84 88 3e 49 ca 8c 3f fc 9d e4 3f
       0.439564 0.26663244 1.0999233 1.7860713

encoder.2.0.weight f4 [64, 64, 3, 3]
000000 2a 74 ce 3c 9b 3a 43 bd 83 ee 25 bd a7 19 06 3d
       0.025201876 -0.047663312 -0.040510666 0.032739308
000010 b5 07 17 3d 16 37 9a bb 4a 47 c2 3c 76 0b 29 bc
       0.036872584 -0.004706274 0.023715634 -0.010317674
000020 3e 17 45 3d 1e 3b d6 bc 71 1c c3 bc b6 e3 07 3b
       0.04811787 -0.026151236 -0.023817273 0.0020735092
000030 cc 80 a8 bc c0 94 e3 3c f3 3c 60 bc a2 81 af 3c
       -0.020569228 0.02778089 -0.013686406 0.021424118
000040 76 91 23 bd 47 c8 a4 bc 69 34 00 bd 48 b6 d5 ba
       -0.039933644 -0.02011503 -0.031299982 -0.0016304934
000050 b9 63 e0 3c 9b ab 26 3c 88 c0 41 bd 59 46 56 bd
       0.027391301 0.01017275 -0.047302753 -0.052313183
000060 98 e4 fc 3b 1c c5 de 3b 2f 4f 93 3c 29 81 3e bd
       0.00771768 0.0067983996 0.017982094 -0.046509895
000070 d2 76 00 bd 12 cc d5 3c d3 86 52 3c d2 4a cf bb
       -0.031363316 0.026098285 0.012849527 -0.006326058
000080 4f b7 59 bd 10 73 8f 3c 47 83 57 3c ef d2 02 bd
       -0.053153332 0.01751092 0.013153858 -0.031939443
000090 4a 42 aa bc ec b5 60 bb 7e b4 23 3d 24 7f b9 bb
       -0.020783562 -0.0034288121 0.039967053 -0.0056609083
0000a0 f8 7b cc 3c e0 db c8 3c 65 31 1c bd 8c 21 26 bd
       0.024961457 0.024518907 -0.038133044 -0.040559337
0000b0 6c ca bc 3c 7f 2c c2 bc c9 9e 19 3c aa 1e 9b 3c
       0.023045741 -0.023702858 0.009376236 0.01893552
0000c0 55 93 39 bc f9 2f 08 bd b1 1b 13 3d 3f bb 97 bc
       -0.011326631 -0.033248875 0.03591508 -0.018521903
0000d0 c9 c8 02 3d 5d 11 08 3d 61 29 03 3d 2c 31 07 3d
       0.031929765 0.033219684 0.032021884 0.03300588
0000e0 8c 9b 8b bc 7b 09 c8 3c 4f 1e 23 bd 5d 3b 23 bc
       -0.017041944 0.024418583 -0.039823826 -0.009962884
0000f0 77 ad 06 bd 91 0e de bc f5 90 59 3c de 71 11 bd
       -0.032880273 -0.027106555 0.013279189 -0.035508983
000100 27 16 9d bb 74 bf 5f bd c8 7b 29 bd 9a ba 8d 3c
       -0.0047939005 -0.054625943 -0.041377813 0.017300893
000110 92 ea c8 3c 7d bf 54 3b 06 cd 8d ba 94 ad f1 bc
       0.024525914 0.0032462769 -0.0010818548 -0.029501714
000120 88 27 e9 bc 73 8b c7 bc bf d4 cd 3c c3 54 ba bc
       -0.028461233 -0.024358487 0.02512586 -0.022745496
000130 99 d2 3e 3c 9e 36 1d 3c 88 7c bd bc e1 f5 ad bc
       0.01164689 0.009595541 -0.02313067 -0.021235408
000140 01 95 38 bc 66 4a 01 bd 91 d2 21 3d b2 a0 a8 bc
       -0.011265994 -0.031565093 0.039507452 -0.020584438
000150 9f ba 33 bd 04 cd 04 bd ae 98 06 ba 1c da 22 3d
       -0.043879148 -0.03242208 -0.00051344454 0.039758787
000160 ae c9 ef bc ef 0d 37 3c fa 4b d0 3b 3b 01 65 3b
       -0.029270973 0.011172756 0.0063567134 0.003494336
000170 61 2d f5 3b 34 f1 d3 bb 52 00 b5 3c b9 27 4f 3c
       0.007482216 -0.0064679626 0.02209488 0.012643748
000180 6b 17 e5 3c 54 ca 1e 3d 57 ec 85 3a 9c a5 03 bd
       0.027965268 0.038767174 0.001021753 -0.03214036
000190 ff 76 10 bc b4 0d 2d bd b9 ec da 3b 8b 6e 51 3b
       -0.008817433 -0.042249396 0.0066810516 0.0031956758
0001a0 32 1e 45 bc 68 20 2b bd d9 b0 e9 bc 2d 93 a0 3c
       -0.012031125 -0.041778952 -0.02852671 0.019601429
0001b0 7f f3 ed 3c af db ec bc 29 d1 f5 bc 59 b6 13 3a
       0.029046772 -0.028913347 -0.030006962 0.0005634777
0001c0 71 0e 44 3c 5c 5b ab bc 77 32 e4 bb 86 fc 1a 3d
       0.011966334 -0.020917587 -0.0069640237 0.03783848
0001d0 8b 6a 73 bc b1 4d a1 3c 8d 6a 16 bc 1b 1e f2 3c
       -0.014856945 0.019690366 -0.009180677 0.029555371
0001e0 ae c6 15 3c 12 90 42 3c c3 27 15 3d 0d 29 0d 3c
       0.009141607 0.011875169 0.036414873 0.008615744
0001f0 bd b6 ce bb 87 1e fe bc ed 23 f0 3c 47 a9 cf 3c
       -0.006308405 -0.031020416 0.029314006 0.025349272
000200 c1 e5 cd bb 95 c6 1a bd 67 74 3e 3d 24 76 01 3d
       -0.0062834923 -0.03778704 0.04649773 0.03160681
000210 04 01 22 bd 50 16 66 3c f7 52 88 ba 66 7e 4f 3c
       -0.03955175 0.014043406 -0.0010400702 0.012664413
000220 cd 7e f8 bb 4a f4 4c bc f4 cb 83 bc 4b 08 84 bb
       -0.007583475 -0.012509415 -0.016088463 -0.004029309
000230 56 15 dc bc 39 7c af 3c 23 90 27 3d 00 ab 0c 3d
       -0.026865643 0.021421539 0.040908944 0.034342766
000240 17 54 c0 3c b7 69 d6 bc 08 0c 88 3c f6 4f 70 bc
       0.023477597 -0.026173456 0.0166073 -0.014667502
000250 75 8d 54 3b cc b5 b5 bc cc 55 9f bc 50 a9 b4 bc
       0.0032432948 -0.022181414 -0.01945009 -0.02205339
000260 31 89 e5 3b 2d 80 49 bb 58 53 f3 3c 3c d0 d4 3b
       0.00700488 -0.0030746565 0.029702827 0.00649455
000270 fa b5 8e 3c 86 15 d8 bc 30 3a b6 bb 69 c7 43 bc
       0.017420758 -0.02637745 -0.0055611357 -0.011949399
000280 83 0e 41 ba 00 6d b5 bc f1 88 33 3c 1f 4f 07 3d
       -0.0007364528 -0.022146702 0.010957942 0.03303444
000290 25 7d 92 3c 0a 52 74 bb d4 6c 1a bc 5d ae cd bc
       0.01788194 -0.0037280344 -0.009425361 -0.025107557
0002a0 3d 1a 24 bd 16 d5 14 bd 43 3e 06 bd 82 2e 60 bd
       -0.040064085 -0.036336027 -0.03277422 -0.054731853
0002b0 73 3d 93 bb 76 3a 59 bc f7 c3 c4 ba fd 0b 06 3c
       -0.0044934093 -0.013258567 -0.0015012015 0.008181569
0002c0 17 0f 1a bd ba 0d 2a bd 9e d8 5c bd 60 8a b6 bc
       -0.037612047 -0.041516997 -0.05391752 -0.02228278
0002d0 dc 5e 6d bc 04 2b d3 3c cb 66 35 3c 4f 3e c3 bb
       -0.014487948 0.025777347 0.011071871 -0.0059583555
0002e0 fd dc 75 3c c7 7e 21 ba 26 87 cf 3b 4d 1a d6 3c
       0.015006301 -0.0006160554 0.0063332496 0.026135588
0002f0 c7 9f 44 3c 04 42 b5 3b 25 9c e0 3c 31 a8 c5 3c
       0.0120009845 0.0055315513 0.027418206 0.024128051
000300 26 cc ea bc 41 90 5f bc 7c 19 ce bc 37 3c 6d 3c
       -0.028661799 -0.013645233 -0.025158636 0.014479688
000310 f6 5e b2 bc ea 75 be bc f5 8c 29 3b 4d 67 20 3d
       -0.021773797 -0.023249585 0.002587137 0.039161015
000320 db 81 ad bc 68 4c d3 bc 24 cf 39 3d 71 83 d6 3c
       -0.021180084 -0.02579327 0.04536356 0.026185723
000330 3b b9 53 bc da bf fa bc 2b 15 65 3b 27 25 c1 3c
       -0.01292258 -0.03060906 0.0034955244 0.023577286
000340 c1 71 e1 bc f2 23 99 bc 83 31 0a bd a0 07 86 bc
       -0.027520062 -0.018693898 -0.033738624 -0.016361058
000350 b5 5e 0b bb 27 32 80 3c f5 e5 e7 bc 9b 0e 33 bd
       -0.0021266167 0.015648915 -0.028307894 -0.0437151
000360 2a 73 14 3c 8f 8b 0e bd 07 71 61 3c 85 a1 c5 bc
       0.00906066 -0.034801062 0.013759858 -0.02412487
000370 9e 43 1d bd e7 f4 7c bc 8d 38 b5 3c 42 6e f0 bc
       -0.038394563 -0.015439249 0.022121692 -0.02934945
000380 02 7c 37 bb 4d 62 e1 bc 25 c3 f6 bc 59 1d 2c bd
       -0.0027997498 -0.027512694 -0.030122349 -0.042020176
000390 a0 44 71 3c 00 7d e0 bc eb 0f 1f bd 23 8d 6a bd
       0.014725834 -0.027403355 -0.03883354 -0.057263505
0003a0 7c c1 d3 3c 40 ff ef bb 74 67 11 bc e8 c9 07 3d
       0.025849096 -0.0073241293 -0.008874763 0.033151537
0003b0 06 2c 04 3d 94 8e 9a bc 0a d3 cd 3c 77 02 1f bb
       0.032268547 -0.018866815 0.025125045 -0.0024262944
0003c0 4f 5a cf 3c 69 94 02 bd 2b e1 5e 3c 6f aa ca bc
       0.025311617 -0.031879816 0.013603489 -0.024739472
0003d0 f4 73 21 bc a3 62 15 3b 88 28 c0 bc 3f 40 dd 3b
       -0.009854306 0.0022794388 -0.023456827 0.0067520435
0003e0 ca 46 66 bb 16 f6 29 3d b6 56 dc 3b f4 d4 ef 3c
       -0.0035137408 0.04149445 0.006724204 0.029276349
0003f0 c0 09 db 3c e6 6e b9 3c fc bc 8a 3b cb e4 13 3c
       0.026738048 0.022635888 0.0042339545 0.009026716

encoder.2.0.bias f4 [64]
000000 22 78 b8 ba 43 52 72 bb e2 07 8d 3c 0f 48 ac 3c
       -0.0014073888 -0.0036975301 0.017215673 0.021030454
000010 98 7d 94 3c c0 6d 0c 3d fc 2a bd bc 76 ac d9 3c
       0.018126294 0.034284353 -0.023091786 0.026571494
000020 40 79 cd bc b3 4e 2e 3d 5d e0 d1 bc 67 0e 52 3b
       -0.02508223 0.042555522 -0.02561968 0.0032052041
000030 4c 21 cc 3c 58 18 03 3d 5e 48 1c 3d 81 6c 3e 3c
       0.024918221 0.032005638 0.038154952 0.011622549
000040 42 4f 50 3c d8 22 49 bc 7c 43 32 3c 2b 8a 6f bc
       0.012714209 -0.012276374 0.010880347 -0.014620344
000050 2d 32 b8 3c c6 c0 02 bc 52 2f d6 3c e1 77 9d 3c
       0.022484863 -0.007980531 0.026145611 0.019222202
000060 f9 44 f5 bc 88 6e 21 bc a2 26 1a 3c 02 4d bf bc
       -0.029940115 -0.009853013 0.009408625 -0.02335215
000070 ab 07 06 bd 53 0c f9 3b bf 9e 8c 3c 99 76 a6 bc
       -0.032722156 0.007600346 0.01716554 -0.020320224
000080 23 6b 83 bb af 9d 66 bc d0 75 14 3d d8 26 c5 3b
       -0.0040105744 -0.014075681 0.036245167 0.0060165934
000090 06 f9 db bc 42 81 06 bd 74 f1 09 3d 52 18 fb 3c
       -0.026852142 -0.032838114 0.033677533 0.030651245
0000a0 4d 4c a2 bc ed 35 18 bd c3 bb 33 bb eb 44 ed bc
       -0.019811774 -0.037160803 -0.0027425147 -0.028963527
0000b0 c9 09 28 3d 80 54 11 bd 7d d8 b0 3c 97 9b 20 3a
       0.041024957 -0.035480976 0.021587605 0.00061267003
0000c0 88 0e 16 bc b4 e8 12 bc 42 7a 28 3c e6 36 f1 bc
       -0.009158738 -0.008966614 0.010283055 -0.029445123
0000d0 48 93 1a bc 29 2c 1f bb 45 32 da 3c 88 e4 06 3d
       -0.009434529 -0.0024287796 0.026635299 0.032932788
0000e0 fa b6 c3 bc 2d cd 8e 3c 63 16 e7 bc cd d9 d8 bc
       -0.023890961 0.01743182 -0.028208917 -0.026471043
0000f0 fc 3d e0 3c 3d e3 88 3c ac cc cf bc 1f e1 03 3d
       0.027373306 0.016709918 -0.02536615 0.032197114

encoder.2.1.weight f4 [64]
000000 32 1c 7c 3f 59 1c 80 3f 8c ba 80 3f 2e 18 7f 3f
       0.9848052 1.0008651 1.005693 0.9964627
000010 2f ba 81 3f 1c 5a 80 3f 15 f0 80 3f 84 e9 7e 3f
       1.0134944 1.0027499 1.0073267 0.99575067
000020 30 ec 80 3f 4e ad 7c 3f 23 33 7b 3f 4b a8 82 3f
       1.0072079 0.9870194 0.98124903 1.0207609
000030 ed 80 83 3f 04 63 80 3f c8 a6 7d 3f b0 d1 81 3f
       1.027372 1.0030217 0.99082613 1.0142117
000040 c0 77 7c 3f 3f 60 7e 3f e3 cb 7f 3f 14 83 7e 3f
       0.98620224 0.9936561 0.9992048 0.9941876
000050 67 91 7d 3f 8e 13 80 3f d8 bf 7a 3f 1c 1a 81 3f
       0.9904999 1.0005968 0.9794898 1.0086093
000060 78 94 7d 3f e0 55 7e 3f 16 0d 7e 3f ce 85 7e 3f
       0.9905467 0.99349785 0.9923872 0.9942292
000070 78 cc 81 3f a3 e8 7b 3f c9 e6 81 3f dc ae 7f 3f
       1.0140524 0.9840185 1.0148555 0.9987619
000080 77 b7 80 3f c6 ca 7f 3f c4 4e 7f 3f a7 6a 80 3f
       1.0055989 0.9991878 0.9972956 1.0032548
000090 31 94 7d 3f a2 1f 81 3f 0e ce 80 3f e1 0f 83 3f
       0.9905425 1.0087779 1.0062883 1.0239221
0000a0 e1 db 80 3f 8b 1b 80 3f 7f c9 80 3f 4f c7 80 3f
       1.0067102 1.0008405 1.0061492 1.0060824
0000b0 b2 e9 80 3f 31 51 80 3f e3 0a 80 3f ec 3b 80 3f
       1.0071318 1.0024778 1.0003322 1.0018287
0000c0 98 28 81 3f 56 59 7d 3f b4 d9 7e 3f b2 b4 7a 3f
       1.0090513 0.9896444 0.9955094 0.9793197
0000d0 85 e8 7c 3f 77 a5 7f 3f b4 9b 80 3f b1 11 80 3f
       0.98792297 0.99861854 1.0047517 1.0005399
0000e0 94 6e 80 3f 4a 13 81 3f e0 b3 81 3f 49 aa 81 3f
       1.0033746 1.0084012 1.0133018 1.0130092
0000f0 75 5e 82 3f 67 1b 7f 3f e8 e3 7d 3f 32 72 80 3f
       1.0185076 0.9965119 0.9917588 1.003485

encoder.2.1.bias f4 [64]
000000 2b e6 15 bb 81 e3 4d bc b5 9f 61 bc 0f fe 21 bc
       -0.0022872787 -0.012566448 -0.013770987 -0.009887232
000010 24 c7 8d 3c bd e5 7c 3c 00 14 09 3d 31 33 89 3c
       0.017306872 0.015435633 0.03346634 0.016748043
000020 5d f7 08 3d 67 aa 08 bd 47 db fb bc 32 f0 75 bc
       0.03343903 -0.033365633 -0.030744208 -0.01501088
000030 fa e5 fb 3b b1 38 1b b9 72 a4 74 3b 9c 50 b6 3c
       0.0076873275 -0.00014803071 0.0037329462 0.022255234
000040 71 72 69 3b 3f ef e9 39 f3 6d 01 3c e6 d5 67 bc
       0.003562119 0.00044619475 0.007899749 -0.014150118
000050 10 a7 4e bc c1 68 02 3a 0e ce e2 bc e4 fe 2c 3c
       -0.012613073 0.0004974716 -0.027686145 0.010558818
000060 75 96 08 3c e2 f3 c5 bb a3 5a b3 3c 56 1a 5d bc
       0.008336653 -0.006041036 0.021893805 -0.0134950485
000070 3f 58 8a bc 2e e2 49 bc 1c be a1 3c d3 e5 7b ba
       -0.016887782 -0.012321992 0.019743972 -0.00096091366
000080 b6 32 85 3b d0 9b c0 b9 3d db 39 3c e0 90 41 3c
       0.004064883 -0.00036737183 0.011343774 0.011814326
000090 d6 fe 19 bc 34 58 84 3c bf 85 cf 3c f4 a4 2e 3d
       -0.0093991365 0.01615534 0.02533233 0.04263778
0000a0 48 72 25 bc 96 d9 f8 bb 9f a3 09 bd 50 c3 8f 3c
       -0.010098048 -0.0075942976 -0.033603307 0.017549187
0000b0 db 46 ff bc 7d e0 9f 3c 7b a4 78 3c ef e9 d8 bb
       -0.031161716 0.019516224 0.015175934 -0.006619684
0000c0 67 cf 4f 3c 5e 5d 1e 3c 05 d4 bf 3b 44 60 a6 bc
       0.012683726 0.009665815 0.005854132 -0.020309575
0000d0 ea 80 a8 bc 7c f1 d3 ba 98 c8 d8 3b 73 3a 4a 3b
       -0.020569284 -0.001616999 0.0066157095 0.0030857592
0000e0 ed b9 0e 3c a5 bc 76 3c 94 60 29 3d a2 21 25 bd
       0.00871132 0.015059625 0.04135187 -0.040315278
0000f0 c5 97 7e 3c 71 5d 49 bb d1 60 58 bc 38 e8 16 bd
       0.015539114 -0.0030725861 -0.013206677 -0.036842555

encoder.2.1.running_mean f4 [64]
000000 0a 9a 5f bf 54 06 f5 3e 4a 93 34 3f 8a 5d 07 3f
       -0.8734442 0.4785639 0.70537245 0.52877104
000010 10 24 b6 be 8e c5 6a bf a5 02 69 3d 46 c9 88 bd
       -0.35574389 -0.91707695 0.056887288 -0.06679015
000020 e1 e2 9a bf a9 f0 42 3f b6 c9 7d be 95 5c 44 3e
       -1.2100488 0.7614847 -0.24783978 0.19175942
000030 25 98 2c bf dd 59 44 3d 16 b8 1e bf 1f 48 55 bf
       -0.67419654 0.047937263 -0.6199964 -0.83313173
000040 ee 3b 79 bf 92 d8 4c be a3 fc 57 3e 2e 84 ec be
       -0.9735707 -0.2000449 0.21092467 -0.46194595
000050 c1 b3 d0 be 56 18 c1 be e3 0f 15 3f 38 4a 86 bf
       -0.4076214 -0.3771388 0.58227366 -1.04914
000060 f6 16 4e bf 5d 1e be bf 6f 54 9a 3d af 17 1e 3f
       -0.80503786 -1.4853016 0.07535636 0.6175489
000070 b1 ab 13 be b3 25 6e 3e 1d b3 43 bf 63 25 b1 bd
       -0.14420964 0.23256569 -0.7644518 -0.08649709
000080 cd 06 ec bd c5 3c 3b bf 79 6b 28 bf fb bf 15 bf
       -0.11524735 -0.731396 -0.6578899 -0.58496064
000090 1f 14 74 bd 0a 9d 7c bf 8a 03 3d bf ed ab 47 bf
       -0.0595895 -0.9867712 -0.73833525 -0.7799671
0000a0 b9 5c a6 bf af 5a 2e bf 50 79 8b 3e c7 76 56 bf
       -1.2997047 -0.6810712 0.27240992 -0.8377499
0000b0 84 fe 99 3e 82 91 57 bf 63 e0 7a 3e 59 1d 11 be
       0.30076993 -0.842064 0.24499659 -0.14171351
0000c0 33 11 18 bf fb 81 c3 be e6 04 7c bf 44 76 e8 3e
       -0.59401244 -0.38185105 -0.98444974 0.4540273
0000d0 4c 9a 00 be d3 6f ad be 0b a2 d2 3e ee a3 bb 3e
       -0.1255886 -0.33874378 0.41139254 0.36648506
0000e0 ac 8c 54 3e ab 95 78 bf 7a 39 8f bf 7b a0 9b 3e
       0.20756787 -0.97103375 -1.1189415 0.30395874
0000f0 62 a6 0e bf 98 04 47 bf 88 8a 55 3e ad 91 0b 3e
       -0.5572263 -0.77741385 0.20853627 0.1362979

encoder.2.1.running_var f4 [64]
000000 94 6d e8 3e c7 9c d4 3e b2 e6 9e 3e 26 50 c1 3e
       0.453961 0.41525862 0.31035382 0.3775646
000010 4b c0 7f 3e 7d 5c 1d 3f 4e fb d4 3e 2f 96 8a 3e
       0.24975698 0.6146925 0.4159798 0.27067706
000020 8c 89 03 3f 51 33 80 3f 80 0a 13 3f e2 79 ad 3e
       0.51381755 1.001566 0.57437897 0.33882052
000030 47 6d bc 3e ea 5f ff 3e 0a 02 cd 3e 78 b7 e1 3e
       0.36802122 0.49877864 0.40040618 0.44085288
000040 b0 72 57 3f 5c 21 ed 3e ba 6c b9 3e 10 3f a8 3e
       0.84159374 0.46314514 0.36215764 0.32860613
000050 e5 d9 7b 3e b0 1b 10 3f 25 e7 0f 3f 7a 8f 12 3f
       0.24594839 0.5629225 0.56212074 0.5725018
000060 70 6d c5 3e ec 93 d1 3e ef d5 4f 3e 36 d9 c0 3e
       0.38560057 0.40933168 0.20296453 0.3766572
000070 10 6f 98 3e 8d 7e 20 3f 45 d4 a6 3e 86 f3 40 3e
       0.29772234 0.626931 0.32583824 0.18842897
000080 1d 5b f4 3e 15 0c ea 3e de 29 f3 3e 14 d5 c1 3e
       0.47725764 0.45712343 0.4749288 0.37857878
000090 ae 88 ea 3e e3 04 9c 3e ae b1 41 3f ba 35 ea 3e
       0.45807403 0.30472478 0.7566174 0.45744115
0000a0 2d 3a cb 3e d7 51 bc 3e 6a 0c fc 3e de c6 cf 3e
       0.39692822 0.3678119 0.4922822 0.4058141
0000b0 f4 7c 44 3f a0 48 da 3e 28 27 4a 3e e3 89 4a 3e
       0.76753163 0.42633533 0.197415 0.19779162
0000c0 ee 5c e3 3e d1 54 c6 3e 3d 5e 0b 3f 30 a1 eb 3e
       0.44406837 0.38736585 0.5444067 0.46021414
0000d0 36 d8 c5 3e 94 0f fc 3e 0f d8 59 3e 3b cf d3 3e
       0.38641518 0.49230635 0.21273826 0.41369042
0000e0 01 63 af 3e d2 ef 0a 3f 48 27 35 3f 21 31 9c 3e
       0.3425522 0.54272187 0.70763063 0.30506232
0000f0 bd 20 5f 3e f0 d1 97 3e 58 c7 05 3f a9 5b 36 3f
       0.21789832 0.29652357 0.522573 0.7123361
