models/UTK_last_model.pth (torch_old, 458727 bytes, 24 tensors)

encoder.0.0.weight f4 [64, 3, 3, 3]
00000000: 81bd 143e 72b0 253e 38ae 3cbd 5962 313e
00000010: a259 29bd 79fd 1f3d 9cce d8bd 3fc9 de3d
00000020: 3139 2b3e 3a21 13be cabe 2a3e 5d15 0a3d
00000030: c5ca 0d3e de37 cd3c 62ca bb3d 22e8 0ebd
00000040: deee 133e cb02 ce3c 994c b6bd 3f53 503d
00000050: 3fb5 b1bd d7c7 b6bc 7cf5 9cbd b135 053e
00000060: 390e 20be 6c66 b4bd b34e 56bd 8090 edbd
00000070: fc6f 8f3c f044 42be 3fb1 2f3e c7a9 29be
00000080: 0bf7 143e 8891 053d 4eca 79bd df71 f53d
00000090: 3b17 063d 0f31 223e 86f3 c93c 62df 6cbd
000000a0: 9609 5d3d 48a7 55bd 578e af3d 6e9e 343e
000000b0: 3cd0 e93d 6f68 a3bd 105c ec3d 116a 203d
000000c0: 093c d13d 0df8 e7bd 6c2f 40be 7675 8ebd
000000d0: 6ffa 12be a840 253e 7367 363d e216 8d3d
000000e0: 46d2 493d b2f0 5ebc 98d5 0f3e 0805 17be
000000f0: 2275 8a3b dc80 0fbe 75a8 493d 310c 90bd
00000100: 9d17 543d c65c 4cbd 4164 203e 7cb5 f2bd
00000110: 22af f9bd 8a5e e6bd fe40 303e dca3 753d
00000120: 1783 403e 93b3 22be 2747 4cbe c9d0 16be
00000130: 2647 05be a449 973d d1d7 983d bc82 293e
00000140: b3fe c1bd 2cbf 03be b714 d73d e617 97bd
00000150: b9c7 f23d b790 25bd 5c07 f03d 2c31 18be
00000160: 18f4 bdbd 966a 823d 4bf4 343d aec4 4abd
00000170: 7c7c ed3d f372 063e 9484 0cbe f847 c9bd
00000180: f8dd 333e 7812 7fbd ca77 84bd 5bda 3cbe
00000190: 50bf f5bd 071d 383d 2313 edbc 0646 11be
000001a0: ee34 5f3c 9a5f 10be 3a25 30be 5c55 d3bd
000001b0: 6c3a 37be aa75 02be e96f 443e d014 bf3c
000001c0: 8333 5c3d 8be1 39be 288c 0ebe b627 8fbd
000001d0: 362c ce3c f517 27be e93f 87bd 46d8 cfbd
000001e0: c4e7 f63b 4acf 64bd 62ca 283a 0845 00be
000001f0: 3393 edbd dbe4 cbbd df20 81bd b8ac 10be
00000200: 45bf 2e3e 8e33 08bd 549e 353e 5b28 903d
00000210: b041 25be b270 123e 992d 3bbd 1118 a4bd
00000220: b987 27be fd7b 47be cda2 4a3d f5c7 35bd
00000230: 1765 943d 538f 26be 4555 103e e5c4 12be
00000240: eb68 26bd 6fc0 133d f489 c33d 2720 193e
00000250: acfe 303e a194 1fbe 447a 303d 1f90 afbd
00000260: ac85 cabc 6dbc 1abe dd52 2f3e 0784 14be
00000270: f3f4 c43d 642a 833d 2174 6f3d 4426 e2bd
00000280: 89af 2e3e 4271 183d d79d e13c 02c7 2bbe
00000290: 21ea a83d 789e d1bc 5199 afbd 82d3 223e
000002a0: 3cfa 313d df2c dbbd bccb d2bd e8e3 7abc
000002b0: ab47 d33d 25fd 4cbd b683 ebbd 4cb8 90bd
000002c0: c46b 1bbe d6da 803d e787 133e a447 44be
000002d0: 2d1f 1d3d dccc c33d ae68 063d 4ee0 96bd
000002e0: 5834 c43d 40bf be3d 90cd 873d 1718 1ebd
000002f0: b7af 72bd 41fc 873c d282 0fbd f8ec 71bd
00000300: 566e fc3d ade5 2a3e e83d 9cbc 3528 3fbd
00000310: 46ce ba3a bef4 48bc 87c3 443d f384 663d
00000320: 435b 33be 2ff7 86bd 5ca5 2c3e c4fb a23d
00000330: 4db8 b2bb e82d e4bd 1bfd e8bd d190 28be
00000340: 3ba2 62bd b5e8 8e3d a807 083e bff1 cc3d
00000350: 749b 25be 0909 dabd fb02 b1bc ddd1 453e
00000360: a014 2a3d c08f fbbc 4f46 c73d c149 84bd
00000370: e1f6 d3bd 218e 1d3e fbb3 91bd efc6 abbc
00000380: 6e57 35be 1923 003e c4fe 133e 07eb 8c3d
00000390: 9f9e 0dbe eb8d 3fbe 9a7c 20be 92dc 133e
000003a0: 80b1 c33d 7918 253e 8109 bf3d 1e29 2d3d
000003b0: 0d71 13bc d73a 21be 5c3a 32be f63f 45be
000003c0: d832 893d 3c82 d5bd 88f2 56bd 59e9 c3bd
000003d0: 8a01 8bbc d1f4 03be c921 e6bd b9c8 973d
000003e0: 553e 5cbd 2a77 083e 9918 3dbd 1a79 05be
000003f0: 58fb 32bd b44c d7bd 5d5e 95bd 84cd 42be
0.14525415 0.1618059 -0.046064585 0.17322673 -0.041345246 0.03906009 -0.105862826 0.108782284
0.16721036 -0.14368144 0.16674343 0.03371178 0.13846882 0.025051054 0.09169461 -0.034889348
0.1444659 0.025147816 -0.089013286 0.05086064 -0.08677148 -0.022312088 -0.0766401 0.13008763
-0.15630426 -0.08808598 -0.052321147 -0.11599827 0.017509453 -0.1897161 0.17157458 -0.16568671
0.14547364 0.032609493 -0.06098395 0.1198461 0.032736998 0.15839027 0.024652254 -0.057830222
0.05396422 -0.052161485 0.08572071 0.17638561 0.11416671 -0.079789035 0.11540997 0.039163653
0.10216529 -0.11326609 -0.1876809 -0.06955998 -0.14353345 0.16137946 0.04453225 0.0688913
0.049272798 -0.013607191 0.14046323 -0.14748013 0.004225389 -0.14014 0.04923292 -0.07033575
0.051780332 -0.049893163 0.15663244 -0.11851022 -0.12191607 -0.11248501 0.17212293 0.05997072
0.18800007 -0.15888815 -0.19949017 -0.14728083 -0.13015422 0.07387093 0.07463039 0.16553777
-0.09472408 -0.12865895 0.10501998 -0.07377605 0.118545 -0.040421214 0.11720154 -0.14862508
-0.09275073 0.06367986 0.04417829 -0.049503975 0.11596009 0.13129787 -0.1372245 -0.0982818
0.17565143 -0.062273473 -0.064681605 -0.18442671 -0.119993806 0.044949558 -0.02893979 -0.14186868
0.013623459 -0.14098969 -0.17201701 -0.103190154 -0.1789338 -0.12740198 0.19183315 0.023325354
0.053760063 -0.18152444 -0.13920653 -0.06989996 0.025167566 -0.16317733 -0.06603987 -0.10148673
0.007534953 -0.05586175 0.0006438849 -0.12526333 -0.11600342 -0.0995576 -0.06305098 -0.14128387
0.17065151 -0.03325229 0.17736179 0.07038947 -0.16138339 0.14300802 -0.045697782 -0.08012403
-0.16360368 -0.19480892 0.049471665 -0.044380147 0.07245844 -0.16265611 0.14095028 -0.14332922
-0.0406274 0.03607219 0.09547797 0.14953671 0.1728465 -0.15584041 0.04308535 -0.08572411
-0.024721943 -0.15110941 0.17121454 -0.1450349 0.09617033 0.0640457 0.05846036 -0.11042455
0.17059149 0.037217386 0.027541084 -0.16775134 0.082477815 -0.02558826 -0.08574165 0.15900996
0.043451533 -0.10701918 -0.102927655 -0.015313126 0.10316404 -0.050046105 -0.11499731 -0.07066402
-0.15177828 0.0629174 0.14407311 -0.19167954 0.03835981 0.09560558 0.032814674 -0.073670015
0.09580296 0.09313822 0.06631005 -0.038597193 -0.059249606 0.016599776 -0.03503687 -0.05906388
0.123257324 0.16689177 -0.019072488 -0.046669204 0.0014252148 -0.012265382 0.048038032 0.056279134
-0.17515282 -0.06590115 0.16859955 0.07958177 -0.0054540993 -0.111415684 -0.11376401 -0.16461493
-0.055330496 0.06977979 0.1328417 0.10007047 -0.16172582 -0.106462546 -0.021607867 0.19318338
0.041523576 -0.030708194 0.09730207 -0.0645938 -0.10349823 0.15386249 -0.07114407 -0.020968882
-0.17709133 0.12513389 0.14452654 0.068807654 -0.1383004 -0.18706481 -0.15672532 0.1443961
0.0955534 0.16122617 0.093279846 0.04227554 -0.008999121 -0.15745102 -0.17405075 -0.1926268
0.06699151 -0.10425231 -0.05247739 -0.09565992 -0.016968507 -0.12886359 -0.11236913 0.07411332
-0.053770382 0.13326707 -0.046166036 -0.13034478 -0.04369673 -0.10512677 -0.07293389 -0.1902371

encoder.0.0.bias f4 [64]
00000000: 2a89 293d 10e8 ddbd 0d54 bfbd 2f66 2b3e
00000010: d422 b83d 5a19 53bd 6b2d ed3c ce4e 423d
00000020: 275e 0b3d f5a7 64bd 9300 debd c5aa 093e
00000030: 7236 fd3c a289 a63d b6a8 9bbd 25f2 bc3d
00000040: 328f 183e 07d6 f63d 2885 6a3d 8de2 483e
00000050: 8b87 e9ba 879f 503d e50c 393e 9392 463e
00000060: f32c b3bd f888 2c3e 0f93 8f3d e40f d9bc
00000070: d327 233e e3b0 d9bd a487 ec3d 42e2 4d3e
00000080: deba 0cbe a632 dcbd 08eb 45be 72db 30bd
00000090: 4cee 35be 6a04 80bd c0fc 873d 01c6 0a3e
000000a0: fb8a c63d eb02 d33d d446 9a3d c523 f3bd
000000b0: 4ed5 1bbe ef24 613c ed33 3e3e 177f cd3b
000000c0: 7291 82bc 630b 09be d23c cbbd 0884 15be
000000d0: 0f26 1e3e 3090 cabc 1482 2fbe 446b 8c3c
000000e0: 2e14 1c3c a92f bebc 429e 8b3d a2a9 bf3d
000000f0: 6f43 32be 322e 0ebe 80c5 2fbc baab 3bbe
0.041390575 -0.10835278 -0.09342203 0.16738199 0.08991018 -0.05153785 0.028952321 0.047438435
0.034025338 -0.05582424 -0.10839953 0.1344405 0.03090975 0.0813172 -0.076005384 0.09225873
0.14898375 0.12052541 0.057255894 0.19617672 -0.0017816884 0.050933387 0.18071325 0.19391851
-0.08748808 0.16849124 0.07010471 -0.026496835 0.1593316 -0.106294416 0.11549309 0.20105842
-0.13743159 -0.10751848 -0.19327939 -0.04317803 -0.17766684 -0.06250842 0.06640005 0.13552095
0.09694477 0.10303291 0.07533041 -0.11872057 -0.15218088 0.013741716 0.18574496 0.006271254
-0.015938494 -0.1338325 -0.0992371 -0.14601147 0.15444206 -0.024726957 -0.17139465 0.017140992
0.009526296 -0.023216086 0.06817295 0.09358527 -0.17408536 -0.1388481 -0.01072824 -0.18327227

encoder.0.1.weight f4 [64]
00000000: 097b 7d3f 6ce7 803f 63a6 803f e4b1 7e3f
00000010: 7971 7d3f 1d01 803f 521d 803f 8e78 803f
00000020: 76eb 803f 77f5 7f3f b4fb 7b3f 4015 803f
00000030: 3717 7e3f 5033 813f 90f6 803f ba8d 803f
00000040: fb49 813f 36da 7e3f bb31 7f3f e9da 813f
00000050: fc5d 7e3f 21ca 7f3f 45c5 7c3f ba48 7c3f
00000060: d8fd 7f3f b8e2 7d3f 0528 803f 152e 7e3f
00000070: 6d77 803f 5e79 803f 05b0 7e3f 8360 813f
00000080: f940 7e3f 5759 7d3f 0fdf 7e3f b5e1 7f3f
00000090: 3826 803f 86cc 7f3f 0d5a 803f 6830 813f
000000a0: 48c1 803f 2024 813f 479c 813f edca 7f3f
000000b0: 3cb8 803f 2c2a 803f da17 813f f0bb 803f
000000c0: b131 7f3f d85a 803f 2bce 803f 8793 7e3f
000000d0: 5979 7e3f 8a18 7e3f cae2 7e3f c756 803f
000000e0: 30c2 7e3f 9219 803f deba 803f 4898 803f
000000f0: e00c 803f 13e2 7f3f 676e 813f 5f7c 7d3f
0.9901586 1.0070624 1.0050777 0.9949019 0.9900127 1.000034 1.0008948 1.003679
1.0071857 0.99983925 0.98430943 1.0006485 0.99254173 1.0093784 1.0075245 1.0043252
1.0100702 0.99551713 0.9968526 1.0144931 0.9936216 0.999178 0.9873851 0.9854847
0.9999671 0.9917407 1.0012213 0.99289066 1.0036446 1.0037038 0.99487334 1.0107578
0.9931789 0.98964447 0.9955911 0.99953777 1.0011663 0.99921453 1.0027481 1.0092897
1.0058985 1.008915 1.0125817 0.99919015 1.0056224 1.001287 1.0085404 1.0057354
0.996852 1.0027723 1.0062917 0.9944386 0.9940391 0.99256194 0.995648 1.0026482
0.99515057 1.0007803 1.0057027 1.0046473 1.0003929 0.99954337 1.0111817 0.990179

encoder.0.1.bias f4 [64]
00000000: 7e9e 5d3b aacb 4f3b 6e4a 423c 1c45 34bb
00000010: 6c52 0fbc b1df 9fbc 48b2 bcba 2570 bf3b
00000020: 3f84 f53b fa78 8d3a 990e 4abc 0276 e2bb
00000030: d869 3ebc 2ad1 8d3b ca9c 9bba 26bf 653a
00000040: 14d6 1b3c 430e 503c 7120 26bc 4bc7 8c3c
00000050: 9de2 e6bb 6f84 8b3a 9881 51bc f745 c23a
00000060: 0c58 a0ba 165e 17bc 5b7c d43b 33c1 07bb
00000070: 417c b53a d3e2 f83b ad12 ca3b d028 1a3a
00000080: 6621 2cbc 0d3a 07bc 33e6 2fbb e823 a43a
00000090: 7a13 68ba d266 d03b cc3e d3bb 62bb 3f3c
000000a0: 5919 863b 2583 203b 8e4c cbba 16e0 55bb
000000b0: 6afe a53b aaa8 4f3b d34b 183c b718 133b
000000c0: 8cb9 42bb b83d 8c3c 63da 563b 4087 9eba
000000d0: 06f0 9fbb d904 2abb 53d1 223c 373c da3b
000000e0: 7bee fcbb cf38 eebb 28cf 76bb 848b 863b
000000f0: 82ac 2abb 008e d5b6 aadb 4d3c 99e7 db3b
0.0033816393 0.0031707087 0.011858566 -0.0027507013 -0.008747678 -0.019515844 -0.0014396394 0.005842226
0.0074925716 0.00107935 -0.012332582 -0.0069110403 -0.011621915 0.004327913 -0.0011872288 0.000876414
0.009511489 0.012698713 -0.010139571 0.017184874 -0.0070460574 0.0010644327 -0.012787245 0.0014821877
-0.0012233271 -0.00923874 0.006484551 -0.002071452 0.0013846235 0.007595399 0.006166777 0.00058807153
-0.01050601 -0.0082535865 -0.002684009 0.0012522908 -0.0008853 0.0063599134 -0.006446695 0.01170239
0.004092377 0.002449223 -0.0015510486 -0.0032634786 0.005065729 0.0031686225 0.009295422 0.002244515
-0.0029712645 0.017119274 0.0032783977 -0.0012094751 -0.004880908 -0.002594283 0.009937602 0.00666001
-0.007718859 -0.0072699557 -0.0037660096 0.004105987 -0.0026042764 -6.3644256e-06 0.012564579 0.006710958

encoder.0.1.running_mean f4 [64]
00000000: ae75 3d3f be7d 453e f4fe b4be b429 70bf
00000010: 3c72 82bf e6d0 5fbe 67e0 2bbe 1202 973d
00000020: b4e1 0dbf 22b9 2bbf 9e47 a2bf 0e85 de3e
00000030: 021f e8bf df5a 0bbe ebef ad3d 9453 27bf
00000040: 225e 4b3e 3199 cbbd 2b82 193f 5bbe b43d
00000050: 74e2 1c3f 6730 1ebf ba39 8ebe 4e69 9dbf
00000060: 9a0b a53e 1d74 3f3f e480 703a 843e d33e
00000070: be0e 9dbe 2f20 c0bd d159 8d3e a667 963d
00000080: d794 8d3f 3a45 fe3e 4806 aebf a46c edbe
00000090: 5952 8c3e a880 a4bf 14bf ecbd 90db f43e
000000a0: 5fe4 ba3e d4ef b33d 0238 4e3e 9c51 853e
000000b0: 04f3 76be 39ce 5a3f 4941 aa3e 6991 123f
000000c0: 80cc 6c3c 9ed3 97be d2ff 9e3e 035c 36bf
000000d0: 420b ccbe 6ebe 4dbd 8c6d 71be 2fa5 783e
000000e0: fba6 983f d8d5 c43e 38ce 103e f015 13be
000000f0: 4331 c6be 1939 50bf 90b4 303c d1f5 723f
0.7400769 0.19286248 -0.35350764 -0.93813634 -1.0191112 -0.21857032 -0.16784821 0.07373442
-0.5542252 -0.67079365 -1.2678106 0.43460888 -1.8134463 -0.13608883 0.08493026 -0.65361905
0.19860128 -0.09941328 0.59964246 0.0882537 0.6128304 -0.61792606 -0.27778417 -1.2297761
0.32235414 0.7478655 0.00091744796 0.41258633 -0.3067531 -0.093811385 0.27607587 0.07343988
1.1061047 0.4966219 -1.3595667 -0.4637195 0.27406576 -1.2851763 -0.11559883 0.47823763
0.36502358 0.08785978 0.20138553 0.26038826 -0.2411614 0.8547092 0.33252934 0.5725313
0.0144530535 -0.2965364 0.3105455 -0.7123415 -0.3985234 -0.050230436 -0.23576945 0.24281763
1.1925958 0.384444 0.14141166 -0.14363837 -0.3870946 -0.81337124 0.010785237 0.94906336

encoder.0.1.running_var f4 [64]
00000000: e5ed 123f f4bd 3c3e 13d6 ed3d 618e 953f
00000010: e513 a13f 46c6 173e a222 bf3d ff29 0b3d
00000020: c9c5 b83e 5426 ba3e 3dd6 cf3f 6740 933e
00000030: 0376 3240 cc9b 4f3e b596 6b3d b0b7 143f
00000040: 1379 dd3d bc57 423e 15b3 a83e 0e53 8b3d
00000050: cab0 aa3e 1560 ef3e 0e44 653e 6d57 ee3f
00000060: 26f7 223e 8a4b e63e beba c13d fe10 b43e
00000070: dff7 603e 0221 753d 8066 013e 8820 b43e
00000080: 7671 ae3f 2eaf 063f bb1f a03f 1da0 653e
00000090: ea8f 6a3e fd1a a33f 30a5 c63d c16d a33e
000000a0: 18c9 3d3e 2ff3 303d 9954 8b3d e442 8b3e
000000b0: 44d3 493e 6064 403f 2d9a a23d c041 d83e
000000c0: 0734 a53d 2483 203e aca0 483e 7c43 103f
000000d0: f1fc ac3e 8975 f03d fb50 783d cf1d 013e
000000e0: b9f9 a03f 8cc8 893e f899 943d 262f 033e
000000f0: 0060 fe3d fcff bd3e 7a0f f53d fb38 973f
0.5739425 0.18431836 0.11613097 1.1684076 1.2584196 0.14821729 0.093327776 0.033975597
0.36088398 0.36357367 1.6237255 0.28760073 2.7884529 0.20274276 0.057516772 0.58092785
0.10814109 0.1897878 0.3294913 0.06802951 0.33338004 0.46752992 0.22389242 1.862043
0.15914592 0.44979507 0.09459446 0.35169214 0.21969555 0.05984593 0.12636757 0.3518107
1.3628376 0.52611053 1.2509683 0.2242436 0.22906461 1.2742611 0.09699476 0.31919673
0.18533742 0.043200668 0.06803245 0.2719947 0.19709498 0.7515316 0.07939563 0.42237663
0.08066564 0.15675026 0.19592541 0.56352973 0.3378673 0.11741168 0.060624104 0.12609027
1.2576209 0.26910818 0.0725593 0.12810954 0.12420654 0.37109363 0.119658425 1.1814264

encoder.1.0.weight f4 [64, 64, 3, 3]
00000000: 6516 11bd f674 263d 1111 7939 1c69 9fbc
00000010: 816a 64bc 7f0e f5bc e8fb 113d b9bd 00bc
00000020: 74c0 adbc 9285 bbbc ee27 033d df01 4e3b
00000030: 02e5 023c 0c89 8839 2c4e 0fbc d0a0 513c
00000040: d182 263d 42db 8dbc 8807 8f3b f4f8 fabc
00000050: b8b7 9abc 35d1 1f3d 8c94 21b8 72cb 1d3d
00000060: 9932 82bc 0710 04bd cecf 04bd 58ad 023d
00000070: 0c85 12bd 7213 933c 5945 6c3a db2a a33b
00000080: 9a0b 8d3c a560 91bc 75fe 8e3c c67a 22bd
00000090: c34f 8ebc 3bbb e63c 0406 2d3c 0b0e 10bc
000000a0: 7b2b 56bc dad4 e2bc 8ca7 ba3c 98d4 8abb
000000b0: 95db 77bb a3cc de3b 224e c33c 04da aabc
000000c0: ea90 0cbc 39c0 063d d394 f63c 8906 59bc
000000d0: 5a2c 28bd 7dcf 3f3c 517b b23c 1a17 923b
000000e0: 0189 bd3c bbcc 15bd 1c41 663c f66d 05bd
000000f0: bf2d e43c e0d8 f63c 70c2 323c c17b 243d
00000100: 5fbe 00bd 72f7 01bd dc8e 05bd 8949 e93c
00000110: d444 a33c a291 c3bc 7f7d 9e3c 5206 2f3d
00000120: e243 2abd 776c eb3c 7203 5c3b 5652 dd39
00000130: e2e0 023d b344 093d 4a2f 723c 32d4 ec3c
00000140: aa0c 673c d6be c53b ce27 24bd b248 c83b
00000150: ab6b f0bc cf49 333c 5a4c bb3b 95a4 513a
00000160: 80ee 0ebd 790e f4bc f2d8 e93c 91da 923c
00000170: 86b5 9a3c 95e0 8dbc b1d8 47bc 4ded 7fbc
00000180: fc54 ba3c dcd0 cbbc 2ebd 9a3c ca9b a73c
00000190: f5aa 30bd ee8a 86ba a189 75bc 4b62 e7bc
000001a0: 5e24 873c 713a 20bc 59da 113d e91a e2bc
000001b0: 0c35 883c 3f0e 1dbd 7824 b6bc ea36 8c3a
000001c0: d63f ff3c 3a32 a73c a78f 20bd d4a3 66ba
000001d0: 0f00 f3bc b28d 1f3b 38f3 0bbd db65 64bc
000001e0: 361d f43c 690b 26bd e1a1 31bd 0573 593c
000001f0: 40ea 8f3b c8ae 1ebc 2fec 1c3d 9a55 c2bc
00000200: 3932 8dbc 8105 13bd e677 88bb 593f 8039
00000210: 246a c53c 6c58 0a3b d85f be3c 1877 9bbc
00000220: af31 f73c f007 043d e467 26bd c252 63bc
00000230: 62e6 1cbd ac8d 403c 87fa 2bbd 2f58 cabc
00000240: 5d6b 433d 05e0 2abd b6d8 103d 1003 663c
00000250: cbbe 213d b895 79bc 4449 0b3d 39b3 b43b
00000260: 5090 3b3c 9269 043d bc30 11bd 0060 e3bc
00000270: 7822 253d ce0c c6bc cdcf fabc 4d6e 893b
00000280: a543 22bc d00e 863a 9678 d0bc 0ff7 873c
00000290: cdb1 0cbd a0c8 783b ff82 bb3c 03f1 003c
000002a0: 2c6e e23b 6d9e dd3b ef64 54bc 96a4 68bc
000002b0: 05b2 92bc ceeb 99bc 2f8c a8bc fbca 4f3d
000002c0: 6fb7 6a3b a183 2f3c 4603 043d 9785 f33a
000002d0: d499 acbc 86f2 02bd fa86 90bc 8b8d 413c
000002e0: 4d38 29bd 52bd 27bc c30b 533c c4b8 e93c
000002f0: 462b fd3b 577f a33b 4331 c53c 79f9 903c
00000300: fc77 893c a55d 5abc 46c7 0dbd 80c4 42bc
00000310: a1e7 62bc d942 27bb ef90 fabb 625a 413c
00000320: c180 c13c f9c4 9ebc e4ab 2bbd 3746 b5bc
00000330: 612b bbbc 2cac 863c 3b9b 03bd 0b21 bcbb
00000340: b94e 39bc 36ec dcbc 6542 883c 4ca5 a2bc
00000350: 012f afbb c49a 03bd 70c0 06bc a2f0 4e3b
00000360: d852 3cba 10f0 8ebc 2219 723c 3c29 62bc
00000370: 9e18 bdbc bdf0 c1bc 6b55 1cbc db37 20bd
00000380: 3792 1f3d 2d2b bcbc 32e9 b2bc ab96 01ba
00000390: f76f b93b 2c08 2bbc 0289 bf3c c99a ecbc
000003a0: 549c 213c cfea 79bb 1c7b 0bbd cdcc a2bc
000003b0: 76c0 873b 4f61 213c c777 033d dfff ca3c
000003c0: 7c3c bbbc 2126 74bc 5987 eebb bce7 cabc
000003d0: 365c f2bb cef8 d5bc 8cde 943c c27e fe3c
000003e0: 1ea8 223c ae1d d7bc fb67 eebc 3224 0cbc
000003f0: 837b 463c 8afb b6ba fda4 ca3b 29e4 1c3d
-0.035421748 0.040638886 0.00023752848 -0.0194593 -0.013941408 -0.029914139 0.035640627 -0.007857733
-0.021209933 -0.02289084 0.0320205 0.003143422 0.00798917 0.0002604205 -0.008746665 0.012794688
0.0406521 -0.017316464 0.0043649115 -0.030636288 -0.018886432 0.039017875 -3.8523736e-05 0.0385241
-0.015893267 -0.032241847 -0.03242474 0.031903595 -0.035771415 0.017953608 0.0009013019 0.004979474
0.017217446 -0.017746279 0.017455319 -0.039667867 -0.017372018 0.02816545 0.010560516 -0.008792411
-0.01307189 -0.027689386 0.02278497 -0.004236769 -0.003782009 0.006799297 0.023840968 -0.020855911
-0.008579472 0.03289816 0.030100262 -0.013246187 -0.041057922 0.011707184 0.021787317 0.0044583203
0.023136618 -0.0365722 0.014053609 -0.03257557 0.027853845 0.030132711 0.010910615 0.040157083
-0.031431552 -0.031730123 -0.032606944 0.028477447 0.01993028 -0.023873154 0.01934695 0.042730637
-0.041568644 0.028738244 0.003357139 0.0004221375 0.031952746 0.033512782 0.014781782 0.028909776
0.01410214 0.0060347123 -0.040077023 0.0061121816 -0.029348215 0.01094289 0.005715889 0.0007997242
-0.03489542 -0.029792057 0.02854583 0.017926486 0.018885385 -0.017319003 -0.012197659 -0.015620542
0.022745602 -0.024879865 0.018889036 0.020460028 -0.043131787 -0.0010264793 -0.014986427 -0.028245112
0.016496833 -0.0097795585 0.035608623 -0.027600722 0.016626857 -0.038343664 -0.022234187 0.0010697518
0.031158369 0.020409692 -0.039199498 -0.0008798216 -0.029663114 0.0024345932 -0.0341675 -0.0139403
0.029799085 -0.040538225 -0.04336727 0.013272052 0.0043919384 -0.009685226 0.03831118 -0.023722459
-0.017235862 -0.03589392 -0.0041646836 0.0002446126 0.024098463 0.0021109832 0.023239061 -0.018977687
0.030175058 0.032234132 -0.04062642 -0.0138747115 -0.038305648 0.011752527 -0.04198697 -0.024700252
0.04770981 -0.041717548 0.03536292 0.014038816 0.039488595 -0.01523345 0.03400542 0.005514529
0.011447981 0.032327242 -0.035446867 -0.027755737 0.040316075 -0.024176028 -0.030616665 0.004194057
-0.009903823 0.0010227803 -0.025448125 0.016597299 -0.03434925 0.0037961379 0.022889612 0.007869962
0.006910106 0.0067632706 -0.012963518 -0.014199397 -0.017907152 -0.018789198 -0.020574657 0.050730687
0.0035814901 0.010712535 0.032229684 0.0018579242 -0.021069445 -0.03196957 -0.017642487 0.011813532
-0.04131346 -0.010238009 0.012881222 0.028530486 0.007726106 0.0049895453 0.024071341 0.017697083
0.016780846 -0.013327991 -0.03461387 -0.01188767 -0.01384917 -0.0025522022 -0.007646672 0.011801334
0.023620965 -0.019381033 -0.041911975 -0.022128208 -0.022847833 0.01643952 -0.03213046 -0.0057412437
-0.011310273 -0.026968103 0.016633222 -0.01985421 -0.0053461795 -0.032130018 -0.008224592 0.0031576534
-0.00071839755 -0.017448455 0.0147765 -0.013803776 -0.023083027 -0.023674363 -0.00954185 -0.039115768
0.0389578 -0.022969807 -0.021839712 -0.0004943411 0.005659099 -0.01043896 0.02338076 -0.028882401
0.009863932 -0.0038134342 -0.034052953 -0.019873047 0.004142816 0.00984986 0.03209665 0.024780212
-0.02285599 -0.014901669 -0.0072793183 -0.024768703 -0.0073962463 -0.026119616 0.018172525 0.031066302
0.009927778 -0.02625927 -0.029102316 -0.0085535515 0.012114408 -0.0013960463 0.006184219 0.038303528

encoder.1.0.bias f4 [64]
00000000: 3c57 10bc ac82 273c fd78 8fbc 2ef1 91bc
00000010: ecff f53a b94d 6d3c 01d1 1ebd edfe 88bc
00000020: 7dd4 a1bc 4765 cabb 4eb1 123d bdc4 0cbd
00000030: 2173 5bbc af06 453d bbd8 313c 412d 16bc
00000040: 30d4 f5ba 0e87 a0bc d8c6 d6ba 48e2 d9bc
00000050: 8de9 fbbb f455 983b 7717 d33c c70a 9f3c
00000060: bafe 863b 9a35 0a3d 2558 453d 41cd 09bd
00000070: 3c01 d2bc cd5f 913b 12b4 c1bc b1f4 f33b
00000080: c4bd 073d 1cca 2c3c a264 7ebb ce0a 773c
00000090: eb27 febc 7559 923c fbe3 23bc 23cd 7fbc
000000a0: 195d aab9 6500 023d aa49 91bc 62c2 10bd
000000b0: 97eb d43c 8e9a b6bb 3d7e b3bb 2c53 f73c
000000c0: 0f0b 3a3c b6f7 913c a92e 163d 64d9 2ebd
000000d0: 03dc a3bc 75aa d93c c33d 27bd 19f6 983b
000000e0: 953b 183c c481 2aba 7705 b03a 832e e8bc
000000f0: 0549 9f3c daac dcbc 7c5c 2fbb 85c4 46bb
-0.008809861 0.010224026 -0.017513746 -0.017815199 0.0018768287 0.014483863 -0.03877354 -0.01672312
-0.019754643 -0.006176624 0.035813622 -0.03436731 -0.013394148 0.048102077 0.010854895 -0.009166063
-0.0018755253 -0.01959565 -0.0016386164 -0.026597157 -0.0076877535 0.0046489183 0.025768025 0.019414319
0.0041197212 0.033742525 0.048179764 -0.03364301 -0.025635354 0.004436469 -0.023645435 0.007444941
0.03313996 0.0105462335 -0.0038817306 0.01507826 -0.031024894 0.017864922 -0.010003085 -0.015612873
-0.0003249429 0.031738658 -0.017735321 -0.035341628 0.025991244 -0.0055726236 -0.0054776953 0.030191027
0.011355176 0.017818313 0.036665592 -0.04268779 -0.02000237 0.026570538 -0.040830385 0.004668009
0.009291549 -0.0006504322 0.0013429363 -0.028342491 0.019443998 -0.02693789 -0.0026758006 -0.0030329537

encoder.1.1.weight f4 [64]
00000000: fa89 813f ac2a 7d3f e16c 7f3f 89c7 7e3f
00000010: 1008 803f 6227 813f afdc 7f3f 37c9 803f
00000020: e83a 813f 01fc 7e3f 5894 7f3f 8ef8 7d3f
00000030: 5b9e 7e3f 7fcb 813f 8803 7c3f 3375 7f3f
00000040: 5a5c 813f 5380 803f 80c8 7c3f 7b7d 803f
00000050: 55d0 803f 8207 813f 2d98 803f 1562 803f
00000060: 56e0 7d3f 4bb6 803f 9529 803f c078 7f3f
00000070: 7dea 803f c773 7d3f b6c1 7e3f 9ddc 803f
00000080: 68ba 7d3f 867c 7e3f 79a4 803f cb5f 7d3f
00000090: 781c 7f3f feca 803f 6717 7f3f 798c 803f
000000a0: dca5 7f3f f0a2 7e3f 1707 7f3f ea2a 803f
000000b0: 9433 7e3f 532a 7f3f d74d 803f 898e 7e3f
000000c0: ec22 813f 9072 803f cb42 7e3f 0068 7e3f
000000d0: 0f19 813f c160 7e3f 2494 803f e76d 813f
000000e0: a17b 803f af7a 7f3f e04d 7f3f c246 803f
000000f0: 395d 7f3f eb2d 803f d285 803f c88f 803f
1.0120232 0.9889324 0.9977551 0.99523216 1.000246 1.0090144 0.9994611 1.0061406
1.0096102 0.9960328 0.9983573 0.9920739 0.9946038 1.0140227 0.9844289 0.99788207
1.0106308 1.0039161 0.9874344 1.0038294 1.0063578 1.0080416 1.004644 1.0029932
0.99170434 1.0055631 1.001269 0.99793625 1.007156 0.9900479 0.9951433 1.0067326
0.9911256 0.9940876 1.0050193 0.98974293 0.99652815 1.0061948 0.99645084 1.0042869
0.99862456 0.9946737 0.99620193 1.0013096 0.9929745 0.99673957 1.0023755 0.9943624
1.0088782 1.0034962 0.9932067 0.9937744 1.0085772 0.99366385 1.0045209 1.0111665
1.0037729 0.99796575 0.997282 1.0021594 0.9975162 1.0014013 1.0040839 1.0043879

encoder.1.1.bias f4 [64]
00000000: 702d 993b 5080 34bc 4947 173c 375e e4ba
00000010: 5327 1ebb 3505 8bbc f2c8 0f3c 1e43 813b
00000020: a095 aabb 50d7 db3b faee bbba ee35 24bc
00000030: 6994 c2bb 3e5a 223c 4a09 01bc 9d4a b939
00000040: f169 2b3b daf9 eebb e92a 5fbc 7542 863b
00000050: 94c9 09ba b14c 46bc 4b3d 2e3c 1240 463b
00000060: 4587 9cbb 3dad ca3b 63e3 ca3a 0657 38bb
00000070: 08ac 453b f10c 9dbc ac82 a63b 81c1 63bb
00000080: 282c 88bb dac3 ecbb e3c3 3a3b c646 27bc
00000090: b074 dabb 92bf 27bc de3b 9fbc 8501 84b8
000000a0: 7806 433c dbbf 44bb ff45 f73a bab5 1fbc
000000b0: 21c4 dabb 2c26 b13b ac5d 88bb 72c2 493b
000000c0: 104c 24bc 3985 baba 1a2c d7bb 9d6a caba
000000d0: a8bb d7bb 4d9e 12bc a52b b93a 011b a13b
000000e0: 9d3b 023c cf87 023b d94b 58bb 34a6 4bbb
000000f0: 07cb 02bb ca0f 203c 0201 6abc 4a67 833a
0.004674606 -0.01101692 0.009233304 -0.0017423098 -0.0024132326 -0.016970256 0.008775936 0.0039447686
-0.005205825 0.006709017 -0.0014338188 -0.010022623 -0.005938102 0.009909211 -0.00787575 0.0003534154
0.0026155675 -0.007292968 -0.01362107 0.0040972778 -0.0005256173 -0.012103246 0.010634731 0.0030250591
-0.0047768676 0.0061852024 0.0015479143 -0.0028128042 0.0030162353 -0.01917121 0.0050814953 -0.0034752788
-0.0041556545 -0.0072254958 0.0028498105 -0.010209745 -0.0066667423 -0.010238545 -0.019437727 -6.2945335e-05
0.011903398 -0.0030021581 0.0018865465 -0.009747917 -0.0066762124 0.005406162 -0.004161557 0.0030786064
-0.0100279 -0.0014230377 -0.0065665366 -0.001544315 -0.0065836497 -0.008948875 0.0014127387 0.004916549
0.007948783 0.0019917374 -0.0033004193 -0.0031074407 -0.001995744 0.009769389 -0.014282467 0.0010025289

encoder.1.1.running_mean f4 [64]
00000000: 926c 9dbe ae28 27be 9374 36bf 68ae 0ebf
00000010: 44bc 07bf 0579 a63f 7235 58bf d8f4 debe
00000020: bbb0 d13f b960 6abf fa5e 9cbf 2256 c53e
00000030: b5f2 9b3e 30a7 e8bd ba1b 6cbf 5d96 e9bd
00000040: efad ae3d f5c6 0c3f ee1d e3be a5f0 5fbf
00000050: c81c ef3e cac6 0d3e 85bc 07bf 802f 60bf
00000060: 0d39 f53e fd6e f8be 5938 1e3e 9671 ebbe
00000070: 2e39 853d 2c2a 503f 64df 85bf 1bcc 163d
00000080: de3c 333e 8904 1abe 47a1 563f 7502 363f
00000090: a15d 533f 1afb 333f 4985 fc3e 0a47 9c3f
000000a0: 17e1 22bb d89f 643f fc8f 89bf 1c05 c73e
000000b0: 71dc 01be 491b 82bf 465f a3bf 32d8 01bf
000000c0: 2676 303e d044 42bf 9e21 08bf 1237 9ebf
000000d0: d570 60bd 69a2 f73e 9150 403d 5437 6b3e
000000e0: 0275 2fbf cad7 eabe c1e6 60bf 3419 193d
000000f0: a0d2 41bd cac3 29bf 5e04 2c3f 1a60 0abe
-0.30746895 -0.16324112 -0.7127163 -0.5573487 -0.53021646 1.3005682 -0.8445655 -0.43546176
1.6382059 -0.9155384 -1.2216485 0.38542277 0.30458608 -0.113600135 -0.9222981 -0.11405633
0.08529269 0.54991084 -0.44358772 -0.8747657 0.46701646 0.13845363 -0.5302203 -0.8757248
0.4789509 -0.48522177 0.15451182 -0.45985097 0.06505047 0.8131435 -1.0458798 0.036815744
0.17503688 -0.15040793 0.8383984 0.710975 0.8256474 0.70305026 0.49320439 1.2209179
-0.0024853402 0.893064 -1.0747066 0.38871086 -0.12681748 -1.0164577 -1.276345 -0.5072051
0.1723257 -0.7588625 -0.53176296 -1.2360556 -0.054795105 0.48366097 0.046951834 0.22970325
-0.68537915 -0.4586776 -0.878521 0.03737755 -0.04732001 -0.66314375 0.67194164 -0.13513222

encoder.1.1.running_var f4 [64]
00000000: dc6a 863e 2316 b03f cd21 293f 12fa 1d3f
00000010: 5e6b 3e3f 1836 f03e fdc6 2b3f e4f4 e93e
00000020: d2b1 433f b520 913f a584 803f 8d7e 003f
00000030: 6d5a fc3e c882 223e c4fb 063f 3a7a 433f
00000040: a6ed 953e 19f2 7f3e 9864 903e 3ade 2a3f
00000050: e507 463f 0f32 4f3e f249 193e 1a22 653f
00000060: d960 9d3e 8f63 153e 4cab ae3e 32c6 223f
00000070: 1fb5 cf3f a032 973e 92c2 6c3f 8fa7 973e
00000080: 7964 e53e 1c10 7b3e a77e 713e 6716 643f
00000090: 156d f53e a39e a33e b555 443f cc19 1c3f
000000a0: f37b f43d d3b8 1d3f a429 a63f 1cd5 093f
000000b0: 16ad 703f ee58 b53e 8227 ae3f 91fb e93e
000000c0: ee9a 8b3e 50cb cc3e 1b3e d93e 3097 bb3e
000000d0: fac4 3b3e 3765 d03e 1149 9d3e 2619 b43e
000000e0: fc04 c23f 36f3 fd3e 86ce 8d3f f43f f23e
000000f0: ec1e a23e 016f 623f de24 6b3e 6be6 493e
0.26253402 1.3756756 0.660672 0.617097 0.7438258 0.4691627 0.6710051 0.4569465
0.7644321 1.1338106 1.004048 0.501931 0.4928774 0.15870202 0.52727914 0.7635838
0.29282874 0.24994697 0.28201747 0.6674534 0.77355796 0.2023394 0.14969614 0.8950516
0.3073795 0.1458876 0.34115064 0.6358367 1.6227149 0.2953081 0.9248439 0.29620025
0.44803217 0.24517864 0.2358347 0.89096683 0.47934785 0.31956968 0.7669328 0.6097686
0.11937704 0.61610144 1.2981458 0.53840804 0.9401411 0.3541941 1.3605807 0.45699742
0.2726664 0.39998865 0.42430195 0.36638784 0.1833686 0.4070222 0.30719808 0.35175437
1.5157771 0.49599618 1.1078651 0.47314417 0.31664217 0.8845063 0.22963282 0.19716804

encoder.2.0.weight f4 [64, 64, 3, 3]
00000000: 1cb6 023d a077 23bd 274e 0dbd cb5e 4e3d
00000010: c17e 533d 49c0 d73b db6b 103d 1c53 403b
00000020: ef74 443d 4b58 90bc 5f14 61bc b89e 243c
00000030: deaa bebb 5747 243d 4825 9bbb eed6 123d
00000040: c4fd c2bc 2299 92bc 114c cabc c3e7 9c3b
00000050: 8ac6 113d de56 813c 7015 0fbd 85b9 3cbd
00000060: 77a9 803c 0732 b23c ac51 ea3c ed91 f7bc
00000070: 3c79 f8bc d959 e93c 93a2 323d dd6a 453c
00000080: 8261 17bd 8447 4a3d 7c06 b83c 7e6e 92bc
00000090: d880 8cbb 8447 47bb 7822 fd3c 3732 173c
000000a0: 39ad 1a3d 8f80 0d3d 7533 21bd 99e2 68bd
000000b0: 8275 823c d115 b9bc 94cb 803c 2785 b43c
000000c0: db2e 03bc a262 9fbc 8668 2c3d 1406 d3bc
000000d0: c7c5 103d c83a 183d b2ce 123d 65cb 133d
000000e0: c985 febb 757d fc3c a921 1fbd 8060 6dbb
000000f0: c78d b6bc ebb6 f9bc 6db0 903c edd7 b0bc
00000100: 296e 20bc 49e1 1cbd d076 d5bc 24b6 e239
00000110: 0010 df3c 75bc 303c e189 33bc 240c cfbc
00000120: 4cc1 c9bc c190 9ebc e166 093d 48e3 72bc
00000130: 2bd7 b13c 3a38 be3c ba33 03bd eeb4 bbbc
00000140: 5246 20bc 5611 ffbc bb0a 1b3d 1e6e cdbc
00000150: e0d7 1ebd 07b1 fdbc b95b 41bb 8c90 143d
00000160: 3733 19bd 95b8 fa3a 6d1e f2bb 399a 12bc
00000170: 638d 70bb 15fa 7fbc 2556 a13c 9fdf 003c
00000180: a73d 1c3d a8a0 213d 45c7 2f3c cdcc 99bc
00000190: 3324 9c3b be49 e8bc 273f 593c 893f 1d3c
000001a0: 0d41 0dbb 828e 47bd 3ff2 fcbc 9edd 8f3c
000001b0: a288 003d 9a0b adbc 4048 c7bc f564 da3b
000001c0: 98ff cb3c c062 26bc f7cd 32bc 4638 1f3d
000001d0: 80a3 71bc 5b04 503c ebb3 1abc a73b 013d
000001e0: 7995 593c 9eab a43c bc2f 033d a35e 0cbc
000001f0: c9bf 5ebc 3dd3 18bd f72b 263d 9254 f43c
00000200: 205e cfbb 9440 0ebd c3bf 373d c75d 0d3d
00000210: e0bf 0cbd 5ec2 813c fea8 bbb9 7e9e f33c
00000220: 577f 98bb 67dd a8bc 2257 ae3b 75f4 353c
00000230: 3ce9 cebc 9aa4 f13c 95e9 353d df0b 273d
00000240: 06bc 063d 6458 c1bc e13d 483c 8b0c c4bb
00000250: fe27 183c 2708 b9bc 6778 80bc 196b 0dbd
00000260: f6dd 31ba c9d5 063b 479b 103d 2e9d 2e3c
00000270: 859c 003d 1b39 2ebc dfbc 413b 730a 1abb
00000280: cb8a 0d3c 495e 7cbc 84b6 063d 3d6c 473d
00000290: 29a9 a33c cf57 aa3c ca04 583c f31c 94bc
000002a0: 0785 d7bc b5d8 6bbc 4a15 4ebc 12ef 37bd
000002b0: a820 2b39 3a81 1ebc de8a 4e3b fa89 7d3c
000002c0: e027 03bd 9c4e ddbc 0575 0ebd 9dcb 4fbc
000002d0: 702b 82bc cc67 a93c 483d 33bb fe18 c4bc
000002e0: 7906 ab3b 9f1b f6bb 01df 61bc a864 6c3c
000002f0: af56 c7ba acf4 d03a c332 e73c 2de9 e03c
00000300: 9c67 e0bc 0628 43bc e853 ddbc 1851 9f3c
00000310: a643 dbbb ea85 c9bb be86 07bc 8feb ba3c
00000320: 7ceb dcbc 3ecd f2bc a2e4 0e3d 707b a53c
00000330: 65ea 283c 808f b6bc 7d05 173c 3627 a33c
00000340: 0abd d2bc 52e9 8abc 3924 c2bc 20ac 2bbb
00000350: 0aaa 9e3b 48de 9e3c f25c bbbc 315b 13bd
00000360: 8272 05ba cb95 29bd 7f73 5f3c 4012 0cbd
00000370: e07f 2cbd de96 8cbc 70cb 753c 4dd5 11bd
00000380: be4b 2fbc df94 99bc 2d5d e5bc bb09 24bd
00000390: d519 1a3d 39a0 5bbc d18f febc 9bb8 cbbc
000003a0: 22bf 643d e79d e23b 68ed e0bb 7e9e ff3c
000003b0: 8834 d93c dece 44bc fda8 f73c 38bf 12bc
000003c0: 76ed 073d 189f fbbc 398a 4c3c 12c0 1ebd
000003d0: 09bf 9cbc 023e b6bb 43c6 a6bc c2c6 293c
000003e0: 1fd1 3d3b 69fd 453d 8634 7f3c bb37 0e3d
000003f0: cefb e13c 1cc8 d83c 69ba c53c 0a0a 8f3c
0.031911954 -0.039909005 -0.03449836 0.05038337 0.051634554 0.0065842015 0.03525911 0.0029346412
0.04796308 -0.017620226 -0.013737767 0.010047607 -0.005818709 0.040107097 -0.004734669 0.035849504
-0.023802646 -0.017895285 -0.024694474 0.0047883703 0.035589732 0.015788492 -0.034932554 -0.046075363
0.015705807 0.02175237 0.028603397 -0.03022095 -0.030331247 0.028485226 0.043612074 0.012049404
-0.036958225 0.04938461 0.02246403 -0.017874952 -0.0042878203 -0.0030407617 0.030900225 0.009228281
0.037762854 0.03454643 -0.039355714 -0.056856725 0.015925173 -0.02259341 0.015722074 0.022036148
-0.008006777 -0.019456211 0.04209187 -0.025759734 0.035344865 0.037165433 0.03584165 0.036082644
-0.0077674133 0.030821541 -0.03885046 -0.0036220849 -0.022284402 -0.03048273 0.017662251 -0.021587336
-0.009791889 -0.038300786 -0.02605763 0.00043241784 0.02722931 0.010787119 -0.010958166 -0.025274344
-0.024628304 -0.019356133 0.03354538 -0.014824696 0.021709045 0.02322017 -0.032031752 -0.022913422
-0.009782391 -0.031136196 0.03785203 -0.025076922 -0.038780093 -0.030968202 -0.0029504134 0.036270663
-0.037402358 0.0019128496 -0.007388881 -0.008947902 -0.0036705367 -0.015623589 0.019694397 0.007865815
0.038144734 0.039459854 0.010728662 -0.018774414 0.0047650575 -0.028355476 0.013259686 0.0095976675
-0.0021553666 -0.04871989 -0.03087723 0.01756173 0.031380303 -0.021123696 -0.024326444 0.006664867
0.02490215 -0.01015538 -0.010913364 0.038872026 -0.014748454 0.012696351 -0.00944231 0.03155103
0.013280266 0.020101365 0.032027945 -0.008567485 -0.01359553 -0.037310828 0.040569272 0.029825483
-0.0063283592 -0.034729555 0.044860613 0.03451326 -0.034362674 0.015839752 -0.00035793328 0.02973866
-0.004653852 -0.020613385 0.0053204456 0.011105646 -0.0252577 0.029497433 0.044412214 0.040782806
0.032894157 -0.023601718 0.012221784 -0.0059829406 0.009286879 -0.022586895 -0.015682412 -0.034525964
-0.0006785089 0.0020574203 0.035304334 0.010657592 0.03139927 -0.010633732 0.0029562039 -0.0023504763
0.008639048 -0.015403339 0.032888904 0.04868721 0.019978123 0.020793824 0.013184736 -0.01808021
-0.02630855 -0.014394929 -0.012578318 -0.04490573 0.00016319996 -0.009674365 0.0031515877 0.015474791
-0.03202045 -0.027015023 -0.034779567 -0.0126828225 -0.015889853 0.020679377 -0.002734976 -0.023937698
0.0052192775 -0.007510617 -0.013786078 0.014428295 -0.0015208329 0.0015942059 0.028222447 0.027454937
-0.027393155 -0.011911398 -0.027017549 0.019447848 -0.006691414 -0.006149997 -0.008271871 0.022817401
-0.026967756 -0.029638883 0.03488601 0.020200461 0.01030979 -0.022285223 0.009217617 0.019916158
-0.025724906 -0.016956959 -0.023698913 -0.0026195124 0.0048420476 0.019393101 -0.022871468 -0.03597564
-0.00050906104 -0.04140262 0.013638376 -0.034197092 -0.04211414 -0.017161783 0.015002117 -0.03560381
-0.010699211 -0.018747745 -0.027998531 -0.040048342 0.03762229 -0.013404899 -0.031074436 -0.0248683
0.05584634 0.006915796 -0.0068642385 0.031203505 0.026514307 -0.012012212 0.030231947 -0.008956723
0.033185445 -0.03071551 0.012484127 -0.03875739 -0.019134061 -0.005561591 -0.02035821 0.010362329
0.0028963757 0.048337374 0.015576487 0.034721117 0.02758589 0.026462607 0.024136739 0.017460842

encoder.2.0.bias f4 [64]
00000000: c602 9f3c 0c10 553a 47e4 623c 19bb a03b
00000010: eb98 8c3c 408b 333d d679 d0bc 22dc 0e3d
00000020: 9feb e6bc e93a 253d 6c8a b3bc b713 3d3c
00000030: 7520 3c3c be44 073d 5681 1a3d 9c6d 093c
00000040: f766 333c de0e b8bc 5168 053d 1890 99bc
00000050: 1961 9a3c f69b 0abb 73a9 e63c 5ea8 f93b
00000060: 931f d7bc a6bf b4bc 1c0b cc3b 9b25 c0bc
00000070: 48bd dfbc c154 1e3c aec0 e93c 15b9 f0bc
00000080: 55d5 89bc 6d65 6ebc 08bd f43c 5875 513c
00000090: 38ed 3abd 4b2a 17bd c15a 1d3d ed3f e93c
000000a0: a499 99bc 0df0 1bbd 9fb5 2cbb d518 0ebd
000000b0: 2a72 d93c f43f 04bd 8900 d93c 12fb d03a
000000c0: 5f89 d13b d0bb 55bc 4cda 803c 188f 29bd
000000d0: 9151 acbc dcbd 6ebc 286a 203d 1146 033d
000000e0: eb09 13bd 2f5e d33c c8fc 9fbc 0329 cabc
000000f0: fb14 093d c8bd d83c 0a7a 04bd 7187 1f3d
0.019410502 0.00081276963 0.013848371 0.0049051163 0.01716276 0.04383397 -0.02544872 0.034877904
-0.028188525 0.040339384 -0.02191659 0.011540345 0.011482348 0.033024542 0.037721 0.008387949
0.010949842 -0.022468027 0.032570187 -0.018745467 0.018845128 -0.002115009 0.028156972 0.007618948
-0.026260173 -0.022064041 0.0062269103 -0.023455432 -0.027311936 0.009663762 0.02853426 -0.029385129
-0.016825357 -0.014550549 0.029875293 0.012784325 -0.045636386 -0.036905568 0.038416628 0.028472865
-0.01875002 -0.038070727 -0.0026353372 -0.03469165 0.026543695 -0.032287553 0.026489513 0.0015943965
0.0063945497 -0.013045266 0.015729092 -0.04139623 -0.021034988 -0.014571633 0.03916374 0.032049242
-0.03589813 0.025801746 -0.019529715 -0.024677759 0.033467274 0.026457682 -0.032342948 0.038947526

encoder.2.1.weight f4 [64]
00000000: 6856 813f d20f 803f aa9c 803f 5fcc 803f
00000010: d1e7 7e3f 0cb7 803f 37eb 803f d39d 7e3f
00000020: 263d 803f 8c55 813f 721f 7e3f b128 813f
00000030: 270c 813f 045c 813f b9eb 7f3f b5f3 7e3f
00000040: 1cd4 7e3f b73a 7e3f 7ba3 7e3f 2fc3 7e3f
00000050: 6553 803f 6927 7f3f 6ca4 7e3f ee6e 803f
00000060: 7adc 7e3f 3ed6 7e3f 80f8 803f 925f 813f
00000070: 389f 803f e9d3 7d3f 8d05 7e3f 3d6f 7f3f
00000080: 4d65 803f b157 803f d24c 7d3f 8dbb 7e3f
00000090: 716c 7e3f a184 803f 9ded 803f 7237 7f3f
000000a0: feb7 7e3f 9074 803f 9009 813f 53b7 7f3f
000000b0: 4c9b 813f bcb2 7e3f 35c1 7e3f 567f 7f3f
000000c0: 7ca5 803f bbcf 7d3f 86ca 7d3f d611 7e3f
000000d0: 965c 803f 3a41 803f b33e 813f a5cf 803f
000000e0: d128 803f 5b5b 7f3f 471b 7f3f cdc5 803f
000000f0: 1e72 7f3f d69c 7f3f 1eba 803f 3c37 813f
1.0104494 1.0004828 1.004781 1.0062369 0.99572474 1.0055861 1.0071782 0.9945957
1.0018661 1.0104232 0.9926673 1.0090543 1.0081834 1.0106206 0.9996906 0.9959062
0.99542403 0.9930834 0.994682 0.99516577 1.002545 0.9966951 0.9946964 1.0033853
0.9955517 0.9954566 1.0075836 1.0107291 1.004859 0.99151474 0.9922722 0.9977911
1.0030915 1.0026761 0.98945343 0.9950493 0.9938422 1.0040475 1.0072514 0.9969398
0.994995 1.0035572 1.0081043 0.99889106 1.0125518 0.99491477 0.9951356 0.99803674
1.0050502 0.99145097 0.9913715 0.99245965 1.0028255 1.0019906 1.0097259 1.0063368
1.0012456 0.9974877 0.99650997 1.0060364 0.99783504 0.9984869 1.0056798 1.0094981

encoder.2.1.bias f4 [64]
00000000: 3094 21b7 22d9 c9bb 327b 64bc a903 ab3a
00000010: e3e7 6e3c 4874 4d38 e0fc 8a3c 2f37 063c
00000020: 53b7 a13b 2aac 56b9 9d81 c7bb e522 15bc
00000030: 9d0a aa3b 15e0 8cbc ecad 2dbc 7eb3 ef3b
00000040: 6f8e 843c 0050 4cbb c444 b63a 8972 97bb
00000050: f1a5 7e3c e747 4dba c39f 8bbc 6af9 453c
00000060: c807 23bc 78e1 8dbc 3b63 8b3c b32a fb3b
00000070: 8e1c 733a f640 31bc a4e9 1e39 a63b c43b
00000080: 326d 353a d7cf 3e3c 7e4b 34bb c404 68bb
00000090: 837d 34bc e5cd 8e3c b416 c83b a508 7a3c
000000a0: 63fe 2fbb 86c0 bb3b e6ce 2d3c 077d 69bc
000000b0: 32ed 4bbc 2a18 4d3c 9f06 ee3b a232 893c
000000c0: 2142 303c 0468 12bc 58ab 183c ef15 b1bb
000000d0: 478c c9bb 598c 4e3c 9726 8cbc aa89 4fb8
000000e0: ee5c fcbb 9fdf 83ba 8467 703c dfe7 223b
000000f0: 081f 0a3c 8478 403c 7e64 9ab9 a99c e1ba
-9.63085e-06 -0.0061599175 -0.013945388 0.0013047355 0.014581653 4.8984104e-05 0.016966283 0.008191868
0.004935184 -0.00020472766 -0.006088449 -0.009102558 0.0051892535 -0.017196694 -0.010600548 0.0073150983
0.016181199 -0.0031175613 0.0013905992 -0.004621808 0.015542493 -0.00078308437 -0.017043954 0.012083391
-0.009950586 -0.017319426 0.01701509 0.0076650023 0.00092739693 -0.010818711 0.00015155092 0.005988556
0.00069208734 0.011646233 -0.0027510817 -0.003540323 -0.011016252 0.017432163 0.006106222 0.01526085
-0.0026854507 0.0057297377 0.01060841 -0.014251 -0.0124466885 0.012517968 0.007263973 0.016747776
0.010757954 -0.008935932 0.009318195 -0.005404226 -0.0061507556 0.012606704 -0.017108245 -4.9480856e-05
-0.007701508 -0.0010061151 0.014673118 0.0024857444 0.00843025 0.011747483 -0.00029448041 -0.0017212826

encoder.2.1.running_mean f4 [64]
00000000: 964e 863e 7b10 493f 1e95 ab3f 4c3f 383f
00000010: 3782 20bf dd5b 0f3f 92eb 52be 2ac4 c6be
00000020: a03a 52bf dbfa 473f 643e 3abf 61a7 543f
00000030: eb2d 43bf 8a1e 4a3f a195 383e e853 50bf
00000040: 0ad6 22bf 2692 2ebe cfd7 92be 8aa1 433d
00000050: 1541 87be cddc c2be 5232 863f 9733 a1bf
00000060: b9d6 1f3f dae9 c93e 5dfe 00be d98d f13d
00000070: 68c5 2dbe 8dae 83bf adfe c2bf da5c a5be
00000080: 8008 193f 5e58 b4bf bea5 28bf 5702 3abe
00000090: 87cf 833f 8072 35bf 421b 113f 1463 8fbe
000000a0: 7455 c7bf e330 09be 6c3d dd3e b145 263f
000000b0: 46cf 5f3f b71f 6dbf 7807 303e cb35 83bf
000000c0: f8be 4cbf 796c 77bd fe09 b6bf 34b8 7cbd
000000d0: f983 943f 639a 17be 4934 a03f 36aa 673f
000000e0: b28c 133f f52d 3ebf e3cb bfbe 2580 5b3f
000000f0: 2207 b4be b399 92bf 3895 84bd 8838 573f
0.2623183 0.7854077 1.3404882 0.71971583 -0.6269869 0.5599955 -0.20597675 -0.38821536
-0.82120705 0.7811715 -0.7275145 0.830679 -0.7624194 0.7895285 0.18025829 -0.8137803
-0.6360785 -0.17047939 -0.28680274 0.047761478 -0.2641684 -0.38059083 1.0484107 -1.2593869
0.62437016 0.39436227 -0.12597032 0.117946334 -0.16969836 -1.0287644 -1.5233971 -0.32297403
0.59778595 -1.4089468 -0.658779 -0.18164955 1.0297707 -0.7087784 0.5668222 -0.28005278
-1.5572953 -0.13397555 0.43210924 0.6495009 0.8742565 -0.9262652 0.17190349 -1.0250791
-0.79978895 -0.060406182 -1.4221799 -0.061699107 1.1602775 -0.14804988 1.2515956 0.90494096
0.5763656 -0.74288875 -0.3746024 0.8574241 -0.35161692 -1.1453155 -0.06473774 0.84070635

encoder.2.1.running_var f4 [64]
00000000: 4d3b 6f3e afff 0d3f 386d 6f3f 6a22 883e
00000010: d6ec b33f 275a eb3e bb27 913e 9655 7f3e
00000020: 6106 213f 7cc2 913f 14b7 b03e fc04 923f
00000030: badb ae3e 870c 513f f836 6b3e 58c7 f93e
00000040: e363 003f 78ed 9a3e e8fc bc3e 8f77 413e
00000050: e453 5e3e 6327 a33e 7fd9 403f 0b50 643f
00000060: abbc 9a3e ff05 973f f594 8e3e 0447 153e
00000070: af58 8c3e b0d3 6c3f fbac a23f e47d 6b3e
00000080: 1368 fe3e 639c 173f 6b47 1d3f 0916 0d3f
00000090: 6cb3 dc3e fba9 383f 701f 363e efc0 b73e
000000a0: 4416 9f3f 9dd2 1e3e 21f5 6b3e 206c d63e
000000b0: 3e5a b13e f14c 413f 365a 213f 6757 033f
000000c0: 007d d43e d5bc 633e cb53 6b3f 3fdf 0d3f
000000d0: e727 e83e 464c 463f 3ada 123f 43db c03e
000000e0: 382b 9b3e a55d c43e e1d4 ee3e 8e4f 9f3e
000000f0: b8b8 613e 9f7d e93e de19 ae3e c159 a23e
0.23362465 0.5546827 0.9352603 0.26588756 1.4056652 0.45967218 0.28350624 0.24934992
0.6290036 1.1387477 0.34514678 1.1407771 0.34152013 0.8165974 0.22970188 0.487849
0.50152415 0.302593 0.36911702 0.18893264 0.21711689 0.31865987 0.7533187 0.89184636
0.30222067 1.1798705 0.2784802 0.14577872 0.2741141 0.9251051 1.270904 0.22997242
0.49688777 0.59223 0.614371 0.5511175 0.43105638 0.7213437 0.1778543 0.35889384
1.242867 0.1551003 0.23042728 0.41879368 0.34639162 0.7550803 0.63028276 0.5130524
0.41501617 0.22240002 0.9192473 0.5541877 0.45342943 0.77460134 0.5736424 0.37667283
0.3030641 0.38352695 0.4664679 0.31115383 0.22043121 0.45603654 0.3400411 0.31709102

encoder.3.0.weight f4 [64, 64, 3, 3]
00000000: 9157 963c bb1f dfbc 7a5a 60bc f18f 463c
00000010: 30c9 1cbd 3929 6fbc a160 f23b ba87 7dbc
00000020: 7d3f 8a3c 047e 2f3d 190c 66bc 1209 eb3c
00000030: 77ce 1a3d 796a efbc f951 2f3c a171 a63c
00000040: 5374 a13c 2daf b93b 22e9 e93b 7cd6 b639
00000050: cc33 e13c 90e7 1c3d f661 893b e0ea 483c
00000060: f21a 413b 1c40 74bc be78 46bd d6aa 20bd
00000070: fed8 4c3c db55 6d3c f883 56bd 0eb5 34bd
00000080: b77d 96bc 6504 1cbd 026a 20bd c6bf f23c
00000090: 2339 e8bc 0617 1c3d b040 5fbc 97a2 fc3c
000000a0: 5837 33ba 5c34 a53c 2e12 07bd 0086 76bc
000000b0: fc6b 18bc 096a a9ba ad3c 323d 811a 233d
000000c0: 90fd 5fbb 36a8 0d3c a218 15bd 5b1c 353d
000000d0: 476d ac3c b021 d53c 6c63 fabc 215a 0b3d
000000e0: c13c 0c3d 79bc 2c3d 01bc 0dbd cf6e b5bc
000000f0: 6e5a 8b3c 4070 ffbc 38b1 a03b 1259 c1bc
00000100: ae2d 7e3b 341f 4dbd 726e 033d f654 85bc
00000110: b571 5bbc 50d1 87bc eedc 073d c44b 46bd
00000120: f3ed bc3c 3fa3 033d 6cb8 91bc a6ba 30bd
00000130: 43f2 fbbc e567 26bd ddcb 43bc 777e 45bd
00000140: ec5d fbbc a6e6 9dbc 2b6d db3a cbf2 033d
00000150: 6129 bbbc 460c 5dbc e521 19bd 3f91 a43c
00000160: 575e 703b 2cc1 00bd 081f ba3c f53a a03c
00000170: 112b c2bc 5dfd d7bc 7795 25bd c9cb 90bc
00000180: bcde 883c 8312 0fbd c220 4ebb 9abb 7abb
00000190: 516f c6bc b2dc 06bc 78ec ecbc 7285 22b7
000001a0: 635d 2dbc 4d3b 533c 2f3c 693b 4fc3 2ebd
000001b0: e89e c5bc 14af d9bc d689 ac3b f8c2 31bd
000001c0: 1f22 1fbd 1f13 f63b dc15 083d e8c5 84bc
000001d0: 1c99 c1bc f849 e83c 1901 043d d63d 1ebc
000001e0: 0f69 83bb 28e2 38bd 3bbc ee3c f390 cd3c
000001f0: d873 9b3b 24b9 40bd b50f b0bc 08fd a83c
00000200: 5590 61bc e38e edbc 4e96 a33b 2696 00bd
00000210: 0534 18bd 227e 1fbb 8184 9abc aef1 fe3c
00000220: be64 ff3c 4fc6 09bb 8f39 9fbc 13ed f43b
00000230: e5ae a6bc 638a c13c d7e1 d73c d21a 303c
00000240: 4269 723c 2448 abbc 334a acbc 1976 253d
00000250: 776b c439 52ca dfbb c5be d5bb 2589 2d3d
00000260: 46a3 ea3c 5d0d 9abc 1456 69bc bd95 673c
00000270: b1e3 043c 521c 1bbd 4fad 49bd 6683 ab3c
00000280: dc0d 1dbd 4782 1a3c 819a 0dbd 4b19 8f3c
00000290: 91eb 11bd 218f 26bd ad49 8ebb d784 43bd
000002a0: 75ed 8e3c 250c 3abd ff9b 0cbd 5289 fa3b
000002b0: 7378 c63b e826 133c 4ff3 03bc ab63 223c
000002c0: f3a6 003c d5ec 53bd e1df 853c c48c 47ba
000002d0: 97d1 1e3c a105 483b a72d cd3c 48c3 f63c
000002e0: 0470 103d 2be7 46bc d9d4 f93c e4e9 42bd
000002f0: 4e59 8cbc ca47 95bb ec8b 103b 58ff 8d3c
00000300: 9fc3 f2bc bb91 083d 6ee5 373a 9ee9 21bd
00000310: fae5 d0ba bb04 aebb 2421 97bb 08b7 cebc
00000320: 8cab 3336 88de fa3c 7efd b0bb 73c6 c3bc
00000330: 840f cabc f07e 9db9 4dbb 8ebb baae 12bd
00000340: 756c 02bd a0c6 3abd 0861 dd3a 21ba 963c
00000350: 0e3a 8e3c 7dd8 b8bc 275b df3a 02c0 7c3c
00000360: 7086 2cbd cfa8 a53c 91af 093c bc0a af3c
00000370: c70f 91bc 9eac 353b 3cae 0b3d 07d4 cb3c
00000380: 46bb 49bc f9c4 d0bb cba7 f33c aba2 f93c
00000390: 6cab de3c a0c7 0b3d f06b 21bd 4d5c 1f3d
000003a0: 9eb5 b0bc 0409 febc a3dd 58bc ba48 b63c
000003b0: 2ee8 99bc aa39 dc3c 52b3 463c 99ea 5cbc
000003c0: 6dcc 04bd 753c 32bc 5dfd a9bc 5dcc 60bc
000003d0: fdab a4bc 6e0f 533c 5e39 203d e867 b7bc
000003e0: dc43 ee3c 55cc fb3c db03 0a3d 53fa d5bc
000003f0: bbe3 083d 7eda 163d 67d1 3d3b 3d53 1ebd
0.018352302 -0.02723681 -0.013693446 0.012119279 -0.038277805 -0.014597231 0.007396773 -0.015474254
0.016875977 0.042844787 -0.01404097 0.028690848 0.037794556 -0.029225575 0.010700696 0.020317854
0.019708788 0.0056666345 0.0071383873 0.00034873548 0.027490519 0.038306773 0.004192586 0.01226303
0.0029465524 -0.014907863 -0.048454992 -0.03922542 0.012502907 0.014485802 -0.05237195 -0.04411798
-0.018370492 -0.03809013 -0.039163597 0.02963246 -0.028347557 0.038107894 -0.013626263 0.030839248
-0.0006836555 0.020166568 -0.032976322 -0.0150465965 -0.009303089 -0.0012925278 0.043514896 0.039820198
-0.0034178235 0.008646062 -0.036400445 0.044216495 0.021048201 0.02601704 -0.030564986 0.0340215
0.034237627 0.04217193 -0.034603123 -0.022147564 0.017010894 -0.031181455 0.0049039386 -0.023602042
0.0038784551 -0.050078586 0.03208775 -0.016275864 -0.013393809 -0.0165793 0.03316968 -0.0484121
0.023062682 0.032138105 -0.017788135 -0.04314675 -0.030755168 -0.040626425 -0.01195046 -0.04821631
-0.030684434 -0.01927502 0.0016740909 0.032213967 -0.02284688 -0.013491696 -0.03738584 0.02008879
0.0036677325 -0.031434223 0.022719875 0.019559363 -0.023702176 -0.02636593 -0.040425744 -0.017675297
0.01670777 -0.034929764 -0.003145263 -0.0038258792 -0.024223002 -0.008231329 -0.02892135 -9.687023e-06
-0.010581347 0.012892556 0.003558885 -0.04266673 -0.024123624 -0.026572742 0.0052654548 -0.043398827
-0.0388509 0.0075096036 0.03322397 -0.01620765 -0.023632579 0.028355584 0.03222761 -0.0096582975
-0.0040103267 -0.045137554 0.02914249 0.025093531 0.0047440343 -0.047051564 -0.021491865 0.020628467
-0.013767322 -0.028998798 0.004992283 -0.031393193 -0.037158985 -0.0024336656 -0.01886201 0.031121101
0.031175967 -0.0021022742 -0.019436626 0.0074745505 -0.020347068 0.023625558 0.026352806 0.010748582
0.014795603 -0.020908423 -0.021031475 0.04039583 0.000374641 -0.0068295384 -0.0065229856 0.04236712
0.028642308 -0.0188052 -0.014241714 0.0141348215 0.0081109265 -0.037868805 -0.049237546 0.02093668
-0.038343295 0.009430475 -0.034571175 0.017468115 -0.035625044 -0.040663842 -0.004342279 -0.047734108
0.017447213 -0.04542174 -0.034328457 0.0076457644 0.006056839 0.008981444 -0.008053615 0.009911458
0.007852304 -0.051739533 0.016342105 -0.0007612223 0.009693525 0.0030520933 0.025046183 0.030122414
0.035263076 -0.012140076 0.030497001 -0.047586337 -0.017132428 -0.004555677 0.0022056056 0.017333671
-0.029634295 0.033342104 0.00070150837 -0.039529435 -0.0015937679 -0.0053106225 -0.004612105 -0.02523376
2.6772932e-06 0.03062369 -0.0054013124 -0.023898339 -0.024665602 -0.0003003995 -0.004355824 -0.035811163
-0.031841714 -0.04559958 0.001688988 0.0183993 0.017361667 -0.022564167 0.0017040715 0.015426638
-0.042120397 0.020222096 0.008403675 0.021367423 -0.017707719 0.0027721296 0.03410171 0.024881376
-0.012312716 -0.006371137 0.029743096 0.030473074 0.02718135 0.034125924 -0.039409578 0.038906384
-0.021570977 -0.031010158 -0.013236436 0.022251476 -0.01878747 0.026882965 0.012127714 -0.013483667
-0.032421518 -0.010878672 -0.020750696 -0.013720599 -0.020101542 0.012882097 0.03911721 -0.022388414
0.029085092 0.030737082 0.033695083 -0.02612034 0.033420306 0.036829464 0.0028963925 -0.0386536

encoder.3.0.bias f4 [64]
00000000: 5b8d 0ebc b145 803b afb5 5d3c 8e05 9a3c
00000010: dad6 babb 6859 2bbc 7fba 0ebd 40dd 12bd
00000020: 704d 5bbb 6c88 603d e0b6 a5bc 1c8e 13bd
00000030: 69fc 023d 2e66 4f3d 6a96 a0bc 0099 77bc
00000040: 836c 0a3c 1e51 16bd a285 abbc 3b4d e73c
00000050: db38 903c 1e58 223d d28f 193d 50e7 e53a
00000060: 0e8c d4bb b57e 91bc b928 feba fbbb b53c
00000070: 891f e6bc 5950 92bc f0f7 ab3c 2734 49bc
00000080: c1e6 9b3c e4fd f9bc 50b4 413b 7347 103d
00000090: 158a a7bc 6448 89bc dabc 05bb 4aa1 4b3c
000000a0: 2ffc 243d 3f86 283a 2bb1 78bc 64a0 70bb
000000b0: f46d 25bd fdda d93c 76e3 bc3c f8ee 01bd
000000c0: 4005 cc3b afa4 763c b4ab e03c 4a8e 5c3c
000000d0: b08c 31bc a88d 90ba a1f7 87bc e578 1abd
000000e0: 9682 c33c e2c6 0cbd 04e5 2839 33c6 a5bc
000000f0: a193 a33c 6b15 abbc 537b bdbc bc06 33bd
-0.008700694 0.003914558 0.013532086 0.018801477 -0.005701882 -0.010458328 -0.034845825 -0.03585553
-0.0033462904 0.054817602 -0.020228803 -0.036024198 0.031979 0.050634556 -0.019602973 -0.015112162
0.008448723 -0.036698453 -0.020937745 0.028235069 0.017605236 0.039634816 0.037490673 0.001754025
-0.0064864224 -0.017760614 -0.0019390798 0.022184363 -0.028091209 -0.017860578 0.02099225 -0.0122805005
0.01903093 -0.030516572 0.0029556938 0.03522439 -0.020451585 -0.016758151 -0.0020406754 0.012428591
0.040279564 0.00064286956 -0.015178959 -0.0036716694 -0.040388063 0.02659368 0.02305768 -0.03172204
0.006226212 0.015053912 0.027425624 0.013461659 -0.010836765 -0.0011028545 -0.01659757 -0.03771295
0.02386598 -0.034369357 0.00016107043 -0.02023611 0.019967856 -0.020884236 -0.023130095 -0.043707594
