models/UTK_best_model.pth (torch_old, 459108 bytes, 24 tensors)

encoder.0.0.weight f4 [64, 3, 3, 3]
0.1625245 0.1763454 -0.031858932 0.18969296 -0.030163666 0.05195373 -0.087156765 0.11746071
0.16655228 -0.14111927 0.16733605 0.03610971 0.14077641 0.024596889 0.09415082 -0.030135207
0.14390682 0.02217114 -0.08538075 0.05315079 -0.08471949 -0.018538041 -0.074627705 0.13241237
-0.14757872 -0.08521045 -0.051677812 -0.11739559 0.02068935 -0.18743305 0.17090556 -0.1607978
0.14898798 0.03058884 -0.05873846 0.12194214 0.01905615 0.15238923 0.020745736 -0.06649195
0.05478237 -0.052165776 0.07879416 0.17974748 0.112910815 -0.09502746 0.10559565 0.0289618
0.08934867 -0.120102905 -0.19540715 -0.080227934 -0.14801405 0.15419357 0.05506414 0.080543466
0.061148215 -0.0019506894 0.15169512 -0.13705936 0.010680441 -0.1317597 0.0600449 -0.06539259
0.062185243 -0.035555754 0.16219383 -0.1111389 -0.11190519 -0.11472551 0.17507802 0.0685427
0.18650375 -0.15652315 -0.18541536 -0.14675818 -0.12542674 0.08515981 0.07568881 0.1678986
-0.088289954 -0.12456045 0.10755069 -0.07534913 0.12117052 -0.043110255 0.115062974 -0.14451982
-0.09277377 0.0636579 0.045164626 -0.04744393 0.11268272 0.13242528 -0.1438453 -0.10533369
0.17764604 -0.069236316 -0.071671575 -0.16674519 -0.10135152 0.044151723 -0.009710787 -0.14808598
0.00022321648 -0.123244666 -0.17715287 -0.11260587 -0.16096528 -0.11262481 0.19875565 0.045262203
0.06562191 -0.18156378 -0.12486733 -0.0671643 0.026862549 -0.17152664 -0.07257049 -0.10567039
0.0016373581 -0.06292052 -0.014634063 -0.1299198 -0.1328809 -0.114287265 -0.066698745 -0.14523552
0.16800423 -0.03965827 0.1690696 0.05790622 -0.16161491 0.13545664 -0.05416382 -0.0746354
-0.16256937 -0.19482037 0.054670267 -0.043031223 0.07400027 -0.15694992 0.14300701 -0.14191729
-0.03296686 0.038395103 0.09685918 0.15578826 0.1746472 -0.15332782 0.051140353 -0.08091101
-0.020567676 -0.14515437 0.1720789 -0.14450756 0.10192231 0.06553023 0.059789885 -0.10312734
0.1748403 0.040608857 0.030543616 -0.16655804 0.08324471 -0.021400707 -0.08263373 0.16802558
0.049269278 -0.102593996 -0.096412696 -0.0015645612 0.115213975 -0.043929275 -0.101906955 -0.058809273
-0.1406966 0.075495794 0.1527725 -0.1822404 0.049246706 0.10278613 0.036542185 -0.0643494
0.10264686 0.10001034 0.07551508 -0.03316579 -0.05520249 0.015240665 -0.037263628 -0.062023323
0.11783712 0.1646361 -0.020987222 -0.050171312 -0.0009025069 -0.014628739 0.048570734 0.058987387
-0.16899745 -0.06602413 0.17232782 0.084552564 -0.0069145327 -0.10901685 -0.10938829 -0.16579384
-0.0527794 0.07714061 0.1273846 0.097797625 -0.15887535 -0.113391854 -0.023076786 0.19587328
0.033736214 -0.043964196 0.08603845 -0.067694575 -0.12326568 0.14066775 -0.08579576 -0.03476445
-0.18895882 0.13506891 0.14998633 0.07389272 -0.12761238 -0.19022332 -0.15829423 0.14649275
0.09535676 0.16202664 0.10945049 0.0568419 0.0057149935 -0.13471782 -0.15886112 -0.17882675
0.08433294 -0.088076316 -0.036984168 -0.10399661 -0.0034444386 -0.11293571 -0.118441276 0.0783567
-0.050912976 0.13170613 -0.04670794 -0.13224667 -0.030492308 -0.080291785 -0.058846917 -0.18138018
00000000: d36c 263e e393 343e 837e 02bd df3e 423e
00000010: cb19 f7bc 6fcd 543d 3f7f b2bd 3e8f f03d
00000020: ae8c 2a3e 9281 10be 245a 2b3e c6e7 133d
00000030: b127 103e 6a7f c93c 25d2 c03d 1cde f6bc
00000040: 4f5c 133e 40a0 b53c 1adc aebd a5b4 593d
00000050: 6981 adbd 17dd 97bc 69d6 98bd 1c97 073e
00000060: e01e 17be d182 aebd 1dac 53bd 196d f0bd
00000070: b67c a93c 73ee 3fbe de01 2f3e 2ea8 24be
00000080: 4e90 183e 7295 fa3c bd97 70bd cdbc f93d
00000090: a51b 9c3c ec0b 1c3e f6f2 a93c ee2c 88bd
000000a0: 7a63 603d c8ab 55bd d55e a13d b90f 383e
000000b0: c93d e73d c29d c2bd 8842 d83d 4c41 ed3c
000000c0: 6ffc b63d 83f8 f5bd d018 48be 8b4e a4bd
000000d0: ff90 17be ebe4 1d3e f08a 613d f9f3 a43d
000000e0: 8d76 7a3d 46ae ffba f755 1b3e 4a59 0cbe
000000f0: 04fd 2e3c 04ec 06be a4f1 753d 8dec 85bd
00000100: f4b5 7e3d e9a2 11bd 2416 263e cb9c e3bd
00000110: 8c2e e5bd 35f5 eabd a747 333e 1d60 8c3d
00000120: d7fa 3e3e 9b47 20be 86dd 3dbe c747 16be
00000130: de6f 00be 4468 ae3d bc02 9b3d 9ced 2b3e
00000140: 5dd1 b4bd 8d19 ffbd 8943 dc3d a550 9abd
00000150: 4028 f83d 6194 30bd 23a6 eb3d 01fd 13be
00000160: 2d00 bebd 135f 823d 8bfe 383d 9154 42bd
00000170: 33c6 e63d 7e9a 073e 2f4c 13be 31b9 d7bd
00000180: d8e8 353e c5cb 8dbd 8cc8 92bd 40bf 2abe
00000190: 6391 cfbd 70d8 343d fe19 1fbc daa3 17be
000001a0: 380f 6a39 b367 fcbd 9067 35be e89d e6bd
000001b0: 15d4 24be d6a7 e6bd 9a86 4b3e dc64 393d
000001c0: c864 863d dbeb 39be 71ba ffbd 708d 89bd
000001d0: d90e dc3c aea4 2fbe d69f 94bd b869 d8bd
000001e0: 9f9c d63a 79dc 80bd b5c3 6fbc b209 05be
000001f0: ee11 08be 710f eabd 5a99 88bd 9fb8 14be
00000200: 4d09 2c3e b670 22bd 9520 2d3e 132f 6d3d
00000210: 617e 25be 25b5 0a3e e2da 5dbd 72da 98bd
00000220: 9678 26be fe7e 47be eeed 5f3d 8241 30bd
00000230: 748d 973d 7bb7 20be 6e70 123e c452 11be
00000240: 4208 07bd 2f44 1d3d 1b5e c63d f586 1f3e
00000250: b7d6 323e f801 1dbe 8c78 513d acb4 a5bd
00000260: 8b7d a8bc 59a3 14be 7335 303e caf9 13be
00000270: a5bc d03d b734 863d 3de6 743d 6d34 d3bd
00000280: 5609 333e 7955 263d 9b36 fa3c 318e 2abe
00000290: 347c aa3d 8950 afbc df3b a9bd e60e 2c3e
000002a0: 95ce 493d cd1c d2bd 0574 c5bd f611 cdba
000002b0: 4ef5 eb3d 2fef 33bd 98b4 d0bd fee1 70bd
000002c0: c512 10be 8a9d 9a3d 6570 1c3e 3a9d 3abe
000002d0: eab6 493d 8981 d23d 42ad 153d 9ec9 83bd
000002e0: 8438 d23d 39d2 cc3d a6a7 9a3d dad8 07bd
000002f0: 021c 62bd fbb3 793c bfa1 18bd 2b0c 7ebd
00000300: 9754 f13d 5e96 283e 65ed abbc 6f80 4dbd
00000310: 3696 6cba 61ad 6fbc 1bf2 463d c29c 713d
00000320: ab0d 2dbe a937 87bd b476 303e e529 ad3d
00000330: 4e93 e2bb 3a44 dfbd f806 e0bd dcc5 29be
00000340: 362f 58bd e5fb 9d3d 1c71 023e 1f4a c83d
00000350: 38b0 22be fd39 e8bd 870b bdbc 0193 483e
00000360: fc2e 0a3d cd13 34bd ed34 b03d 74a3 8abd
00000370: b872 fcbd 350b 103e b0b5 afbd 2b65 0ebd
00000380: 6c7e 41be 814f 0a3e 0496 193e 1155 973d
00000390: d2ac 02be e7c9 42be e217 22be 3202 163e
000003a0: 684a c33d 50ea 253e 9427 e03d 0dd3 683d
000003b0: d744 bb3b 78f3 09be 7dac 22be 5c1e 37be
000003c0: c0b6 ac3d 5b61 b4bd b67c 17bd 2dfc d4bd
000003d0: 17bc 61bb d64a e7bd 5791 f2bd 7a79 a03d
000003e0: 208a 50bd f9dd 063e d350 3fbd ac6b 07be
000003f0: 01cb f9bc 0570 a4bd 7709 71bd babb 39be

encoder.0.0.bias f4 [64]
0.042095464 -0.10314175 -0.095911406 0.1714947 0.095782414 -0.052897964 0.028959136 0.042196978
0.044552933 -0.06019315 -0.11348326 0.129192 0.02596701 0.08401972 -0.0716058 0.09479079
0.13757966 0.11505271 0.043034002 0.18883483 -0.003091188 0.040677145 0.18460742 0.18290977
-0.084812865 0.17125976 0.06576724 -0.015024678 0.16463691 -0.09887079 0.123765044 0.18804437
-0.13329628 -0.11412699 -0.19462536 -0.031869262 -0.16984221 -0.067234926 0.057521895 0.13336664
0.10198202 0.10473268 0.08910143 -0.117130704 -0.14925775 0.0008404199 0.18224458 0.009112714
-0.025109023 -0.13444151 -0.091252245 -0.15507339 0.15562408 -0.03300996 -0.17514047 0.020402255
0.007899752 -0.030686216 0.074626304 0.09902688 -0.18184148 -0.14687943 -0.015492267 -0.1738828
00000000: 4b6c 2c3d fb3b d3bd 336d c4bd 4e9c 2f3e
00000010: 9229 c43d 89ab 58bd b63b ed3c bdd6 2c3d
00000020: 237d 363d 188d 76bd e969 e8bd e84a 043e
00000030: c4b8 d43c 8812 ac3d 10a6 92bd ac21 c23d
00000040: afe1 0c3e c1a0 eb3d 6c44 303d eb5d 413e
00000050: 8795 4abb 149d 263d ba09 3d3e b34c 3b3e
00000060: 5eb2 adbd b85e 2f3e fab0 863d 112a 76bc
00000070: 9496 283e c57c cabd 8778 fd3d b48e 403e
00000080: d27e 08be 69bb e9bd df4b 47be 5889 02bd
00000090: 1eeb 2dbe 77b2 89bd 149c 6b3d 4491 083e
000000a0: f3db d03d 167e d63d cf7a b63d 39e2 efbd
000000b0: 06d7 18be a04f 5c3a 539e 3a3e 7e4d 153c
000000c0: 70b1 cdbc 09ab 09be 75e2 babd 8fcb 1ebe
000000d0: eb5b 1f3e 7435 07bd 0658 33be a122 a73c
000000e0: f66d 013c a961 fbbc add5 983d 9bce ca3d
000000f0: a734 3abe 9067 16be 47d3 7dbc 550e 32be

encoder.0.1.weight f4 [64]
0.9946206 1.0018826 1.0033408 0.99777544 0.9904499 1.0044023 1.0113543 1.0092602
1.0044134 0.9972239 0.9911004 0.99991375 0.99103695 0.9955579 1.0065628 0.99443054
1.005167 0.99805444 0.9973445 1.0155665 0.9933014 0.99122417 0.9931082 0.99661064
0.996565 0.9993517 0.9927541 0.9946156 0.99307483 1.005299 1.0036113 0.999956
1.0000128 0.9982301 0.99586195 0.9919445 1.0056208 0.9982041 1.0039608 1.0061016
1.0051855 1.0139055 1.009833 1.0015712 0.9998239 1.0027051 1.0093126 1.0006347
0.9991896 1.0050569 0.999727 0.9946637 0.9905392 0.9984448 1.0052842 1.0123788
0.99669963 1.0006131 0.99717885 0.9957386 1.0032076 0.9947642 1.0039206 1.0014387
00000000: 759f 7e3f b03d 803f 796d 803f 366e 7f3f
00000010: 208e 7d3f 4190 803f 0f74 813f 702f 813f
00000020: 9e90 803f 114a 7f3f c1b8 7d3f 59fa 7f3f
00000030: 99b4 7d3f e2dc 7e3f 0dd7 803f 0093 7e3f
00000040: 50a9 803f 7f80 7f3f f851 7f3f 15fe 813f
00000050: 0049 7e3f dec0 7d3f 573c 7e3f e021 7f3f
00000060: e21e 7f3f 83d5 7f3f 2225 7e3f 219f 7e3f
00000070: 273a 7e3f a3ad 803f 5676 803f 1efd 7f3f
00000080: 6b00 803f 028c 7f3f cff0 7e3f 13f0 7d3f
00000090: 2fb8 803f 4e8a 7f3f ca81 803f f0c7 803f
000000a0: eba9 803f a8c7 813f 3542 813f 7c33 803f
000000b0: 76f4 7f3f a458 803f 2831 813f cc14 803f
000000c0: e4ca 7f3f b4a5 803f 1cee 7f3f 48a2 7e3f
000000d0: fa93 7d3f 149a 7f3f 27ad 803f a195 813f
000000e0: b527 7f3f 1714 803f 1d47 7f3f bae8 7e3f
000000f0: 1b69 803f dea8 7e3f 7880 803f 252f 803f

encoder.0.1.bias f4 [64]
-0.008198029 -0.005593404 0.0045626624 -0.004905067 -0.012331579 -0.006093992 0.008796846 0.012179881
0.010154453 0.001980977 -0.008071718 0.00044936244 -0.0023440109 -0.0001046986 0.00730439 -0.006424824
-0.014915101 0.002771641 -0.0017667264 -0.0053527695 -0.012937921 -0.0045865458 -0.0058412896 0.0030264237
-0.00859392 -0.0036216443 0.0032323515 -0.0049421918 -0.00516143 0.011657229 0.006583237 -0.0012335402
-0.0083749015 -0.007969083 -0.0058158115 -6.854417e-05 -0.0057996167 0.001404234 0.01412539 -0.0016078209
0.0017170241 0.006920476 0.021172812 0.00090002053 0.020303262 -0.0042507285 -0.009641006 -0.012653686
0.0067344443 -0.01305391 -0.0038329754 -0.009877529 -0.006405345 -0.001879808 0.008828345 -0.0026095423
-0.014021053 -0.006887867 -0.007888752 0.0060187895 0.009481186 -0.0004408986 0.022653 -0.007552756
00000000: 0751 06bc e048 b7bb 6382 953b afba a0bb
00000010: 640a 4abc 1cb0 c7bb a520 103c 208e 473c
00000020: dd5e 263c 47d3 013b 3d3f 04bc 6898 eb39
00000030: fa9d 19bb a291 dbb8 aa59 ef3b 5487 d2bb
00000040: 785e 74bc 6ba4 353b 8091 e7ba 4966 afbb
00000050: 93f9 53bc bc4a 96bb 4a68 bfbb f756 463b
00000060: 83cd 0cbc 1c59 6dbb dcd5 533b 1cf2 a1bb
00000070: 3721 a9bb f6fd 3e3c 32b8 d73b beae a1ba
00000080: e236 09bc c290 02bc 9092 bebb 5fbf 8fb8
00000090: b60a bebb 460e b83a 2e6e 673c 84bd d2ba
000000a0: c50d e13a 29c5 e23b 9b72 ad3c 5bef 6b3a
000000b0: 0753 a63c b249 8bbb 4ff5 1dbc 6851 4fbc
000000c0: 9dac dc3b 11e0 55bc a832 7bbb 5cd5 21bc
000000d0: eee3 d1bb e463 f6ba c3a4 103c db04 2bbb
000000e0: 8fb8 65bc 9eb3 e1bb d33f 01bc 4439 c53b
000000f0: fa56 1b3c 6928 e7b9 c992 b93c 1c7d f7bb

encoder.0.1.running_mean f4 [64]
0.8544661 0.04826085 -0.12168199 -0.78433365 -0.9384986 -0.101871274 0.051055823 0.06511714
-0.38780665 -0.51429874 -1.0861096 0.5626551 -1.7208898 0.107516 0.016403073 -0.44876045
0.23274882 -0.13598895 0.49587247 0.23609081 0.6403493 -0.5077035 -0.23003191 -1.0111227
0.35641435 0.7909667 -0.07631835 0.41255605 -0.3608208 -0.08247218 0.25230312 0.14787337
0.85036695 0.33875316 -1.3257831 -0.31819013 0.1975077 -1.0629593 0.027453307 0.31886885
0.33529496 0.09431548 0.15946761 0.15030417 -0.025363483 0.69270444 0.13224113 0.72324187
-0.21381803 -0.32549706 0.17986515 -0.55927277 -0.62078446 -0.044854697 -0.18033056 0.07446521
0.91054887 0.26951385 0.28886968 -0.13308075 -0.18584216 -0.69422394 0.045694645 0.6938211
00000000: 4abe 5a3f 2bad 453d 6834 f9bd 17ca 48bf
00000010: 7241 70bf e3a1 d0bd e91f 513d 235c 853d
00000020: 988e c6be 15a9 03bf a405 8bbf 2a0a 103f
00000030: 1e46 dcbf 5931 dc3d bd5f 863c eec3 e5be
00000040: b555 6e3e b040 0bbe ffe2 fd3e cac1 713e
00000050: efed 233f dbf8 01bf 7c8d 6bbe 786c 81bf
00000060: f17b b63e cb7c 4a3f cc4c 9cbd 8c3a d33e
00000070: 81bd b8be 2de7 a8bd e02d 813e 1e6c 173e
00000080: a6b1 593f 0e71 ad3e 43b3 a9bf d1e9 a2be
00000090: 753f 4a3e 0d0f 88bf c2e5 e03c c742 a33e
000000a0: c8ab ab3e 7928 c13d 7a4b 233e 56e9 193e
000000b0: 14c7 cfbc 1455 313f 386a 073e 6126 393f
000000c0: 1df3 5abe 8da7 a6be 922e 383e 802c 0fbf
000000d0: bbeb 1ebf 8fb9 37bd 93a8 38be 3781 983d
000000e0: bb19 693f b8fd 893e bae6 933e 5246 08be
000000f0: 684d 3ebe a9b8 31bf 4f2a 3b3d 429e 313f

encoder.0.1.running_var f4 [64]
1.0125161 0.116762415 0.05523197 1.2182525 1.5411587 0.17706586 0.064373225 0.029797649
0.27133903 0.2884547 1.579181 0.48610035 3.5915697 0.103284396 0.051067222 0.47266307
0.124789506 0.20001717 0.36104384 0.07521698 0.52370745 0.4974915 0.26679182 1.8101214
0.23781002 0.59877044 0.11038466 0.41471922 0.35553613 0.053093974 0.13527355 0.44067124
1.181373 0.42785844 1.6561742 0.18082497 0.24706806 1.2199466 0.086340606 0.20650594
0.18869151 0.040894356 0.0626446 0.24073923 0.22232866 0.7210061 0.064848304 0.7172973
0.07128075 0.17331553 0.14976926 0.5044457 0.78553605 0.11158361 0.06080843 0.073461905
1.1317831 0.27293405 0.10480841 0.15615988 0.0553804 0.3577782 0.12043032 1.0687219
00000000: 219a 813f 2221 ef3d eb3a 623d b3ef 9b3f
00000010: b044 c53f c150 353e 1cd6 833d 331a f43c
00000020: f3ec 8a3e 56b0 933e 9a22 ca3f 25e2 f83e
00000030: 47dc 6540 c586 d33d dd2b 513d e500 f23e
00000040: a491 ff3d 4dd1 4c3e bdda b83e 5c0b 9a3d
00000050: b111 063f 35b7 fe3e f098 883e 0fb2 e73f
00000060: 7884 733e 0549 193f 5a11 e23d 1456 d43e
00000070: d508 b63e 1179 593d 2685 0a3e a99f e13e
00000080: 3b37 973f 4310 db3e 84fd d33f 2e2a 393e
00000090: 69ff 7c3e 3627 9c3f 58d3 b03d 4b76 533e
000000a0: 5938 413e d780 273d d04b 803d 5884 763e
000000b0: 20aa 633e db93 383f 30cf 843d cca0 373f
000000c0: a4fb 913d a079 313e 1d5d 193e 5a23 013f
000000d0: e418 493f f385 e43d 4312 793d 3273 963d
000000e0: 45de 903f 03be 8b3e cba5 d63d 60e8 1f3e
000000f0: 8fd6 623d b42e b73e 2ca4 f63d e1cb 883f

encoder.1.0.weight f4 [64, 64, 3, 3]
-0.035988476 0.037995752 -0.0028812985 -0.021015836 -0.013402962 -0.034360312 0.034318306 -0.007706695
-0.025779761 -0.030677065 0.026073094 -0.002440696 0.0005801016 0.002493627 -0.009493634 0.0059418054
0.031837173 -0.030963665 -0.0057998155 -0.03882689 -0.028100125 0.03541019 -0.0041768933 0.037810642
-0.009225324 -0.022509485 -0.024139391 0.030325169 -0.03878148 0.016469004 0.009559444 0.009757011
0.022875806 -0.012404459 0.021979053 -0.03398865 -0.021020621 0.025805648 0.009181287 -0.0028696351
-0.010527689 -0.025480637 0.022525106 -0.0055009923 -0.0037436134 0.009359747 0.032533173 -0.020522501
-0.012980019 0.029887749 0.023872824 -0.015409923 -0.03936192 0.0111075 0.024317544 0.008107965
0.02881559 -0.032690223 0.021828473 -0.027498884 0.0282659 0.035587348 0.022609478 0.033213824
-0.027732428 -0.037239484 -0.041230947 0.024330184 0.01573124 -0.02951383 0.021276535 0.042032875
-0.04288745 0.027537134 0.006217815 0.0049962113 0.036015056 0.042103656 0.016812477 0.03007234
0.016554138 0.0030243164 -0.039468393 0.005558082 -0.03002296 0.009810925 0.005967278 -0.00035118507
-0.030943165 -0.027187223 0.025768304 0.013751972 0.014805601 -0.012103425 -0.008434462 -0.011150546
0.027694585 -0.021481154 0.025499111 0.03121698 -0.036289863 0.0032089844 -0.0059803408 -0.022247247
0.018410658 -0.0069112536 0.036212977 -0.030804014 0.015514583 -0.038673367 -0.022601604 0.0056537944
0.031967662 0.022971895 -0.034078915 0.0015651208 -0.026627488 0.004571947 -0.037734505 -0.012481114
0.029338611 -0.04166622 -0.041638628 0.012500262 0.006655209 -0.005407102 0.027258895 -0.018139074
-0.032501385 -0.030269792 0.0023355496 -0.008072877 0.029794626 0.0048155743 0.015989743 -0.022614477
0.02923156 0.029767301 -0.035817802 -0.011582362 -0.03496163 0.017377997 -0.041211054 -0.021967402
0.038542412 -0.037441228 0.031172711 0.0026396306 0.03359279 -0.027426833 0.027648741 0.0064118803
0.0041628093 0.02779202 -0.040072966 -0.033045787 0.034278326 -0.029827008 -0.029783681 -0.007851053
-0.017624624 -0.0033816088 -0.022330385 0.017135922 -0.03606685 7.93131e-05 0.019904673 0.0034180065
0.0073271687 0.009072296 -0.012913311 -0.012839459 -0.010289888 -0.018679293 -0.014512606 0.04877858
-0.0015125492 0.015117929 0.026957126 -0.008722733 -0.018941876 -0.026515765 -0.011065626 0.011892477
-0.034119952 -0.0040273396 0.014516753 0.03340046 0.013212792 0.0039175204 0.024537388 0.016296666
0.012035657 -0.017155478 -0.03675447 -0.0099980645 -0.012243882 0.0014064859 -0.012193914 0.010962101
0.02344738 -0.016992202 -0.04236567 -0.023498178 -0.02206546 0.020972379 -0.0283139 -0.007845407
-0.012745547 -0.028006574 0.022259658 -0.018280419 -0.0012694199 -0.03140615 -0.008315195 0.004888964
-0.0021573494 -0.009246198 0.016374327 -0.008337914 -0.017896686 -0.025778396 -0.004881196 -0.03198701
0.040084478 -0.017840063 -0.016539592 0.006985417 0.00783171 -0.0062563713 0.028011335 -0.026635015
0.014169313 0.0006064886 -0.027903028 -0.017293336 0.012144431 0.0056364215 0.025854396 0.030968247
-0.025025899 -0.019269349 -0.004937898 -0.0267192 -0.0070251343 -0.029992914 0.016103383 0.032684207
0.004976986 -0.027716236 -0.026431113 -0.014701382 0.008540653 -0.001988882 0.0037477042 0.038289495
00000000: a768 13bd 6fa1 1b3d 2bd4 3cbb 6729 acbc
00000010: 1998 5bbc 66bd 0cbd 5a91 0c3d 7188 fcbb
00000020: 1430 d3bc 784e fbbc 3e97 d53c 15f4 1fbb
00000030: f611 183a 1e6c 233b 308b 1bbc 7ab3 c23b
00000040: b267 023d 83a7 fdbc 610c bebb f208 1fbd
00000050: 3c32 e6bc 460a 113d 52de 88bb 55df 1a3d
00000060: d025 17bc d065 b8bc f9bf c5bc 7d6c f83c
00000070: 54d9 1ebd 01ea 863c 379f 1c3c dfdb 1f3c
00000080: 0b66 bb3c 123c 4bbc 6a0d b43c af37 0bbd
00000090: 7033 acbc 5e66 d33c 1c6d 163c 7d10 3cbb
000000a0: 547c 2cbc c5bc d0bc 9286 b83c ab41 b4bb
000000b0: 6957 75bb a059 193c 8141 053d ce1e a8bc
000000c0: 25aa 54bc 27d7 f43c f190 c33c e779 7cbc
000000d0: f739 21bd 3bfc 353c 9635 c73c 45d7 043c
000000e0: ac0e ec3c 2fe6 05bd a0d1 b23c 5745 e1bc
000000f0: e48d e73c 0ac4 113d 8337 b93c 380b 083d
00000100: 1e2f e3bc 6e88 18bd c8e1 28bd 1850 c73c
00000110: cdde 803c fdc6 f1bc 214c ae3c aa2a 2c3d
00000120: c0aa 2fbd 8e95 e13c d0be cb3b 42b7 a33b
00000130: 8684 133d e274 2c3d 52ba 893c 455a f63c
00000140: 8b9c 873c 9c33 463b 9ca9 21bd 9220 b63b
00000150: b6f2 f5bc 01be 203c 2889 c33b 431f b8b9
00000160: 857c fdbc bdb7 debc 0d18 d33c f34f 613c
00000170: 3193 723c 724d 46bc b330 0abc c8b0 36bc
00000180: c1df e23c 3ff9 afbc 83e3 d03c c1ba ff3c
00000190: aea4 14bd d34d 523b bcf6 c3bb dc3f b6bc
000001a0: f3d1 963c cc77 e2bb 0f54 143d b358 fcbc
000001b0: e130 7e3c f767 1ebd 0027 b9bc 7743 b93b
000001c0: 86f0 023d 8e2f bc3c 5596 0bbd bd24 cd3a
000001d0: e421 dabc 45d0 953b 7f8f 1abd 967d 4cbc
000001e0: 8757 f03c 33aa 2abd 448d 2abd e6cd 4c3c
000001f0: f113 da3b 0f2e b1bb 0c4e df3c 6598 94bc
00000200: 2c20 05bd 5bf8 f7bc 0510 193b 1a44 04bc
00000210: dc13 f43c f7cb 9d3b ecfc 823c ff41 b9bc
00000220: 0677 ef3c 8eda f33c b0b5 12bd f3c3 3dbc
00000230: ed33 0fbd 4d5c 8e3c eccc 28bd fbf4 b3bc
00000240: a6de 1d3d f95b 19bd ea5d ff3c a7fd 2c3b
00000250: 9898 093d 3dae e0bc 9d7f e23c c01a d23b
00000260: 2d68 883b 17ac e33c 8d23 24bd 055b 07bd
00000270: 6e67 0c3d c557 f4bc e8fc f3bc b4a1 00bc
00000280: 8461 90bc fb9d 5dbb 36ee b6bc a260 8c3c
00000290: d5ba 13bd e554 a638 200f a33c a200 603b
000002a0: bf18 f03b f8a3 143c 5a92 53bc 985c 52bc
000002b0: eb96 28bc 5105 99bc 48c6 6dbc 0ccc 473d
000002c0: bb40 c6ba 31b1 773c 31d5 dc3c cbe9 0ebc
000002d0: fe2b 9bbc 9737 d9bc 994c 35bc aad8 423c
000002e0: 5dc1 0bbd c6f7 83bb add7 6d3c ecce 083d
000002f0: 777a 583c 8b5e 803b a202 c93c 9680 853c
00000300: 3431 453c a589 8cbc db8b 16bd ecce 23bc
00000310: 909a 48bc d659 b83a fbc8 47bc 629a 333c
00000320: b814 c03c 3b33 8bbc a087 2dbd 407f c0bc
00000330: a0c2 b4bc 44ce ab3c 8df2 e7bc 068a 00bc
00000340: b3d2 50bc 0b6e e5bc e359 b63c d1c0 95bc
00000350: aa62 a6ba bca3 00bd 753c 08bc 9a33 a03b
00000360: 5162 0dbb 5e7d 17bc 7423 863c bf9b 08bc
00000370: 129c 92bc 372d d3bc 71f2 9fbb d004 03bd
00000380: 9f2f 243d 5325 92bc 0a7e 87bc ede5 e43b
00000390: 9350 003c 3f02 cdbb 0778 e53c ad31 dabc
000003a0: 6826 683c c3fc 1e3a e494 e4bc c1aa 8dbc
000003b0: 6ff9 463c bbb1 b83b 99cc d33c 1fb1 fd3c
000003c0: 1d03 cdbc c1da 9dbc 17ce a1bb 39e2 dabc
000003d0: 1933 e6bb b3b3 f5bc 3eeb 833c e0df 053d
000003e0: fc15 a33b 290d e3bc 1086 d8bc 11de 70bc
000003f0: 18ee 0b3c e757 02bb 0b9c 753b 72d5 1c3d

encoder.1.0.bias f4 [64]
-0.008721545 0.008468028 -0.014438021 -0.02411992 -2.179754e-05 0.005766422 -0.036425486 -0.022957921
-0.0136784995 0.004941945 0.031275865 -0.028929481 -0.027585026 0.043841507 -0.001322763 -0.013798967
0.0041329446 -0.030132292 0.004030571 -0.023365213 0.005417172 0.014858768 0.0392545 0.025461681
0.016652508 0.034244597 0.03880841 -0.03380496 -0.029747266 -0.0062573496 -0.017487604 0.017831536
0.033978987 0.015665699 -0.0031483937 0.013334843 -0.03639562 0.022324014 -0.01872232 -0.031123893
-0.0076357936 0.041583758 -0.014856014 -0.02845326 0.019394102 -0.007075033 -0.010561123 0.021686045
0.02819651 0.0065078507 0.035480846 -0.044754203 -0.00865804 0.0271196 -0.039330218 -0.0062609892
0.018179849 -0.0037072403 0.012050585 -0.02183992 0.00921648 -0.025375595 0.0022368678 -0.006383122
00000000: d0e4 0ebc 7cbd 0a3c 738d 6cbc 2397 c5bc
00000010: dcd9 b6b7 41f4 bc3b e432 15bd 4012 bcbc
00000020: c91b 60bc 0af0 a13b 1f1b 003d 85fd ecbc
00000030: fef9 e1bc 2793 333d 9060 adba 1015 62bc
00000040: a76d 873b ffd7 f6bc e112 843b 6768 bfbc
00000050: 8882 b13b 3172 733c 54c9 203d 0495 d03c
00000060: d76a 883c 1044 0c3d 91f5 1e3d 1277 0abd
00000070: 8ab0 f3bc 740a cdbb 2a42 8fbc 7113 923c
00000080: 8d2d 0b3d 5a55 803c 4855 4ebb 637a 5a3c
00000090: 9313 15bd dae0 b63c 8d5f 99bc 89f7 febc
000000a0: ae35 fabb bb53 2a3d a466 73bc d016 e9bc
000000b0: 61e0 9e3c aed5 e7bb 8f08 2dbc efa6 b13c
000000c0: 5efc e63c cf3f d53b 5d54 113d 2f50 37bd
000000d0: 74da 0dbc ec29 de3c b918 21bd fc28 cdbb
000000e0: e8ed 943c 2cf5 72bb d16f 453c a2e9 b2bc
000000f0: b800 173c 7be0 cfbc 6a98 123b 8229 d1bb

encoder.1.1.weight f4 [64]
1.0206361 1.010981 1.0132513 0.9997107 0.99301004 0.996641 0.99819595 0.9934457
1.0011313 1.0015582 1.0075665 0.99992263 1.000206 1.0027835 1.0013131 1.000833
0.989436 0.9963003 1.0032082 0.995912 1.0162805 0.9957528 0.9980694 1.0025549
0.99928546 1.0054795 1.0017313 1.0017903 1.0030916 1.008911 0.99388874 1.007538
0.9884336 0.9934365 0.9941936 0.9973835 0.99881697 1.0059652 1.0028551 0.9989714
1.0057843 0.9976943 0.99994385 1.0004078 0.9950754 0.9931251 1.008096 1.0035
0.9938821 0.99811506 0.99451405 1.0010611 1.0031604 0.9988052 0.99531764 1.0118101
0.9879637 1.0012978 0.9989093 1.002635 1.0016257 1.0025748 0.9953318 1.00609
00000000: 34a4 823f d367 813f 38b2 813f 0aed 7f3f
00000010: e835 7e3f dd23 7f3f c589 7f3f 7552 7e3f
00000020: 1225 803f 0f33 803f f0f7 803f eefa 7f3f
00000030: c006 803f 365b 803f 072b 803f 4c1b 803f
00000040: ad4b 7d3f 890d 7f3f 2069 803f 17f4 7e3f
00000050: 7b15 823f a8e9 7e3f 7a81 7f3f b853 803f
00000060: 2cd1 7f3f 8db3 803f bb38 803f aa3a 803f
00000070: 4e65 803f ff23 813f 7e6f 7e3f 01f7 803f
00000080: fc09 7d3f db51 7e3f 7983 7e3f 8654 7f3f
00000090: 78b2 7f3f 78c3 803f 8e5d 803f 97bc 7f3f
000000a0: 8abd 803f e568 7f3f 52fc 7f3f 5d0d 803f
000000b0: 43bd 7e3f 723d 7e3f 4a09 813f b072 803f
000000c0: 0f6f 7e3f 7884 7f3f 7998 7e3f c522 803f
000000d0: 8f67 803f b3b1 7f3f 23cd 7e3f fe82 813f
000000e0: 30eb 7c3f 872a 803f 85b8 7f3f 5856 803f
000000f0: 4535 803f 5f54 803f 11ce 7e3f 8fc7 803f

encoder.1.1.bias f4 [64]
0.0054571945 0.005607838 0.010529517 -0.0055241864 -0.009127816 -0.007947107 -0.0010780097 8.449461e-05
-0.009694829 0.0035472948 -0.008117969 -0.0009971012 -0.0043247156 -0.001691742 -0.008941478 -0.010381665
-0.00090306415 -0.0066448105 -0.0031396677 -0.0010478533 -0.012211157 -0.018740533 -0.0026842947 0.0030067454
-0.0014085177 -0.0024185686 -0.012050964 -0.0069065983 0.0053510834 -0.007873695 -0.008185908 0.011881444
0.0019585683 -0.010008362 -0.008541002 -0.003643425 -0.00051376264 -0.008681618 -0.003648364 0.0003049097
-0.003000006 0.0023892028 -0.008332943 -0.0048728385 -0.006983679 -0.006709101 0.008272095 -0.0062981565
-0.011934179 -0.008307281 -0.0077512395 -0.005013384 -0.007335404 -0.00996234 -0.012756541 -0.003031346
-0.016478293 -0.00776252 -0.0027904084 0.007105081 -0.017517444 -0.0015062839 -0.0025568577 -0.0038661659
00000000: 44d2 b23b f4c1 b73b ff83 2c3c 3c04 b5bb
00000010: d68c 15bc 9534 02bc 014c 8dba b332 b138
00000020: 0fd7 1ebc bb79 683b 3b01 05bc 2ab1 82ba
00000030: 58b6 8dbb 71bd ddba 477f 12bc dc17 2abc
00000040: 9cbb 6cba b6bc d9bb e2c2 4dbb 1f58 89ba
00000050: 4e11 48bc bf85 99bc feea 2fbb d10c 453b
00000060: 039e b8ba d980 1ebb 6871 45bc bf50 e2bb
00000070: 2458 af3b ac00 01bc 301e 06bc 63aa 423c
00000080: 535b 003b 1dfa 23bc 8fef 0bbc 87c6 6ebb
00000090: 07ae 06ba 583d 0ebc 6419 6fbb 4adc 9f39
000000a0: c09b 44bb 2c94 1c3b e586 08bc 55ac 9fbb
000000b0: 58d7 e4bb 05d8 dbbb ae87 073c c460 cebb
000000c0: 9387 43bc 431b 08bc 1cfe fdbb 5047 a4bb
000000d0: d45d f0bb 1539 23bc d000 51bc 8ca9 46bb
000000e0: 7cfd 86bc bd5c febb 49df 36bb bdd1 e83b
000000f0: be80 8fbc 806e c5ba f490 27bb 805f 7dbb

encoder.1.1.running_mean f4 [64]
-0.10778163 -0.24180496 -0.48983324 -0.32965818 -0.53139466 0.27590913 -0.25581652 -0.07763094
0.8605254 -0.5357509 -0.54451185 -0.0271439 -0.30056015 0.1208943 -0.58461225 -0.0843923
0.23681404 0.20359465 -0.5388063 -0.5910577 -0.29595527 0.20795682 -0.49659398 -0.19447851
0.32717922 -0.31109482 0.1624496 -0.1531853 -0.010169781 -0.21372324 -0.9437408 -0.28877828
-0.58199173 -0.07677712 -0.15107545 0.07173133 -0.25900963 -0.0013076554 0.11827689 0.28386363
-0.17238677 0.35946283 -0.6890428 -0.122225024 -0.11134488 -0.17575498 -0.60486335 -0.43295392
0.19072565 -0.6253171 -0.6158242 -0.43994588 0.29157266 -0.8761164 -0.012676973 0.1154163
0.2689011 -0.29695612 -0.36300075 -0.45933026 0.4480188 0.120818995 0.42765915 -0.28911027
00000000: 9dbc dcbd b89b 77be 6ccb fabe f5c8 a8be
00000010: 7b09 08bf f643 8d3e 62fa 82be f8fc 9ebd
00000020: 654b 5c3f f926 09bf 2165 0bbf e25c debc
00000030: 05e3 99be 6e97 f73d 26a9 15bf dfd5 acbd
00000040: 617f 723e 1e7b 503e 36ef 09bf 8f4f 17bf
00000050: 7387 97be a2f2 543e 9141 febe 6025 47be
00000060: 0984 a73e d247 9fbe 3059 263e 9bdc 1cbe
00000070: 279f 26bc 44da 5abe ff98 71bf bfda 93be
00000080: 69fd 14bf 533d 9dbd 86b3 1abe e0e7 923d
00000090: e99c 84be a265 abba 273b f23d 9356 913e
000000a0: 2886 30be 830b b83e 1c65 30bf 1d51 fabd
000000b0: c908 e4bd 1df9 33be 53d8 1abf 23ac ddbe
000000c0: 964d 433e c814 20bf a8a6 1dbf 9640 e1be
000000d0: 0349 953e 2a49 60bf 14b3 4fbc 625f ec3d
000000e0: 68ad 893e a20a 98be 3cdb b9be 562d ebbe
000000f0: b862 e53e f36f f73d 24f6 da3e 4306 94be

encoder.1.1.running_var f4 [64]
0.08000914 0.08330129 0.16579649 0.24799363 0.206375 0.15155484 0.63939446 0.35828584
0.22224349 0.35349533 0.22389212 0.29413006 0.7636003 0.135215 0.17595172 0.07021403
0.15626447 0.103346564 0.21215199 0.34387028 0.10516109 0.12648882 0.17239778 0.16389601
0.10565902 0.09870075 0.081573114 0.15854615 0.12324086 0.20206004 0.48531318 0.09236117
0.25690725 0.24663281 0.22480558 0.10960624 0.27156264 0.12311518 0.107982986 0.13681889
0.110243425 0.38513148 0.50648874 0.15271842 0.36507964 0.3042966 0.26833203 0.2643611
0.1189874 0.23544951 0.21503064 0.16319841 0.10006387 0.6939188 0.29117838 0.16848531
0.4530426 0.29290816 0.36672658 0.15588404 0.18087997 0.15246704 0.20420194 0.3005804
00000000: d5db a33d de99 aa3d 8ec6 293e 0bf2 7d3e
00000010: f853 533e 3131 1b3e 5baf 233f 3e71 b73e
00000020: cc93 633e 57fd b43e fa43 653e 3798 963e
00000030: 4f7b 433f cd75 0a3e b02c 343e 60cc 8f3d
00000040: cb03 203e 5da7 d33d 5f3e 593e c40f b03e
00000050: b35e d73d 4986 013e 0b89 303e 5bd4 273e
00000060: c263 d83d 9e23 ca3d ce0f a73d ec59 223e
00000070: b465 fc3d d4e8 4e3e f87a f83e da27 bd3d
00000080: 5989 833e 508d 7c3e 6f33 663e 3d79 e03d
00000090: 420a 8b3e d023 fc3d 2f26 dd3d 401a 0c3e
000000a0: 4ec7 e13d f42f c53e 3fa9 013f 3862 1c3e
000000b0: b8eb ba3e c4cc 9b3e d162 893e 575a 873e
000000c0: aaaf f33d ad19 713e fe30 5c3e 7c1d 273e
000000d0: 49ee cc3d aaa4 313f 5515 953e 6a87 2c3e
000000e0: 33f5 e73e 0ff8 953e 96c3 bb3e 11a0 1f3e
000000f0: 9938 393e 5220 1c3e 501a 513e ade5 993e

encoder.2.0.weight f4 [64, 64, 3, 3]
0.038555477 -0.034231983 -0.035105214 0.0310216 0.044777926 -0.0061457893 0.032644566 -0.004648948
0.05089715 -0.013367291 -0.0058652544 0.017987149 -0.009343075 0.04056435 -0.009754376 0.04182136
-0.027291626 -0.018104067 -0.014157981 0.015423455 0.04181281 0.027510434 -0.026989777 -0.0348214
0.022942096 0.02252192 0.034077458 -0.041818332 -0.025417078 0.042798538 0.0297654 0.005086486
-0.048763108 0.04443634 0.018723482 -0.017492944 -0.009022192 4.4592878e-05 0.028524972 0.0050074733
0.028967757 0.016970739 -0.021773463 -0.044455916 0.019183796 -0.019877942 0.013336653 0.022740435
-0.014773019 -0.026837075 0.04280783 -0.017618645 0.041310284 0.037420474 0.040220313 0.03763046
-0.0015148039 0.034084674 -0.038499765 0.0028966083 -0.029524527 -0.03467356 0.017623428 -0.025852177
-0.017520392 -0.045808945 -0.027466623 0.01202342 0.036760766 0.008296611 -0.006117253 -0.025634777
-0.028199837 -0.023448883 0.02905801 -0.024583131 0.012096657 0.009049293 -0.022773268 -0.021220226
-0.009126998 -0.036763895 0.035646074 -0.022879284 -0.040420067 -0.029713986 0.0002840685 0.038217407
-0.03895878 0.0031641484 -0.0022843978 -0.01128905 -0.008113925 -0.0003661663 0.021532658 0.007344559
0.036603574 0.031267148 0.0016911911 -0.019687159 0.0014932373 -0.032540917 0.010820294 0.0045570987
-0.0053368444 -0.042561423 -0.025764696 0.019231394 0.03996297 -0.022761226 -0.022091167 0.009972924
0.022240343 -0.011396138 -0.0040030126 0.035285216 -0.018577378 0.024331396 -0.0016496045 0.029648535
0.010199767 0.010496338 0.024449227 -0.010751029 -0.016495813 -0.039447132 0.039943006 0.031697683
-0.009924916 -0.03104238 0.043221865 0.031123353 -0.039498113 0.013478508 -0.004943573 0.023825202
-0.0026064587 -0.019117456 0.005867001 0.019866884 -0.028490126 0.022703096 0.040655866 0.034151696
0.028264517 -0.029445745 0.007707468 -0.019524952 -0.004944017 -0.031209696 -0.015236985 -0.030297669
-0.0016041938 0.0049304925 0.042943705 0.0118168695 0.028787361 -0.018029442 -0.01036377 -0.011072112
0.0057844734 -0.021944562 0.028017439 0.03894771 0.017250359 0.0118339695 -0.0022694585 -0.034695134
-0.027915712 -0.02797823 -0.022136513 -0.039150707 0.003853459 -0.00045037267 0.0103848465 0.02025234
-0.02399521 -0.024828782 -0.03509689 -0.0106965555 -0.018729772 0.01546153 -0.0032588278 -0.02021966
0.013335322 -0.0033755382 -0.003786715 0.015083245 0.005444639 0.013445135 0.03707852 0.03303871
-0.024710892 -0.0037346105 -0.018588718 0.018762397 -0.017518505 -0.019988418 -0.005845184 0.02117991
-0.03539407 -0.02726931 0.034514807 0.01379607 -0.01063253 -0.04517247 -0.016850557 0.030100802
-0.017795006 -0.012844842 -0.023318598 -0.0013227578 0.0019769329 0.013954896 -0.024088673 -0.0350263
0.011281743 -0.034586385 0.016852139 -0.02801343 -0.030100098 -0.0074859043 0.018245276 -0.033339098
-0.01099928 -0.027290024 -0.02875712 -0.029626148 0.019965816 -0.022859763 -0.03616953 -0.037082214
0.031819526 -0.00399404 0.0013237096 0.039030295 0.031064255 -0.00884234 0.03353198 -0.0044103223
0.028783714 -0.027296972 0.008969532 -0.034242492 -0.0193526 -0.0050138673 -0.029283455 0.0009184754
-0.0023382741 0.037849765 0.005020722 0.026005292 0.026721455 0.02121439 0.0059437463 0.0021673518
00000000: 59ec 1d3d d636 0cbd 7cca 0fbd 0321 fe3c
00000010: 0f69 373d 9e62 c9bb 4fb6 053d 3456 98bb
00000020: 8879 503d 7b02 5bbc 5231 c0bb c959 933c
00000030: b213 19bc ce26 263d d1d0 1fbc e04c 2b3d
00000040: b092 dfbc fb4e 94bc e0f6 67bc a9b2 7c3c
00000050: e943 2b3d 905d e13c aa19 ddbc e2a0 0ebd
00000060: 10f1 bb3c e47f b83c ce94 0b3d b349 2bbd
00000070: 7a37 d0bc 854d 2f3d 91d6 f33c 8aac a63b
00000080: d3bb 47bd e102 363d fd61 993c 5d4d 8fbc
00000090: d1d1 13bc 3d09 3b38 34ad e93c bb15 a43b
000000a0: ca4d ed3c 3806 8b3c 435e b2bc 6817 36bd
000000b0: 5627 9d3c 11d7 a2bc fa81 5a3c 264a ba3c
000000c0: 880a 72bc 6dd9 dbbc 4357 2f3d fa54 90bc
000000d0: f934 293d 3646 193d 0ebe 243d 6622 1a3d
000000e0: 628c c6ba 5f9c 0b3d eeb1 1dbd 06d5 3d3b
000000f0: 6cdd f1bc dd05 0ebd 025f 903c f2c7 d3bc
00000100: ed86 8fbc 29a2 3bbd af01 e1bc e1fd 443c
00000110: 7592 163d 82ee 073c 3d73 c8bb 0600 d2bc
00000120: 5803 e7bc df17 c0bc 100b ee3c 9062 c9bc
00000130: 0f31 463c 7c43 143c 018f babc 0ad6 adbc
00000140: 6789 15bc bd95 16bd 9e01 123d 566d bbbc
00000150: 838f 25bd bf6a f3bc 07ef 9439 db89 1c3d
00000160: 3e93 1fbd 9a5d 4f3b d6b5 15bb b5f5 38bc
00000170: 45f0 04bc 02fa bfb9 4265 b03c a0aa f03b
00000180: a1ed 153d fb11 003d f5aa dd3a f746 a1bc
00000190: bbb8 c33a a049 05bd 9a47 313c b753 953b
000001a0: b2e0 aebb e354 2ebd 7c10 d3bc 288b 9d3c
000001b0: 36b0 233d c075 babc 89f8 b4bc 7a65 233c
000001c0: 6131 b63c deb6 3abc b42b 83bb 3b87 103d
000001d0: 962f 98bc a352 c73c 8b37 d8ba 7ce1 f23c
000001e0: ec1c 273c d5f8 2b3c bf49 c83c 1525 30bc
000001f0: 3a22 87bc 5193 21bd 479b 233d 6ed5 013d
00000200: 1d9c 22bc 974c febc 6909 313d 67f6 fe3c
00000210: c6c8 21bd f6d4 5c3c b2fd a1bb 122d c33c
00000220: 1fd1 2abb 369c 9cbc f93f c03b e0bf a23c
00000230: 2064 e9bc d8fb b93c c486 263d a6e2 0b3d
00000240: fd8a e73c 3438 f1bc ed8e fc3b cbf2 9fbc
00000250: 6c01 a2bb 7aab ffbc 8ca4 79bc d132 f8bc
00000260: d043 d2ba f88f a13b bde5 2f3d 8b9b 413c
00000270: 79d3 eb3c 7bb2 93bc cdcc 29bc ce67 35bc
00000280: ae8b bd3b 15c5 b3bc d484 e53c a287 1f3d
00000290: a050 8d3c 44e3 413c 32bb 14bb 7c1c 0ebd
000002a0: 7eaf e4bc 9a32 e5bc a257 b5bc 7e5c 20bd
000002b0: 508a 7c3b ff1f ecb9 3425 2a3c 3ce8 a53c
000002c0: 9a91 c4bc bb65 cbbc c2c1 0fbd 9b40 2fbc
000002d0: 2e6f 99bc 5b52 7d3c 0f92 55bb b3a3 a5bc
000002e0: 657c 5a3c 2238 5dbb 892a 78bb b71f 773c
000002f0: f168 b23b fc48 5c3c a5df 173d 9953 073d
00000300: 7f6e cabc 5ec0 74bb 5e47 98bc 99b3 993c
00000310: f882 8fbc c0be a3bc f588 bfbb 7e81 ad3c
00000320: 5ff9 10bd e363 dfbc 665f 0d3d e908 623c
00000330: 1034 2ebc c506 39bd 2e0a 8abc f595 f63c
00000340: d5c6 91bc 2c73 52bc a506 bfbc 6360 adba
00000350: 6e8f 013b 13a3 643c 9c55 c5bc bd77 0fbd
00000360: 0fd7 383c 74aa 0dbd 7f0d 8a3c 6c7c e5bc
00000370: 7b94 f6bc 514c f5bb 1e77 953c 948e 08bd
00000380: 5336 34bc 548f dfbc 0d94 ebbc 89b2 f2bc
00000390: 5a8f a33c 6644 bbbc 8026 14bd 85e3 17bd
000003a0: 3155 023d 70e0 82bb 5380 ad3a 3bde 1f3d
000003b0: 777a fe3c 76df 10bc d458 093d 7784 90bb
000003c0: d3cb eb3c e69d dfbc f2f4 123c db41 0cbd
000003d0: 5889 9ebc 5e4b a4bb dbe3 efbc d7c5 703a
000003e0: bb3d 19bb 5b08 1b3d de84 a43b 0d09 d53c
000003f0: f4e6 da3c cdc9 ad3c c2c3 c23b 210a 0e3b

encoder.2.0.bias f4 [64]
0.0015736471 -0.0023793085 0.012140101 0.015153752 0.01356187 0.022533715 -0.011697492 0.03433038
-0.027148822 0.037681624 -0.012798258 -0.0003297716 0.012419479 0.039578997 0.017878473 0.015504294
0.01501889 -0.021517526 0.011313803 -0.010103999 0.011517865 -0.0049130525 0.015231544 0.01933645
-0.017742675 -0.018945567 0.013158458 -0.024367198 -0.027726244 0.00022692428 0.031413734 -0.01442887
-0.008182163 -0.023057973 0.03838133 0.019860206 -0.043168668 -0.042722683 0.023582384 0.027606044
-0.021648103 -0.02955966 -0.022025406 -0.027063385 0.03230401 -0.037830006 0.016982147 0.0037522032
-0.0063280873 -0.0022490304 0.0014805625 -0.03218417 -0.012325008 0.0015636785 0.028755898 0.026363049
-0.03555006 0.021482665 -0.020848373 -0.020140504 0.030351255 0.025986195 -0.03713056 0.033139147
00000000: d642 ce3a 2cee 1bbb 46e7 463c 7147 783c
00000010: 9b32 5e3c a098 b83c d6a6 3fbc 039e 0c3d
00000020: 3567 debc 0c58 1a3d c9af 51bc 32e5 acb9
00000030: 127b 4b3c 961d 223d e075 923c b905 7e3c
00000040: ca11 763c 8645 b0bc 875d 393c 3e8b 25bc
00000050: 6db5 3c3c acfd a0bb ba8d 793c 7a67 9e3c
00000060: 1659 91bc bc33 9bbc 9396 573c b89d c7bc
00000070: 2622 e3bc 86f2 6d39 b0ab 003d 1167 6cbc
00000080: 7b0e 06bc 13e4 bcbc be35 1d3d dfb1 a23c
00000090: a1d1 30bd fbfd 2ebd d82f c13c 1226 e23c
000000a0: 5d57 b1bc 1a27 f2bc a06e b4bc 08b4 ddbc
000000b0: 3651 043d a3f3 1abd 251e 8b3c 86e7 753b
000000c0: d85b cfbb 7864 13bb 6f0f c23a 8cd3 03bd
000000d0: d5ee 49bc 58f4 cc3a 7d91 eb3c 52f7 d73c
000000e0: f19c 11bd 6afc af3c 35ca aabc b3fd a4bc
000000f0: 32a3 f83c 00e1 d43c 3716 18bd eabc 073d

encoder.2.1.weight f4 [64]
0.98915076 1.0081065 0.99422586 1.0051844 0.99144644 1.0037158 1.0135155 0.99927735
1.0131624 0.9967726 0.9955876 0.9955037 1.0102249 1.0056491 0.9986973 1.0015101
1.0038941 1.0052891 0.9993468 0.9927614 0.9956541 1.0268722 0.99159956 1.0226463
0.99578863 0.9777044 1.0191941 1.0075179 1.0069032 0.99723583 1.0225812 0.9914872
0.9974694 0.9945647 0.99644077 1.0020591 0.996495 1.0100929 1.0071148 1.0105839
1.0075421 0.9992457 0.9914663 1.0123476 1.0002533 0.9962581 1.0045195 0.9947778
1.0487418 0.99073994 1.0092335 0.9902964 1.0029932 0.9892604 0.9960829 0.99549633
0.9981944 1.0014365 1.0033278 1.0130728 0.99667466 0.9988846 1.0058751 0.9882704
00000000: fc38 7d3f a209 813f 9685 7e3f e2a9 803f
00000010: 6fcf 7d3f c279 803f e0ba 813f a4d0 7f3f
00000020: 4eaf 813f 7d2c 7f3f d4de 7e3f 55d9 7e3f
00000030: 0d4f 813f 1cb9 803f a0aa 7f3f 7c31 803f
00000040: 9a7f 803f 50ad 803f 31d5 7f3f 9c25 7e3f
00000050: 30e3 7e3f 8c70 833f 78d9 7d3f 13e6 823f
00000060: 01ec 7e3f d64a 7a3f f474 823f 59f6 803f
00000070: 34e2 803f d94a 7f3f f1e3 823f 1bd2 7d3f
00000080: 285a 7f3f cb9b 7e3f be16 7f3f 7943 803f
00000090: 4c1a 7f3f b94a 813f 23e9 803f d05a 813f
000000a0: 24f7 803f 91ce 7f3f bcd0 7d3f 9b94 813f
000000b0: 4d08 803f c50a 7f3f 1894 803f c2a9 7e3f
000000c0: 2c3d 863f 22a1 7d3f 902e 813f 1184 7d3f
000000d0: 1562 803f 2b40 7d3f 4aff 7e3f d9d8 7e3f
000000e0: ab89 7f3f 122f 803f 0c6d 803f 5fac 813f
000000f0: 1226 7f3f e7b6 7f3f 84c0 803f 4aff 7c3f

encoder.2.1.bias f4 [64]
-0.012494313 0.011725576 -0.0034950806 0.004314138 0.004146136 0.003859933 0.011800437 0.013606246
0.016881127 -0.007881089 -0.0126712425 0.002901624 0.0026727575 0.0024573524 -0.008487946 0.0063134204
0.00965834 0.005883382 -0.009667453 -0.019216025 0.0061681056 0.015614434 -0.019541686 0.023018705
-0.018277273 -0.0070503885 0.014156392 0.004634492 -0.0023225339 0.022553906 0.026334967 -0.019562958
-0.005739588 0.00010080726 -0.0034022683 -0.0010022088 -0.0095781 0.01615923 -0.0134431 0.017791454
0.009546507 0.0045205276 -0.0100302445 0.0037975141 0.003151702 0.010628717 0.012673673 0.009522318
0.004667308 -0.0072693736 0.017973015 -0.0025219503 -0.003689902 -0.003013948 0.0053654015 0.00564434
-0.008516085 0.014868725 0.012986362 0.017703297 -0.0049293563 -0.0061182757 0.016690677 -0.0010201127
00000000: f2b4 4cbc a11c 403c b90d 65bb 9d5d 8d3b
00000010: 4fdc 873b eef6 7c3b 9f56 413c bbec 5e3c
00000020: 4a4a 8a3c af1f 01bc 0b9b 4fbc 2c29 3e3b
00000030: 6e29 2f3b 880b 213b 0711 0bbc cfe0 ce3b
00000040: 043e 1e3c 63c9 c03b 3d64 1ebc ed6a 9dbc
00000050: d21d ca3b afd3 7f3c e315 a0bc b991 bc3c
00000060: 38ba 95bc f206 e7bb 36f0 673c f0dc 973b
00000070: a735 18bb f8c2 b83c 6ebc d73c 7f42 a0bc
00000080: 2713 bcbb 7c68 d338 97f8 5ebb 8c5c 83ba
00000090: 77ed 1cbc 5d60 843c 7340 5cbc 62bf 913c
000000a0: f468 1c3c ef20 943b e555 24bc b7df 783b
000000b0: c98c 4e3b 1224 2e3c 3da5 4f3c 7f03 1c3c
000000c0: 38f0 983b ed33 eebb 253c 933c 4e47 25bb
000000d0: 48d2 71bb a885 45bb 40d0 af3b 28f4 b83b
000000e0: 0d87 0bbc f49b 733c c0c4 543c 8106 913c
000000f0: 7086 a1bb d17b c8bb e3ba 883c 4db5 85ba

encoder.2.1.running_mean f4 [64]
-0.041069828 -0.22637264 0.8950481 -0.42965865 -0.023204148 -0.60357684 -0.28482345 -0.26183483
-0.97717065 0.75631326 -0.4451017 0.6724193 -0.67765486 0.29506183 0.2734626 -0.56654036
-0.37118495 -0.5701065 -0.2641044 0.093028024 -0.34436044 -0.006888612 0.16913593 -1.0358578
-0.1113928 -0.59121275 -0.15889783 -0.19903292 0.2180397 -1.0476625 -0.5316882 -0.28853026
-0.0005439041 -0.8126746 -0.38054815 -0.68312186 -0.07529909 -1.0052768 0.37716004 -0.065826006
-0.9271636 -0.40767333 0.017180525 -0.26330957 0.19344002 -0.71428174 -0.10898913 -0.40551916
-0.34624475 -0.45364776 -0.41141698 0.3862718 0.59008855 -0.0890301 -0.24368675 -0.49690482
-0.43657053 -0.47010407 -0.4887494 -0.49805894 -0.42958793 -0.4173663 -0.6352831 0.54312575
00000000: d638 28bd 3bce 67be df21 653f 38fc dbbe
00000010: a016 bebc 0384 1abf 61d4 91be 370f 86be
00000020: db27 7abf bf9d 413f 5fe4 e3be ac23 2c3f
00000030: ca7a 2dbf 5812 973e 4a03 8c3e ca08 11bf
00000040: f40b bebe 80f2 11bf b138 87be 7a85 be3d
00000050: 0350 b0be deb9 e1bb f831 2d3e fd96 84bf
00000060: e921 e4bd b859 17bf 1db6 22be 49cf 4bbe
00000070: cd45 5f3e ce19 86bf b81c 08bf 3dba 93be
00000080: c994 0eba 710b 50bf 35d7 c2be 13e1 2ebf
00000090: 6936 9abd e9ac 80bf 1f1b c13e c9cf 86bd
000000a0: 985a 6dbf 8fba d0be 2cbe 8c3c 83d0 86be
000000b0: 2415 463e 2bdb 36bf b135 dfbd 35a0 cfbe
000000c0: fe46 b1be 8544 e8be 3fa5 d2be 6bc5 c53e
000000d0: 0b10 173f 6a55 b6bd 0589 79be 4f6a febe
000000e0: 2c86 dfbe 7bb1 f0be 5d3d fabe 9501 ffbe
000000f0: f3f2 dbbe 09b1 d5be eaa1 22bf 4a0a 0b3f

encoder.2.1.running_var f4 [64]
0.18456993 0.21760687 0.3202567 0.49513194 0.19127929 0.20375836 0.20636411 0.1936207
0.38867795 0.43354118 0.320866 0.34789315 0.2451839 0.13010998 0.18114305 0.24107273
0.21235313 0.2293242 0.21482015 0.12707098 0.16229951 0.12639707 0.21240711 0.4222032
0.2317231 0.16515605 0.18799843 0.11084988 0.14090554 0.32544407 0.174049 0.17860036
0.12839982 0.40049437 0.32928935 0.34989864 0.14747472 0.2585664 0.18605162 0.16939625
0.28643137 0.18691032 0.129036 0.1865226 0.22367257 0.46544164 0.25296083 0.300108
0.20344022 0.22207722 0.19466798 0.3563375 0.12192842 0.22361033 0.1504105 0.20085208
0.18932433 0.37193054 0.1582189 0.27129158 0.42593378 0.20811743 0.19734319 0.3767699
00000000: e6ff 3c3e 56d4 5e3e b0f8 a33e ef81 fd3e
00000010: b8de 433e 08a6 503e 1d51 533e 8144 463e
00000020: cc00 c73e 1cf9 dd3e 8c48 a43e 0d1f b23e
00000030: 7d11 7b3e 8d3b 053e 907d 393e c5db 763e
00000040: 1973 593e f7d3 6a3e d0f9 5b3e e51e 023e
00000050: d831 263e 3c6e 013e 4081 593e 052b d83e
00000060: d248 6d3e ab1e 293e a982 403e 4305 e33d
00000070: 8b49 103e 9ba0 a63e e739 323e 03e3 363e
00000080: 3e7b 033e 990d cd3e 9d98 a83e ea25 b33e
00000090: 9d03 173e d162 843e 5184 3e3e 3676 2d3e
000000a0: 22a7 923e 6b65 3f3e 0322 043e c8ff 3e3e
000000b0: 6c0a 653e 5e4e ee3e 1584 813e c1a7 993e
000000c0: a252 503e 3668 633e 0b57 473e de71 b63e
000000d0: 9cb5 f93d 1bfa 643e 3605 1a3e 2bac 4d3e
000000e0: 3dde 413e ae6d be3e 2304 223e bbe6 8a3e
000000f0: fe13 da3e bc1c 553e 5514 4a3e fce7 c03e

encoder.3.0.weight f4 [64, 64, 3, 3]
0.020913243 -0.028317697 -0.02135029 -0.0075707985 -0.048245173 -0.031436328 -0.01267073 -0.032714143
0.0012481352 0.039275818 -0.012232655 0.031842448 0.03323352 -0.032927148 0.010700405 0.012345926
0.023374228 -0.0006961843 0.0052908845 -0.0013431526 0.02723343 0.029050393 2.465115e-05 0.012087218
-0.006263628 -0.018933661 -0.056900844 -0.045875605 0.010006433 0.017868752 -0.04049695 -0.045836113
-0.011009603 -0.030585026 -0.03887184 0.025518134 -0.027990537 0.040655307 -0.012105441 0.031056477
0.0015384693 0.012805963 -0.035920464 -0.014678444 -0.01137688 0.0069842683 0.046122283 0.038899772
-0.0057391687 0.0025868232 -0.033941656 0.024442919 0.0012721046 0.004728549 -0.033918437 0.035130635
0.034190223 0.0307303 -0.045330282 -0.032499477 0.0059683844 -0.028352467 0.009540156 -0.0027398244
0.0123442905 -0.040099777 0.0393093 -0.009331296 -0.01017525 -0.012128938 0.035651285 -0.04949216
0.019862792 0.031383876 -0.011780783 -0.040031254 -0.026413716 -0.032658223 -0.007412323 -0.050900817
-0.02530819 -0.018846866 0.00022441847 0.026356608 -0.023797251 -0.01028763 -0.03710132 0.015498796
0.0066728485 -0.036101773 0.023236047 0.021123547 -0.019996928 -0.027411992 -0.039870184 -0.019760903
0.018763222 -0.035880316 -0.008891342 -0.0027390537 -0.02433141 -0.0120676095 -0.027357772 0.0021052358
-0.010216626 0.014715991 0.0026200358 -0.0488133 -0.022341218 -0.022832917 0.009271143 -0.038821988
-0.032379597 0.010436023 0.03321126 -0.006704264 -0.020429317 0.02896627 0.03793176 -0.012635025
-0.0077295494 -0.03898479 0.031478874 0.02386041 0.018466612 -0.046351947 -0.02314221 0.03639254
-0.010707807 -0.039036453 0.0080004 -0.032106973 -0.039022338 0.0019199839 -0.026108347 0.037273522
0.042281594 0.013385181 -0.0146406805 0.025673775 -0.011248273 0.030220514 0.034863733 0.009400806
0.020042375 -0.015694655 -0.022884995 0.032712802 -0.007783372 -0.02128091 -0.0115197105 0.024972305
0.008401519 -0.005265 -0.007955714 0.015635919 0.01570805 -0.035713375 -0.050415166 0.029807556
-0.029741218 0.008556185 -0.029649632 0.015378248 -0.037977148 -0.039853394 -0.0039461236 -0.04950774
0.011124721 -0.043503966 -0.03114656 0.0095919855 0.007629697 -0.0013068974 -0.0033250935 0.010996657
-0.00031466974 -0.049598455 0.014724903 -0.0052153114 0.0016110172 0.005725445 0.022374691 0.010995682
0.028454375 -0.020759858 0.023154132 -0.040730834 -0.019409863 0.00765996 0.005930289 0.02468369
-0.03676366 0.033166613 0.008228522 -0.028227476 0.0030815916 -0.013313077 -0.00082332804 -0.026219845
0.004400089 0.025824435 -0.0058335443 -0.017975014 -0.031229323 -0.0043554776 -0.0123515865 -0.035782143
-0.03789722 -0.039102867 -0.006354679 0.0069295317 0.0071678204 -0.020658175 -0.004329417 0.010464378
-0.034415137 0.02354291 0.016630925 0.024943242 -0.018528966 -0.0035370672 0.031220334 0.02300598
-0.017058402 -0.0042782663 0.030088937 0.030376667 0.013646994 0.032842256 -0.046705175 0.032306124
-0.019098219 -0.03185176 -0.004629819 0.0358007 -0.017108552 0.02747054 0.0021319815 -0.024934057
-0.022942914 -0.00652631 -0.025589753 -0.017318076 -0.022947032 0.0021172184 0.03763215 -0.02262015
0.023649078 0.026369737 0.03300631 -0.0298977 0.044400364 0.04578019 0.011537998 -0.02930416
00000000: 4052 ab3c 84fa e7bc cee6 aebc 7614 f8bb
00000010: bb9c 45bd 61c3 00bd e598 4fbc 44ff 05bd
00000020: 7898 a33a aedf 203d 796b 48bc 3a6d 023d
00000030: df1f 083d 9ede 06bd c050 2f3c 9146 4a3c
00000040: 4f7b bf3c 2380 36ba 285f ad3b b90c b0ba
00000050: a418 df3c 17fb ed3c f1c9 ce37 7809 463c
00000060: 1f3f cdbb c41a 9bbc dc10 69bd 0fe8 3bbd
00000070: 06f2 233c 7d61 923c 21e0 25bd a6be 3bbd
00000080: 9f61 34bc 738d fabc 1438 1fbd 680b d13c
00000090: 694c e5bc 2e86 263d e655 46bc 276a fe3c
000000a0: 77a6 c93a 1ad0 513c 5621 13bd db7d 70bc
000000b0: 1866 3abc 4adc e43b b8ea 3c3d 5e55 1f3d
000000c0: a30f bcbb b187 293b 6806 0bbd 843c c83c
000000d0: bfbc a63a f2f1 9a3b 0fee 0abd 24e5 0f3d
000000e0: 0c0b 0c3d 1cbe fb3c 3fac 39bd 2c1e 05bd
000000f0: 7092 c33b 6f43 e8bc 514e 1c3c a08e 33bb
00000100: b53f 4a3c aa3f 24bd ca02 213d 4be2 18bc
00000110: 17b6 26bc 74b8 46bc 1507 123d 4bb8 4abd
00000120: 4bb7 a23c 618c 003d 2f04 41bc d0f7 23bd
00000130: 9461 d8bc a1c4 05bd 12e3 f2bb 607d 50bd
00000140: 1f53 cfbc be64 9abc e051 6b39 d0e9 d73c
00000150: 74f2 c2bc 738d 28bc 8ef7 17bd a9ee 7d3c
00000160: e9a7 da3b 74df 13bd 8659 be3c 4a0b ad3c
00000170: 99d0 a3bc 1d8f e0bc eb4e 23bd 9ee1 a1bc
00000180: 54b5 993c 3df7 12bd feac 11bc b281 33bb
00000190: aa52 c7bc 39b7 45bc 681d e0bc fff7 093b
000001a0: a363 27bc 571b 713c e8b4 2b3b 74f0 47bd
000001b0: ee04 b7bc 190c bbbc fee5 173c ce03 1fbd
000001c0: 78a0 04bd dafb 2a3c 8808 083d 71af dbbb
000001d0: 625b a7bc ac4a ed3c 555e 1b3d 2303 4fbc
000001e0: 2948 fdbb 84ae 1fbd feef 003d e876 c33c
000001f0: 4b47 973c 8adb 3dbd bb94 bdbc 5810 153d
00000200: cc6f 2fbc b0e4 1fbd 1c14 033c 9a82 03bd
00000210: e3d5 1fbd f8a7 fb3a 2ce1 d5bc 1fac 183d
00000220: 772f 2d3d 854d 5b3c 77df 6fbc cf51 d23c
00000230: ad4a 38bc 0391 f73c 46cd 0e3d d705 1a3c
00000240: e82f a43c 1492 80bc 5079 bbbc dcfd 053d
00000250: a80b ffbb 4e55 aebc 2bbd 3cbc b892 cc3c
00000260: 86a6 093c 0586 acbb af58 02bc e616 803c
00000270: 2bae 803c 3048 12bd 2280 4ebd fa2e f43c
00000280: dba3 f3bc 3e2f 0c3c c9e3 f2bc 0cf5 7b3c
00000290: ed8d 1bbd 503d 23bd 7c4e 81bb a1c8 4abd
000002a0: 7644 363c 3731 32bd 1227 ffbc b427 1d3c
000002b0: 8a02 fa3b 334c abba d0e9 59bb 532b 343c
000002c0: 42fa a4b9 c027 4bbd b840 713c 34e5 aabb
000002d0: c428 d33a 849c bb3b 214b b73c 3c27 343c
000002e0: 2619 e93c 9410 aabc bcad bd3c 60d5 26bd
000002f0: 6f01 9fbc 6700 fb3b df52 c23b 7335 ca3c
00000300: 7e95 16bd b7d9 073d ecd0 063c 4f3d e7bc
00000310: 87f4 493b 181f 5abc 9cd4 57ba 00cb d6bc
00000320: 9f2e 903b c48d d33c 5127 bfbb 5640 93bc
00000330: a3d4 ffbc 65b8 8ebb 4f5e 4abc 4c90 12bd
00000340: 1e3a 1bbd 542a 20bd e93a d0bb 2011 e33b
00000350: 09e0 ea3b 553b a9bc c8dd 8dbb c872 2b3c
00000360: e3f6 0cbd 10dd c03c 943d 883c c555 cc3c
00000370: 0fca 97bc 24ce 67bb c9c1 ff3c 0977 bc3c
00000380: 10be 8bbc b330 8cbb 137d f63c 7dd8 f83c
00000390: a497 5f3c 9a85 063d ed4d 3fbd 6d53 043d
000003a0: de73 9cbc fe76 02bd bdb5 97bb c1a3 123d
000003b0: 3c27 8cbc e609 e13c b7b8 0b3b 8242 ccbc
000003c0: c7f2 bbbc a8da d5bb 9aa1 d1bc a3de 8dbc
000003d0: 6afb bbbc 08c1 0a3b 2b24 1a3d e54d b9bc
000003e0: b6bb c13c 5905 d83c a031 073d 05ec f4bc
000003f0: 28dd 353d 0284 3b3d df09 3d3c 470f f0bc
